p3_collab-compet/agent1_checkpoint_critic.pth (torch_old, 164615 bytes, 5 tensors)

fcs1.weight f4 [200, 52]
0.8933144 0.5263977 0.12735526 -0.35777825 0.19247456 -0.34093705 0.020217013 -0.35837358
1.2523245 0.4754995 0.048316002 -0.071368255 0.05470801 -0.7137706 0.04985503 -0.0655859
0.45266038 0.33502832 -0.089004286 0.16482785 -0.15134893 -0.541355 -0.10008069 0.11663021
0.38239327 -0.46155718 -0.16803509 0.22984959 -0.11551609 -0.4397646 -0.17038676 0.1850067
0.49953213 -0.4565147 0.06409383 -0.1916179 -0.13574699 -0.63615644 0.052919533 -0.23294589
0.31129575 -0.70558894 -0.012177124 -0.23146054 0.20221852 -0.5075669 0.033647403 -0.22307684
-0.5466168 -1.0463372 0.32635808 0.58143556 -0.13155 -0.3448092 -0.07075626 -0.2016543
-0.07906654 -0.5248174 -0.0008374037 -0.24620911 -0.088935405 -0.4303486 -0.06377205 -0.3560728
0.07762694 -0.14048624 0.040818747 -0.33120534 -0.1623206 -0.74774355 -0.082424164 -0.27196905
-0.13194086 0.0010792315 -0.06210844 -0.26792374 0.15171513 0.014836214 -0.034341387 -0.031129524
0.09441594 -0.41976628 -0.045949437 -0.021514133 0.20604222 -0.08070578 0.016995225 0.041228488
-0.0095450515 -0.119270794 -0.0061213193 0.056228317 0.22999394 -0.31063262 -0.0683739 0.07703434
0.039033417 0.057365716 0.00018639855 0.06719537 -2.6165764 -0.19722906 2.3315122 -0.44033104
0.31428066 1.4221638 0.03738798 0.33013698 -0.12283139 0.42219153 -0.040619608 0.278219
0.43139154 1.4507641 -0.043625385 0.101835415 0.025214415 0.28393993 0.06333249 0.0068499083
0.4495687 1.3246487 0.00016541529 -0.10203272 0.1276221 -0.12877491 -0.008385062 -0.032466095
0.093737684 0.0317745 -0.00065915834 0.04672664 0.19337256 0.44796398 -0.02048723 0.0027436318
0.19948974 0.18291274 -0.011540492 -0.020780684 -0.05312787 0.32505986 0.011821828 -0.09266534
0.2805136 0.41240287 0.028402602 0.5740571 -0.17605476 -0.19877681 0.04001794 0.51010495
0.19299294 -0.32792795 -0.9886121 0.19700485 0.22401662 -0.22236522 -0.12879957 -0.25017622
0.24120036 -0.3673779 -0.03258028 -0.26683804 0.3310497 -0.12390545 0.012113123 -0.15643421
-0.037194807 -0.6009481 -0.002232423 -0.14425081 0.2649279 0.04726122 -0.15035708 0.66464037
-0.098559394 -1.0449803 -0.13223754 0.6353 0.38447034 0.11790454 -0.06829452 -0.24668941
-0.24936749 -0.28160205 -0.083139986 -0.23920271 0.59178764 0.032736626 0.08792697 0.34224805
-0.07571666 -0.6317068 0.06768501 0.3864011 0.54732513 0.24987872 -0.1178611 -0.05313438
0.16647235 -0.9741985 -0.03222528 -0.021792548 -0.28585646 0.94647413 -0.6716846 1.2288214
0.14540306 0.50297487 0.009887718 -0.07810921 -0.031062787 -0.28843722 -0.01940189 -0.0139187975
0.1332452 0.6707814 -0.1069728 0.19989619 0.024031827 -0.5181884 -0.059896063 0.21704844
0.15718426 0.8885916 0.19232886 0.29800874 -0.026015012 -0.9437156 0.10681303 0.25486964
-0.12956314 -0.0255269 -0.011569092 -0.3484356 -0.046061493 -0.26256567 0.01516508 -0.37875304
-0.035655912 -0.06802372 -0.015457129 0.05565002 0.037243336 -0.46578026 0.016451675 0.010182456
0.0139577985 -0.080405295 -0.12837239 0.08098018 0.039384574 -0.9645785 -0.09005151 0.05695825
00000000: 41b0 643f 00c2 063f 6b69 023e b62e b7be
00000010: 0d18 453e 4d8f aebe 269e a53c be7c b7be
00000020: 2b4c a03f ac74 f33e 00e7 453d 8529 92bd
00000030: 8215 603d acb9 36bf ca34 4c3d e651 86bd
00000040: 1ac3 e73e d588 ab3e e147 b6bd a2c8 283e
00000050: 37fb 1abe 3e96 0abf 1bf7 ccbd d2db ee3d
00000060: 0dc9 c33e 3951 ecbe 6411 2cbe b15d 6b3e
00000070: b393 ecbd d328 e1be de79 2ebe 6572 3d3e
00000080: adc2 ff3e 4bbc e9be a043 833d 7c37 44be
00000090: 4201 0bbe 26db 22bf 27c2 583d 5e89 6ebe
000000a0: 2862 9f3e 7aa1 34bf 8f82 47bc fe03 6dbe
000000b0: 5f12 4f3e e8ef 01bf dcd1 093d 416e 64be
000000c0: 14ef 0bbf 61ee 85bf 6818 a73e f6d8 143f
000000d0: 0bb5 06be d58a b0be a8e8 90bd 777e 4ebe
000000e0: a3ed a1bd 6f5a 06bf 3685 5bba 3e1e 7cbe
000000f0: c423 b6bd a756 dcbe ec9a 82bd 2d4f b6be
00000100: e0fa 9e3d a0db 0fbe 8f31 273d bf93 a9be
00000110: 5f37 26be 1f6c 3fbf 00ce a8bd 873f 8bbe
00000120: 811b 07be 0075 8d3a 6b65 7ebd 4d2d 89be
00000130: 365b 1b3e 9713 733c 8ea9 0cbd 5803 ffbc
00000140: 255d c13d 9beb d6be 7a35 3cbd 683e b0bc
00000150: bbfc 523e 1249 a5bd 9239 8b3c 34df 283d
00000160: d962 1cbc 3f44 f4bd 5995 c8bb aa4f 663d
00000170: 8883 6b3e 3d0b 9fbe 9e07 8cbd 2ec4 9d3d
00000180: 81e1 1f3d 50f8 6a3d fb73 4339 ba9d 893d
00000190: fd75 27c0 6af6 49be 7f37 1540 1273 e1be
000001a0: 65e9 a03e 7709 b63f 2324 193d b707 a93e
000001b0: 068f fbbd 7d29 d83e bf60 26bd b972 8e3e
000001c0: 5adf dc3e a3b2 b93f 88b0 32bd 168f d03d
000001d0: 768e ce3c 9360 913e 77b4 813d 3275 e03b
000001e0: de2d e63e 178e a93f 5473 2d39 88f6 d0bd
000001f0: 5eaf 023e 92dd 03be 8061 09bc 2bfb 04bd
00000200: 8bf9 bf3d fa25 023d 5ecb 2cba 6f64 3f3d
00000210: 7503 463e 895b e53e d6d4 a7bc 81ce 333b
00000220: 0a47 4c3e 7a4d 3b3e 5514 3dbc 413c aabc
00000230: 9c9c 59bd 3f6e a63e 57b0 413c 53c7 bdbd
00000240: 7b9f 8f3e 7826 d33e 93ac e83c 68f5 123f
00000250: b347 34be 268c 4bbe dae9 233d 3d96 023f
00000260: f19f 453e 2ce6 a7be af15 7dbf a4bb 493e
00000270: 9d64 653e b5b3 63be 09e4 03be 1917 80be
00000280: 3afd 763e f518 bcbe e672 05bd ff9e 88be
00000290: 597f a93e 24c2 fdbd 1f76 463c 4a30 20be
000002a0: 9559 18bd bcd7 19bf d84d 12bb 7cb6 13be
000002b0: a1a4 873e fb94 413d 35f7 19be df25 2a3f
000002c0: 82d9 c9bd eac1 85bf 4769 07be 05a3 223f
000002d0: 4cd9 c43e ef77 f13d ffdd 8bbd 269c 7cbe
000002e0: 315a 7fbe 252e 90be 4c45 aabd 8ef1 74be
000002f0: 657f 173f d716 063d 0e13 b43d 233b af3e
00000300: 5611 9bbd 89b7 21bf 709e 8a3d 5dd6 c53e
00000310: 801d 0c3f 35e0 7f3e 2961 f1bd 70a3 59bd
00000320: ba77 2a3e 1365 79bf a8fe 03bd 4986 b2bc
00000330: c75b 92be 214c 723f 86f3 2bbf 054a 9d3f
00000340: 8ae4 143e f6c2 003f 1800 223c b9f7 9fbd
00000350: 6377 febc 0bae 93be b6f0 9ebc ab0b 64bc
00000360: 6e71 083e 54b8 2b3f 8e14 dbbd 96b1 4c3e
00000370: 65de c43c ffa7 04bf 9355 75bd f241 5e3e
00000380: e9f4 203e bd7a 633f dbf1 443e 9a94 983e
00000390: 6f1d d5bc 5897 71bf cac0 da3d 467e 823e
000003a0: 33ac 04be ca1d d1bc 4a8c 3dbc 2766 b2be
000003b0: faaa 3cbd 026f 86be f576 783c ebeb c1be
000003c0: ef0b 12bd 0550 8bbd e63f 7dbc 46f1 633d
000003d0: 788c 183d c07a eebe aac5 863c 51d4 263c
000003e0: 40af 643c 88ab a4bd 0d74 03be f0d8 a53d
000003f0: b851 213d 9eee 76bf ed6c b8bd 0e4d 693d

fcs1.bias f4 [200]
-0.3765504 -0.32484555 0.023126569 0.04145282 -0.47670773 -0.45710656 -0.8346862 0.26215667
0.06550619 -0.39956498 -0.61704487 -0.1328103 -0.6969538 0.19894081 -0.30882528 -0.47302046
1.2886882 -0.3438477 -0.6554745 -0.014195493 0.325724 -0.10504376 -0.04749346 1.2014375
-0.57135785 -0.410301 -0.21821691 -0.47192836 -1.140225 0.19760671 0.011589105 -0.5595913
-0.3393021 -0.3183938 -0.34509358 -0.8973409 -0.52999926 -0.49257222 -0.48668587 -0.44823313
-0.8766833 -0.17609352 0.15675701 -0.9899613 -0.25999215 -0.32992867 -0.17959832 -0.6077565
-0.6414325 0.12880722 -0.47037503 -0.8433488 0.68919253 -0.28680417 -0.44233167 -0.24081154
-0.60523033 -0.5206837 -0.10678674 -0.45715946 1.2532727 0.071615174 0.21635774 -0.2728551
0.13118912 -0.62635404 -0.80529225 0.29684982 0.49552414 0.27259362 -0.328445 -0.109408505
-0.40822285 -0.027888231 -0.9268903 -0.06605376 -0.6874765 -0.1910795 -0.4874625 1.1186466
-0.51684284 0.06527238 -0.30350798 -0.574607 -0.29045808 0.032359153 -0.4568943 -0.07039711
0.07566849 -0.6428309 -0.57325 -0.5623269 0.48438102 0.4350674 -0.12577032 -0.53085965
-1.7031838 -0.3229773 -0.19281977 -0.7766898 -0.34156063 -0.39431116 0.2019894 0.09096471
-0.72114253 -0.31684062 -0.75402623 -0.78644454 -0.2805506 0.07577852 1.0618175 -0.3518652
0.18783954 -0.53769684 -0.7111262 -0.96111524 -0.4594845 -0.5421799 0.04756718 -0.4354633
-0.31322864 -1.0027071 -0.4729738 -0.29260617 -0.6556841 -0.28647682 -0.43293238 -1.3524799
-0.89403296 0.6186283 -0.9025182 -0.7359698 -0.34201056 -0.71078855 -0.9086937 0.26554033
0.15973629 -0.8433669 -0.7539424 -0.719087 -0.9888044 -0.56550676 0.37472415 0.03420575
-0.7894558 -0.3579849 -0.3124932 -0.27193367 -0.3721881 -0.077498265 -0.50327384 -0.49294555
-0.4375364 0.037268978 -0.9043858 -1.1567345 -0.48307022 -0.29237148 -0.4315388 -0.007739393
-0.2115021 -0.43017307 -0.35526 0.3994943 -0.4115809 -0.34753963 0.018850593 -0.24668095
-0.54252684 0.26919425 -0.44435203 0.5358457 -0.34828082 0.3000875 1.2063212 -0.18414982
-0.7695355 -0.13117416 -0.60580546 -0.7111498 -0.45174506 -0.2706226 -0.7535537 -0.6465228
-0.35356206 -0.19071181 -0.9041306 0.22506112 -0.41895446 -0.72909653 -0.5625227 -0.4278413
-0.6540937 -0.39951566 -0.3718131 -0.21050201 -0.31445473 -0.7333851 -0.21338068 -0.10303862
00000000: 37cb c0be 2852 a6be ee73 bd3c 6fca 293d
00000010: 0913 f4be df09 eabe ffad 55bf 6639 863e
00000020: 1c28 863d c893 ccbe a7f6 1dbf 6cff 07be
00000030: 906b 32bf 24b7 4b3e 591e 9ebe bd2f f2be
00000040: bcf3 a43f ce0c b0be 2dcd 27bf 3794 68bc
00000050: 4cc5 a63e 2f21 d7bd 8188 42bd b4c8 993f
00000060: 8244 12bf f912 d2be 4174 5fbe 98a0 f1be
00000070: e5f2 91bf 6a59 4a3e 3be0 3d3c 6041 0fbf
00000080: 01b9 adbe 8304 a3be 1bb0 b0be 22b8 65bf
00000090: 08ae 07bf 6d32 fcbe e42e f9be d07e e5be
000000a0: 516e 60bf dc51 34be e984 203e 1b6e 7dbf
000000b0: b11d 85be 69ec a8be 9fe8 37be ee95 1bbf
000000c0: ec34 24bf 0ae6 033e ffd4 f0be b5e5 57bf
000000d0: ec6e 303f ffd7 92be 4c79 e2be 4d97 76be
000000e0: 60f0 1abf 874b 05bf 02b3 dabd ce10 eabe
000000f0: 3d6b a03f faaa 923d e28c 5d3e aab3 8bbe
00000100: 7156 063e bd58 20bf a227 4ebf b3fc 973e
00000110: 57b5 fd3e 6491 8b3e f129 a8be 9111 e0bd
00000120: 9602 d1be dc75 e4bc af48 6dbf 3247 87bd
00000130: 76fe 2fbf 58aa 43be af94 f9be d02f 8f3f
00000140: d04f 04bf 87ad 853d 6665 9bbe 7219 13bf
00000150: ecb6 94be 088b 043d 0dee e9be 5c2c 90bd
00000160: 15f8 9a3d 9190 24bf 83c0 12bf a8f4 0fbf
00000170: ca00 f83e 27c1 de3e efc9 00be 6be6 07bf
00000180: ed01 dabf 485d a5be 8c72 45be 25d5 46bf
00000190: 09e1 aebe 27e3 c9be 4fd6 4e3e b54b ba3d
000001a0: cc9c 38bf ef38 a2be dd07 41bf 6e54 49bf
000001b0: 54a4 8fbe c531 9b3d a3e9 873f ad27 b4be
000001c0: 0259 403e 80a6 09bf 5e0c 36bf a60b 76bf
000001d0: 8d41 ebbe 4dcc 0abf ced5 423d 0cf5 debe
000001e0: 815f a0be b558 80bf 9f29 f2be 7ad0 95be
000001f0: eada 27bf 17ad 92be 50a9 ddbe 101e adbf
00000200: 58df 64bf 6d5e 1e3f 6f0b 67bf 8468 3cbf
00000210: 021c afbe 3df6 35bf 26a0 68bf e7f4 873e
00000220: e991 233e e5e6 57bf 5e02 41bf 1616 38bf
00000230: 4922 7dbf 0dc5 10bf d8db bf3e 541b 0c3d
00000240: c619 4abf cc49 b7be 1cff 9fbe e43a 8bbe
00000250: 708f bebe 69b7 9ebd 8ed6 00bf 5c63 fcbe
00000260: c504 e0be 5ba7 183d d485 67bf e00f 94bf
00000270: fb54 f7be b7b1 95be a7f2 dcbe bc9a fdbb
00000280: 0294 58be a53f dcbe a4e4 b5be 848a cc3e
00000290: bbba d2be b7f0 b1be 8f6c 9a3c ee99 7cbe
000002a0: 0ae3 0abf d4d3 893e 1c82 e3be 2f2d 093f
000002b0: dd51 b2be 12a5 993e bc68 9a3f c591 3cbe
000002c0: 4700 45bf 8552 06be 1116 1bbf ea0d 36bf
000002d0: 214b e7be 0c8f 8abe e5e8 40bf 8582 25bf
000002e0: 1606 b5be f549 43be 1a75 67bf 6c76 663e
000002f0: 3381 d6be 12a6 3abf 7d01 10bf 040e dbbe
00000300: af72 27bf 518d ccbe 495e bebe d78d 57be
00000310: 3600 a1be 20bf 3bbf 7780 5abe e905 d3bd

fc2.weight f4 [150, 200]
-0.0024521165 0.04010405 -0.039653555 -0.03495223 0.059963897 -0.03464657 0.008037719 -0.18223408
-0.11284629 -0.045112327 -0.03128634 -0.10189336 -0.049844258 -0.055774055 -0.092323214 -0.19278742
-0.09883953 0.020540638 -0.19083607 -0.039088175 -0.089445345 -0.20505664 -0.008817014 -0.07850936
0.046747837 -0.03466197 -0.098110035 -0.019399662 -0.1653379 -0.0037917907 -0.08654068 -0.12770088
-0.0135753695 -0.06440987 -0.041748695 -0.29245812 0.0811982 -0.046690416 -0.05738578 -0.044004254
-0.06656568 -0.08769642 -0.0051393863 -0.08415403 -0.07407973 -0.101486474 -0.20368432 -0.11193128
-0.09971982 -0.10226398 -0.014511083 -0.15962341 -0.0032920763 -0.07941739 -0.010661436 -0.035167098
-0.057161305 -0.13440885 -0.06634717 -0.0950644 -0.05949289 0.07956305 0.041502662 0.0524552
-0.033129588 0.08052031 0.03593868 -0.15376082 -0.027854936 -0.16973266 -0.19292098 -0.043195613
0.0509123 0.07616534 -0.051907904 -0.01512429 -0.009765605 -0.01173668 -0.0946791 0.04778785
0.02363958 -0.028490437 -0.05513233 0.023931906 -0.1189441 -0.01307759 0.022284996 -0.18040134
0.0556355 -0.092190675 -0.010028384 -0.087502524 -0.05409779 -0.0018111141 -0.10043688 -0.09829264
-0.021105664 -0.07526254 -0.0021398244 0.04975203 -0.11420056 -0.09530686 0.024872053 -0.03666735
-0.021979317 -0.07003372 -0.06096422 -0.12680615 0.038762517 -0.006394252 -0.108845785 -0.05708415
-0.09786842 -0.068250455 0.036260538 -0.11738768 -0.0062520206 0.10219472 -0.083840825 -0.10721505
-0.037567075 0.016310785 -0.12605897 -0.023117369 -0.07190183 -0.021443583 -0.01972874 -0.01565174
0.0027606112 -0.07342336 -0.06457978 -0.04191274 0.041297063 -0.055799443 0.009817042 -0.035234045
0.005206363 -0.07429876 0.0004390882 -0.010604191 -0.019018417 -0.13101554 -0.17535754 -0.10667185
-0.0791949 -0.032952044 -0.08109123 0.027873015 -0.031555817 0.03702191 -0.01109576 -0.0017603578
-0.06267842 -0.014666701 -0.013843502 -0.108971246 -0.028180216 -0.07623348 -0.03570318 -0.06156009
-0.0026597718 -0.07829915 0.048371237 0.0630988 0.019240744 0.03771556 -0.07190314 0.03519934
-0.05539302 -0.081176296 -0.09099689 -0.085708015 -0.049572278 -0.0053018816 -0.19441016 -0.12761322
-0.021834426 -0.038319994 0.0109542245 -0.046264175 -0.073602244 0.0027531295 -0.039888848 -0.11284214
-0.10393136 -0.07659823 0.05335233 -0.04700554 -0.059706938 -0.03541248 -0.053206667 -0.055980932
-0.18505077 0.04331984 -0.019192448 -0.06894659 0.01628836 0.008954924 0.009665535 -0.05317097
-0.07474942 -0.05235059 0.084665544 0.20534292 0.05255986 0.020995634 -0.03896425 -0.21761069
-0.38790765 0.07988826 -0.3110177 0.05652183 0.16888437 -0.14313568 0.11740273 -0.06629642
0.0408163 -0.03576428 -0.39940298 -0.14222406 0.1665771 -0.034365077 -0.048885312 0.15295698
-0.4895636 0.24260025 -0.26351222 -0.12282635 -0.23482198 0.2580305 0.08664976 -0.08705331
0.024341678 -0.1116203 0.121685475 0.13267088 0.024502132 0.025894046 -0.17853051 -0.16265172
0.17460266 -0.07571419 -0.017918386 0.201365 0.057448514 -0.07254752 -0.017420648 0.0025289913
0.025559584 0.31023964 -0.052344732 -0.09302981 0.14287178 0.44808793 0.007993453 -0.05844622
00000000: b0b3 20bb 2544 243d c46b 22bd 122a 0fbd
00000010: b49c 753d 90e9 0dbd a3b0 033c 929b 3abe
00000020: f51b e7bd b4c7 38bd 1b26 00bd 77ad d0bd
00000030: 7e29 4cbd 5673 64bd f413 bdbd 116a 45be
00000040: 616c cabd d744 a83c 886a 43be ec1a 20bd
00000050: 1f2f b7bd 5efa 51be 3d75 10bc 84c9 a0bd
00000060: a97a 3f3d b6f9 0dbd eaed c8bd 0aec 9ebc
00000070: 574e 29be b17f 78bb 3d3c b1bd 05c4 02be
00000080: 3a6b 5ebc 52e9 83bd ae00 2bbd 12bd 95be
00000090: 3e4b a63d 733e 3fbd 5a0d 6bbd ce3d 34bd
000000a0: 9653 88bd 2e9a b3bd 4c68 a8bb f358 acbd
000000b0: 1db7 97bd 24d8 cfbd 9f92 50be 3a3c e5bd
000000c0: e839 ccbd c76f d1bd e5bf 6dbc 5274 23be
000000d0: e0bf 57bb 96a5 a2bd 4ead 2ebc 600b 10bd
000000e0: f921 6abd 79a2 09be 06e1 87bd 20b1 c2bd
000000f0: d1ae 73bd f4f1 a23d b2fe 293d 44db 563d
00000100: e4b2 07bd d5e7 a43d 7034 133d 7a73 1dbe
00000110: 0930 e4bc 66ce 2dbe 148d 45be e2ed 30bd
00000120: 6a89 503d 93fc 9b3d 629d 54bd dfcb 77bc
00000130: ebff 1fbc 344b 40bc 1ee7 c1bd 31bd 433d
00000140: cba7 c13c c764 e9bc 70d2 61bd d80c c43c
00000150: f798 f3bd 6343 56bc 068f b63c 21bb 38be
00000160: 0de2 633d 77ce bcbd 174e 24bc 8634 b3bd
00000170: a595 5dbd e862 edba dab1 cdbd a74d c9bd
00000180: c9e5 acbc 3f23 9abd 4c3c 0cbb c9c8 4b3d
00000190: fce1 e9bd 3e30 c3bd 7ac0 cb3c 8130 16bd
000001a0: f80d b4bc d76d 8fbd 9eb5 79bd 79d9 01be
000001b0: 72c5 1e3d e086 d1bb 8aea debd 12d1 69bd
000001c0: 3d6f c8bd e5c6 8bbd ee85 143d f468 f0bd
000001d0: c0dd ccbb 774b d13d bdb4 abbd 9093 dbbd
000001e0: efdf 19bd 329e 853c 9a15 01be a360 bdbc
000001f0: 4441 93bd 74aa afbc 2b9e a1bc 1438 80bc
00000200: 5feb 343b fd5e 96bd 6742 84bd b1ac 2bbd
00000210: 1c27 293d f58d 64bd a9d7 203c 9351 10bd
00000220: 239a aa3b f329 98bd 6c35 e639 33bd 2dbc
00000230: 83cc 9bbc f028 06be ed90 33be c576 dabd
00000240: f030 a2bd b9f8 06bd 2913 a6bd f355 e43c
00000250: ac40 01bd 49a4 173d feca 35bc cebb e6ba
00000260: 8b5d 80bd 9a4c 70bc dbcf 62bc 512c dfbd
00000270: 32da e6bc 4c20 9cbd 7f3d 12bd 6f26 7cbd
00000280: 914f 2ebb 4e5b a0bd eb20 463d f239 813d
00000290: c49e 9d3c a27b 1a3d f441 93bd 2f2d 103d
000002a0: cbe3 62bd c23f a6bd 945c babd af87 afbd
000002b0: 4d0c 4bbd 68bb adbb 7513 47be 0aad 02be
000002c0: 1cde b2bc 6df5 1cbd 5979 333c 817f 3dbd
000002d0: c6bc 96bd d96d 343b 7d62 23bd c819 e7bd
000002e0: f7d9 d4bd 88df 9cbd f987 5a3d e288 40bd
000002f0: 438f 74bd ad0c 11bd 3cef 59bd 434c 65bd
00000300: f37d 3dbe 2570 313d 7b39 9dbc df33 8dbd
00000310: 2b6f 853c acb7 123c 315c 1e3c cec9 59bd
00000320: 3916 99bd 926d 56bd 2165 ad3d 6a45 523e
00000330: 0249 573d 09ff ab3c fa98 1fbd 56d5 5ebe
00000340: d59b c6be 759c a33d b63d 9fbe 6f83 673d
00000350: 06f0 2c3e 2992 12be d870 f03d 6bc6 87bd
00000360: fe2e 273d 917d 12bd 8c7e ccbe 2fa3 11be
00000370: 3093 2a3e 65c2 0cbd f73b 48bd c1a0 1c3e
00000380: 15a8 fabe 336c 783e 13eb 86be 628c fbbd
00000390: 2c75 70be 931c 843e 6e75 b13d 0149 b2bd
000003a0: 3368 c73c 2f99 e4bd 3c36 f93d e0da 073e
000003b0: b2b8 c83c c01f d43c b4d0 36be 2c8e 26be
000003c0: 0acb 323e 0b10 9bbd 94c9 92bc a032 4e3e
000003d0: 224f 6b3d cb93 94bd bfb5 8ebc 6fbd 253b
000003e0: 5562 d13c bbd7 9e3e 6e67 56bd 6a86 bebd
000003f0: fb4c 123e c86b e53e f9f6 023c 4e65 6fbd

fc2.bias f4 [150]
-0.2675724 -0.3714833 0.36439753 -0.07692059 0.2975145 0.019754844 -0.06344396 0.49613112
0.012495133 -0.11999265 -0.1947822 -0.21079554 0.12469968 -0.03912939 0.67773867 -0.09672342
-0.1959547 -0.16012913 -0.11649476 0.74745464 0.18937252 -0.835797 -0.12760612 0.35764474
0.16295524 -0.14670478 0.30029365 -0.1420572 0.7618392 -0.35208765 -0.17644604 -0.23851813
-0.118855745 -0.15113726 -0.19176647 -0.1044945 -0.51528513 -0.192026 0.15689513 -0.18483073
-0.17154796 -0.094628826 -0.15010332 -0.08624611 -0.1285972 -0.12651344 -0.15927406 -0.20469938
-0.07321533 -0.85672945 0.75736547 -0.13352752 0.74821883 -0.055662304 -0.46960783 -0.10401546
0.07949714 -0.15902787 -0.28716573 -0.12469475 -0.17939305 0.2821858 -0.6397018 -0.13262515
-0.09409501 -0.11110635 -0.10056099 -0.051472463 -0.2052283 -0.063993745 0.19052503 -0.106746055
-0.40696117 -0.5166718 -0.14082855 -0.1454357 -0.39761558 -0.19015774 0.76493967 -0.08995704
-0.040412556 -0.25144675 -0.55932194 -0.06470618 -0.18457405 -0.7876305 0.010614099 -0.14844207
-0.12419648 -0.17549716 -0.074142925 -0.036167804 -0.20000038 -0.17047028 -0.27773866 -0.14652428
-0.075646296 -0.14000106 -0.16994224 -0.07479121 -0.17695898 0.025568949 -0.5417775 -0.08067012
-0.9674274 -0.19012322 -0.35280883 -0.30959603 -0.20989613 -0.10934714 -0.17086309 0.66066074
-0.15269613 -0.38373652 -0.18302828 -0.13492703 0.27967632 -0.07747686 -0.13354036 -0.15842696
-0.290567 0.18862152 0.089104645 -0.16262017 -0.16215189 -0.14283477 -0.824582 -0.116540626
-0.17691693 -0.1535751 -0.17631607 -0.13704471 -0.11781125 -0.16459806 0.20285933 -0.22244805
-0.17286123 -0.13615431 -0.1711749 0.27378765 0.16445717 -0.12776138 -0.019763988 -0.114955276
-0.049150795 0.5510333 0.023788355 -0.14846677 -0.12045927 -0.26459298
00000000: 40ff 88be 0f33 bebe 5092 ba3e 8b88 9dbd
00000010: d253 983e e9d4 a13c e8ee 81bd e604 fe3e
00000020: 63b8 4c3c b5be f5bd fc74 47be c9da 57be
00000030: 8c62 ff3d 2446 20bd 4880 2d3f ee16 c6bd
00000040: 59a8 48be e4f8 23be ce94 eebd 3059 3f3f
00000050: dfea 413e cbf6 55bf 2eab 02be 361d b73e
00000060: bddd 263e c739 16be 17c0 993e 7177 11be
00000070: e507 433f d544 b4be 45ae 34be 193e 74be
00000080: a46a f3bd bac3 1abe 6e5e 44be 3601 d6bd
00000090: bae9 03bf 77a2 44be 1ea9 203e 4444 3dbe
000000a0: 45aa 2fbe c2cc c1bd afb4 19be cda1 b0bd
000000b0: fcae 03be bd8c 01be bd18 23be b79c 51be
000000c0: ebf1 95bd 9f52 5bbf b4e2 413f 70bb 08be
000000d0: 458b 3f3f 28fe 63bd 7070 f0be 0f06 d5bd
000000e0: 66cf a23d 34d8 22be 6307 93be f65f ffbd
000000f0: d0b2 37be a87a 903e 7fc3 23bf e3ce 07be
00000100: e2b4 c0bd ba8b e3bd ecf2 cdbd cad4 52bd
00000110: 5e27 52be 270f 83bd fe18 433e ad9d dabd
00000120: 375d d0be 9a44 04bf 5c35 10be 19ed 14be
00000130: 4594 cbbe b6b8 42be 16d3 433f 663b b8bd
00000140: a387 25bd a1bd 80be b92f 0fbf ac84 84bd
00000150: fb00 3dbe 27a2 49bf c2e6 2d3c 3301 18be
00000160: b95a febd 87b5 33be 3fd8 97bd b124 14bd
00000170: e6cc 4cbe c38f 2ebe c333 8ebe 760a 16be
00000180: 72ec 9abd 705c 0fbe 5705 2ebe 222c 99bd
00000190: bc34 35be f975 d13c eeb1 0abf 6036 a5bd
000001a0: 52a9 77bf a9af 42be 5ca3 b4be 5f83 9ebe
000001b0: 03ef 56be 65f1 dfbd bcf6 2ebe 1021 293f
000001c0: 605c 1cbe 1d79 c4be c46b 3bbe 502a 0abe
000001d0: bc31 8f3e 30ac 9ebd cebe 08be ad3a 22be
000001e0: 33c5 94be 0026 413e 7f7c b63d e785 26be
000001f0: 250b 26be 4743 12be ce17 53bf daac eebd
00000200: b629 35be ca42 1dbe 338c 34be 7355 0cbe
00000210: 0647 f1bd 658c 28be 5bba 4f3e 6cc9 63be
00000220: 8902 31be 096c 0bbe 7948 2fbe e52d 8c3e
00000230: 7667 283e e1d3 02be 16e8 a1bc ac6d ebbd
00000240: 5852 49bd 8510 0d3f ccdf c23c ac07 18be
00000250: 5ab3 f6bd bb78 87be

fc3.weight f4 [1, 150]
-0.014922851 -0.007428417 0.008605294 0.010941874 -0.008003598 -0.011513485 0.016181523 0.013164252
-0.027633764 -0.027662763 -0.0002318956 0.011951242 0.014598159 0.0035026812 0.0077709984 0.016004348
-0.004147138 -0.020722097 -0.004761458 -0.010285794 0.010466529 -0.015359013 0.0080016535 0.018076839
-0.01626857 0.0010458638 -0.01593697 -0.0002537755 0.007761946 0.00058754155 -0.003891924 -0.020413054
0.0010988128 -0.035683945 0.029608093 0.004956375 -0.016699214 -0.012339552 0.045158766 -5.9348782e-05
-0.00053157343 0.015932376 -0.012319167 0.00019824428 -0.0070313863 0.0064974437 -0.0288022 -0.00050012156
-0.023641165 -0.013733116 -0.0321833 0.008057348 0.007554991 0.018536413 -0.015079788 0.0005699404
0.010451579 0.018101988 -0.012426437 -0.00500214 0.0011974755 0.020539695 -0.010050467 -0.012135208
-0.003838175 -0.017747922 -0.022372965 0.0011774952 -0.0089973565 0.00094518287 -0.012422849 -0.018783096
-0.010836039 -0.0090543525 -0.012870991 0.0139133725 -0.022081494 -0.018308312 0.0100106485 -0.0097620785
-0.015551155 -0.016409136 -0.015017965 0.020841066 -0.005377936 -0.008422417 0.013272069 -0.0047620144
0.03671406 0.01490536 0.002097827 0.010143781 -0.013727894 0.01061468 0.012458266 0.023711098
0.011108505 0.0060645035 0.016081115 0.026619112 -0.012791826 0.022117855 -0.015358358 -0.0046140268
0.006101386 -0.0059251445 0.015086246 -0.014970942 0.00629556 0.02151627 0.02225091 0.011635433
0.011615722 -0.008753722 -0.009706385 0.023002166 -0.010308644 0.021618705 0.017504955 -0.0057972306
-0.026395772 0.009925341 0.012644965 -0.018204289 0.01235686 -0.019879948 -0.010490196 0.002070177
-0.008893354 -0.0031844561 0.014812147 -0.0007084454 0.009655031 -0.0073436424 0.09800157 0.0061510187
-0.021997254 -0.0066052964 0.023943728 0.010041409 -0.0090273535 0.007577523 0.015912505 0.018992007
-0.018528417 0.005483058 0.014499952 -0.009453772 -0.011719367 0.016583208
00000000: f97e 74bc 146a f3bb 38fd 0c3c 8c45 333c
00000010: 8621 03bc 0ea3 3cbc 1d8f 843c e0ae 573c
00000020: 3460 e2bc 059d e2bc 0029 73b9 24cf 433c
00000030: 1e2d 6f3c 3d8d 653b dca3 fe3b 8d1b 833c
00000040: b7e4 87bb 63c1 a9bc 0106 9cbb bf85 28bc
00000050: ce7b 2b3c 5fa4 7bbc 5e19 033c e115 943c
00000060: aa45 85bc 5e15 893a 408e 82bc 2c0d 85b9
00000070: ec57 fe3b 3f05 1a3a a60f 7fbb 4739 a7bc
00000080: 0a06 903a 5429 12bd ac8c f23c 1669 a23b
00000090: cacc 88bc d52b 4abc 66f8 383d 45ed 78b8
000000a0: 4a59 0bba 9d84 823c 55d6 49bc cbdf 4f39
000000b0: 8b67 e6bb 82e8 d43b 97f2 ebbc 971a 03ba
000000c0: 1eab c1bc dd00 61bc a3d2 03bd f802 043c
000000d0: dc8f f73b add9 973c 3711 77bc 0e68 153a
000000e0: 193d 2b3c 9f4a 943c 4198 4bbc fee8 a3bb
000000f0: 9cf4 9c3a dd42 a83c b7aa 24bc c0d2 46bc
00000100: e489 7bbb 1764 91bc 8247 b7bc 2f56 9a3a
00000110: a669 13bc 26c6 773a 3589 4bbc 02df 99bc
00000120: a489 31bc b558 14bc d9e0 52bc eaf4 633c
00000130: 40e4 b4bc 50fb 95bc b403 243c 20f1 1fbc
00000140: 46ca 7ebc 746c 86bc e90d 76bc e2ba aa3c
00000150: 6639 b0bb 2dfe 09bc 1873 593c ac0a 9cbb
00000160: 7b61 163d 9c35 743c b27b 093b 1a32 263c
00000170: f6ea 60bc 32e9 2d3c c11d 4c3c c73d c23c
00000180: 7200 363c beb8 c63b 8bbc 833c 5310 da3c
00000190: cf94 51bc 8130 b53c 9fa1 7bbc 4331 97bb
000001a0: 23ee c73b b727 c2bb 4d2c 773c af48 75bc
000001b0: fc4a ce3b e342 b03c 8a47 b63c 8ba2 3e3c
000001c0: df4f 3e3c c56b 0fbc 8807 1fbc 0a6f bc3c
000001d0: 96e5 28bc b619 b13c 8d66 8f3c b2f6 bdbb
000001e0: f23b d8bc e69d 223c d42c 4f3c 2921 95bc
000001f0: 6d74 4a3c 46db a2bc 12df 2bbc cfab 073b
00000200: 6eb5 11bc 4fb2 50bb a6ae 723c f7b6 39ba
00000210: 2330 1e3c f0a2 f0bb 0cb5 c83d 7c8e c93b
00000220: 9633 b4bc 3e71 d8bb a325 c43c b984 243c
00000230: 77e7 13bc df4c f83b f15a 823c 2095 9b3c
00000240: e8c8 97bc 39ab b33b 3591 6d3c fee3 1abc
00000250: 9602 40bc 82d9 873c
