p3_collab-compet/agent2_checkpoint_actor.pth (torch_old, 142817 bytes, 6 tensors)

fc1.weight f4 [200, 24]
000000 17 fc 39 3e 17 ed bc bc d3 0f 3f bc b3 dc 43 3d
       0.18162571 -0.023062272 -0.011661488 0.047817897
000010 30 2e 13 be ce 06 1d be f6 8c 41 3d 07 ea 3a bd
       -0.14373088 -0.15334627 0.04725357 -0.045633342
000020 8c 3e 45 3e 29 7c c3 bc 0f 1d a6 3c 4e 02 61 3c
       0.19262141 -0.023862915 0.020277528 0.01373346
000030 2d ec 5c be a8 15 60 be cb c2 0d 3d 6f 29 1d 3d
       -0.21574469 -0.21883261 0.034609597 0.038369592
000040 c8 92 02 3d d3 84 e3 bd f0 3b ef bc 0f d7 f2 3c
       0.031878263 -0.111093186 -0.029203385 0.029643564
000050 9c 59 3f be e3 94 b9 bd f2 60 7d 3d c0 bb 40 bd
       -0.18686527 -0.09061601 0.061860032 -0.047054052
000060 ac d2 47 ba 26 c4 9f bd 34 ff 90 bd 0e f3 c3 3d
       -0.000762264 -0.07801084 -0.07079926 0.095678434
000070 b3 e5 14 3d 18 81 df 3d 1a 21 f7 bb 9c ec 99 3d
       0.03635187 0.109132946 -0.007541788 0.07515833
000080 ea d4 18 3d 58 f2 91 3d 11 51 2e bd 93 4b 31 3e
       0.037312426 0.071263015 -0.04255778 0.17313986
000090 ee 53 a5 3b 6d 00 97 3c 75 ff 43 bd f5 bd f5 3d
       0.0050454056 0.01843282 -0.047851045 0.11999122
0000a0 d1 10 c4 3c 7f e7 60 3e b5 05 5a 3b 00 a7 1e 3d
       0.0239338 0.21963309 0.0033267562 0.038733482
0000b0 34 ba 13 bd 3d b5 92 bc 5b cd da bc 4e 1d 96 3c
       -0.03606625 -0.017908687 -0.02670925 0.01832452
0000c0 c4 f2 6d 3d 9f a8 1f bd 1c 01 c1 3d 3e 75 8c bd
       0.058092847 -0.03897917 0.0942404 -0.068583
0000d0 05 61 01 3d 1d 78 a5 bc d6 ab da 3d fe 53 85 bd
       0.031586666 -0.020198876 0.10677306 -0.06510161
0000e0 74 58 97 bc 7d be 4a 3d ed 71 e9 bc ed d4 a4 3c
       -0.018474795 0.04949807 -0.028496707 0.020121062
0000f0 d4 45 10 3e 42 9e 00 3e c0 34 2e bd be 86 8e bd
       0.14089137 0.1256037 -0.042530775 -0.06959294
000100 2b c3 87 3d b7 9b 62 3d 5b fa d8 bc 9d 36 f9 3c
       0.06629022 0.055324282 -0.026486566 0.03042155
000110 e7 77 da 3d 2b b6 2e 3d f2 2f b3 3d 95 a7 85 3d
       0.10667401 0.042654198 0.08749379 0.06526104
000120 cd f8 cd bc ef b8 25 be 18 ae 8b 3b c2 91 ba bd
       -0.025143052 -0.16183828 0.004262697 -0.09109832
000130 cc fb 62 be d4 41 a7 3d e9 65 08 bb 53 00 0e 3d
       -0.22166365 0.081668526 -0.0020812696 0.034668278
000140 7e c5 99 bd 8e 49 7c bd ca 10 74 3c 11 39 77 3d
       -0.07508372 -0.061593585 0.014896581 0.060357157
000150 32 7a a2 be 0b eb d4 bb d0 c3 18 bc fc 72 18 3c
       -0.31733853 -0.006497746 -0.009324029 0.009304758
000160 31 3f b1 3c ac b4 04 bc 09 f9 78 3c db 8d 94 3b
       0.021636577 -0.008099716 0.015196093 0.004533512
000170 ca 5f b8 be 00 85 f6 bd ec fe 5e bd af b4 86 bd
       -0.3601058 -0.120370865 -0.05444233 -0.065774314
000180 63 12 b7 bb 16 d7 0a be e2 f3 00 be 02 f6 15 be
       -0.0055869087 -0.13558611 -0.12593034 -0.14644626
000190 e3 95 b3 bd 52 90 5a 3e f8 a1 37 bd 33 4e 50 bd
       -0.08768823 0.21344116 -0.0448322 -0.050855827
0001a0 12 fa 37 3c 92 ad 16 be 10 ad a0 3d 06 93 f3 bc
       0.011229055 -0.1471465 0.07845509 -0.029733192
0001b0 3b 4c 01 3e 78 7c 91 3d 2f dc 41 3c 28 8d 6b bd
       0.12626736 0.07103819 0.011832281 -0.057507664
0001c0 1a f7 c6 bc f7 c3 73 bd a9 f7 77 3c 48 32 07 be
       -0.02428775 -0.05951306 0.01513473 -0.13202775
0001d0 5c 2e 44 3e 78 aa 0b bc 51 c3 89 3d ae a6 12 bd
       0.1915831 -0.00852453 0.06726707 -0.03580349
0001e0 d2 ab 27 3d ee 71 c0 be 3c 7a 01 3d 34 93 84 3d
       0.040935345 -0.3758692 0.031610712 0.06473389
0001f0 8e 34 17 bc 56 df 81 be fd bc 82 3b 39 a2 da bc
       -0.009228839 -0.25365704 0.0039898143 -0.026688682
000200 86 d9 13 3e b7 7b 82 be f8 71 8c bd f9 85 03 be
       0.14438447 -0.25485012 -0.06857675 -0.12844075
000210 a8 b8 d8 bd c8 ae d2 bd 08 95 aa bd 9e f6 3e bc
       -0.105820954 -0.10287243 -0.08329207 -0.011655478
000220 0d 6a 0a 3e 7a 59 83 be 65 20 d2 3d 72 db 8c bc
       0.13517018 -0.25654203 0.10260085 -0.017194483
000230 5a 61 46 be c7 c6 22 3e f3 32 08 3b da f7 cd bc
       -0.19373074 0.1589614 0.0020782321 -0.025142599
000240 44 dd 88 3d c7 20 58 bd 53 c1 cb 3d b7 01 dd 3d
       0.06682828 -0.052765634 0.09948983 0.10791343
000250 17 c8 0f be a7 8a 07 bd 1e 8c 5b bc d3 84 07 3e
       -0.14041172 -0.033091214 -0.013400106 0.13234262
000260 9e ba 7e 3c 01 0f e5 bc cf c7 c2 3c 20 26 08 3e
       0.015547423 -0.027961256 0.023776917 0.13295794
000270 04 fe 46 bd f8 9e 3e 3e 3f 76 5d bd d8 cc 2b 3e
       -0.048582092 0.1861533 -0.054067846 0.1677736
000280 65 b3 26 bd 24 15 3a 3d 1b 12 00 bd 16 62 91 3d
       -0.040698428 0.045430318 -0.031267267 0.070987865
000290 24 91 2b bd d2 de 8c 3e 76 e7 ef 3c e1 bb 8f 3b
       -0.041886464 0.27513748 0.029285174 0.0043864106
0002a0 30 3a d1 3c ee 8c a6 bd ed 83 b3 3d 36 55 8b 3c
       0.025540441 -0.08132349 0.08765397 0.017008405
0002b0 b2 d9 53 3c c3 fe 7a be b0 2b a2 bc 6a 0b 88 3d
       0.012930321 -0.24511246 -0.019796222 0.06642802
0002c0 b2 54 8e bd 8f d3 52 bd b4 de 15 3d 0c 7c 9d bd
       -0.06949748 -0.05147129 0.03658934 -0.07689676
0002d0 72 4c 30 bd 65 7f b4 bd 75 46 93 3d 08 8b a8 3c
       -0.043041654 -0.08813361 0.07191173 0.020574108
0002e0 19 c1 0c bc 34 79 84 bd 42 e2 56 3d f2 a4 b1 3c
       -0.00859096 -0.0646843 0.05246187 0.021685097
0002f0 80 18 90 bd 7b 1f fd 3d 4f fe 94 bd 57 51 ab bd
       -0.07035923 0.1235952 -0.07275068 -0.08365124
000300 64 20 d5 3a 82 66 de bd e6 da 11 3d e9 70 0a 3e
       0.0016260264 -0.108593956 0.03560915 0.13519634
000310 b8 cc 38 3e eb fd cb bd aa 7b 35 3d b5 b2 22 3d
       0.18046844 -0.099605404 0.04430739 0.03972121
000320 5d 17 23 bd d7 09 c8 bc de ee 0b bc 65 65 4f 3d
       -0.039817203 -0.024418755 -0.008540837 0.050633807
000330 3c d6 18 bb 50 2b 3c be 16 ca 2a 3d 37 0e d6 3d
       -0.0023321053 -0.18375897 0.04169663 0.1045193
000340 23 1e 87 bb 74 ac 86 3c ee 8f bf bc 7c 87 16 3e
       -0.0041234656 0.016439654 -0.02338406 0.1470012
000350 99 13 a1 bd c0 2a 2c be e9 99 0f 3d 5a 84 91 3d
       -0.07865066 -0.16813183 0.03505889 0.07105322
000360 2e ae 94 bd 21 a9 74 be b4 37 ab bd 84 94 9a 3c
       -0.07259785 -0.23892643 -0.08360234 0.018869646
000370 33 4c dc bc 90 57 c2 3d 54 fa 2b bd 4f 40 98 ba
       -0.026891803 0.094893575 -0.04198678 -0.0011615845
000380 e7 46 d9 3c a5 6d 44 be 24 a6 cf 3d cc d5 a8 3c
       0.026523067 -0.19182451 0.10139111 0.020609759
000390 b0 9d 89 3c ca d1 c4 3d 64 15 6a bc 1e 7e b3 3c
       0.016798824 0.096103266 -0.0142873265 0.021910723
0003a0 b4 6b c3 3b 1d f2 e0 bd 4c f7 17 bd de 43 03 3e
       0.005963767 -0.109836794 -0.037101075 0.12818858
0003b0 70 76 8a 3d ce 2c ce bc 74 ea cf bd f5 7d 93 3d
       0.067608714 -0.025167849 -0.1015214 0.07201759
0003c0 be 67 94 bd fa f2 03 be 27 d4 04 be 55 40 43 3d
       -0.0724635 -0.12885657 -0.12971555 0.047668774
0003d0 3a 9d cb bc 0c 9d 74 bd 84 4d 00 be c3 8c 9d 3d
       -0.024855245 -0.059720084 -0.1252957 0.07692864
0003e0 99 de d0 bd 04 64 0b be f3 25 ee 3d c3 cd 12 3e
       -0.10198707 -0.13612372 0.11628332 0.14336304
0003f0 07 60 90 bc 70 18 7f bd ea 0c 85 bb f8 19 4c 3d
       -0.017623914 -0.062279165 -0.0040603774 0.049829453

fc1.bias f4 [200]
000000 55 59 45 3e 39 45 9f 3d 75 64 ed 3d d4 17 0a be
       0.19272359 0.07776875 0.11591426 -0.13485652
000010 8a 6d 3a be 65 6b 1e be 38 52 c4 bb 7f 68 e1 bd
       -0.18205848 -0.15470655 -0.0059912466 -0.11006259
000020 72 cd 2e 3e f3 8d 72 bd 39 98 cb bd f4 64 0d be
       0.17070559 -0.059217405 -0.099411435 -0.13808042
000030 41 9c 4c 3e 6e 94 83 bc 40 e8 68 3e 7c 89 e0 3d
       0.19981481 -0.016061988 0.22744846 0.10963723
000040 e0 e9 a0 bd 14 af 32 3d ad ac 08 3e fd 96 82 be
       -0.07857108 0.043624 0.1334712 -0.2550582
000050 93 36 05 bd 37 c2 74 3e a7 0c 89 3d 70 09 51 be
       -0.03252275 0.23902212 0.06691866 -0.20413756
000060 62 eb 97 bc c9 78 ef 3d d4 06 1b 3e 67 c8 ee bd
       -0.018544856 0.1169296 0.15139323 -0.116593175
000070 54 ba 41 be cd 21 cf bd a1 07 2d bd 27 96 e2 3d
       -0.18918735 -0.10113869 -0.042243604 0.110637955
000080 2b 20 6c bd 40 b2 53 be 1c cf 22 bd a9 02 e8 3d
       -0.057647865 -0.20673466 -0.039748296 0.113286324
000090 37 d8 99 bd 1b 37 95 be e7 e2 45 3e 71 f2 24 3e
       -0.07511943 -0.29143605 0.19324838 0.16108109
0000a0 79 36 8d be 29 91 7f be fa 6c 55 be ae 84 0a 3e
       -0.27580622 -0.24957718 -0.20842353 0.13527176
0000b0 d6 7d 10 be f0 0d 73 bc 57 f5 62 3d 13 bc 16 be
       -0.14110503 -0.014834866 0.055409756 -0.14720182
0000c0 37 e0 27 bd 3a f3 fb bd 88 fa 36 bd 79 df 44 3e
       -0.040985312 -0.12302251 -0.04467252 0.19225873
0000d0 13 aa b6 3d 0c ba 96 3d cb de 94 bc 1f a8 d3 3c
       0.08919158 0.073597044 -0.018172642 0.025837002
0000e0 a9 38 a0 bc 9a af c5 3d ff 9a b3 bd 3a 6e f1 bd
       -0.019558268 0.09652634 -0.087697975 -0.11788602
0000f0 23 a8 30 bd c1 79 e1 3c eb 2f 7f 3e 81 b2 87 bd
       -0.043129098 0.027523877 0.24920623 -0.06625844
000100 ba 04 7c be 62 40 3f be 26 c8 21 be 0b c8 0b 3e
       -0.24611178 -0.18676904 -0.15799007 0.13650529
000110 01 89 27 3e 61 af 82 3d 67 6e 0f 3d a7 f1 2e 3e
       0.16360857 0.06381107 0.035017397 0.1708437
000120 2a dc c6 3d b0 74 fc 3d 90 67 d4 3d bb 7e 63 3d
       0.09709962 0.12326944 0.103713155 0.05554078
000130 0e bc fc 3d 69 5b 2d be df 3e ce bd 62 01 23 bd
       0.12340556 -0.16929401 -0.100705855 -0.03979624
000140 80 57 df 3d c7 a9 ca bd 75 55 f5 bd b5 e9 35 be
       0.10905361 -0.09895664 -0.1197919 -0.17764933
000150 19 b1 61 3e 00 10 05 3e 56 96 ad bd fa 7b 73 3c
       0.22040214 0.12994385 -0.0847594 0.014861101
000160 e3 ee c4 bd 94 99 4c 3e fb fd 6d be 3e ef d6 bd
       -0.096158765 0.1998046 -0.23241417 -0.104948506
000170 61 53 7a bd 0e 95 ab 3d 7f 0b 28 be 99 13 33 3e
       -0.061114673 0.08378039 -0.16410635 0.17487945
000180 8d 40 3f 3d 40 d6 38 3d be 67 10 be cc c2 b5 bd
       0.04669242 0.0451262 -0.14102075 -0.08875045
000190 f5 be 27 bd 94 45 ac bd 45 dd db 3d 52 95 dd 3c
       -0.040953595 -0.084117085 0.10735563 0.02704874
0001a0 fc 9a 26 be 5d 5d 10 be 30 bc ec bd e4 b0 9f 3d
       -0.1627006 -0.14098115 -0.115593314 0.07797411
0001b0 2e 36 8c 3d c5 97 5c 3d 63 86 16 be 04 ae 4a be
       0.068462715 0.053855676 -0.14699702 -0.19792944
0001c0 65 68 c3 bd e1 a0 4f be 02 87 5c be 21 d4 72 be
       -0.09541396 -0.20276214 -0.21535876 -0.23713733
0001d0 fa 14 f4 bc 37 4f 6f be 29 87 1d 3d 75 da c5 bc
       -0.029795159 -0.23370062 0.038458977 -0.02415202
0001e0 45 d9 8b 3d a6 e0 a4 be 1a 6e 23 3e c7 2a 12 3c
       0.0682855 -0.32202643 0.15959969 0.008921332
0001f0 a7 da 28 bc 55 df 90 bd f8 1e 16 3e 3b 51 3a be
       -0.010306037 -0.07073847 0.14660251 -0.1819505
000200 a9 d8 ae 3d e8 6e 04 3e f9 c7 bb 3d 3b 79 36 be
       0.085374184 0.12932932 0.09169001 -0.17819683
000210 da 41 bb 3d c2 d2 85 bd 76 ea 29 3e 56 00 8f bd
       0.091434196 -0.065343395 0.16593346 -0.06982486
000220 7d ae af bb 78 18 a1 3c 52 35 74 bd 99 50 f1 bc
       -0.005361377 0.019664988 -0.059621163 -0.029457377
000230 73 2b 6f bd f3 69 7c be 93 7f 2f 3e 32 18 20 3e
       -0.058391046 -0.24649791 0.1713851 0.1563423
000240 f4 dc 4c bc 64 56 69 3e 60 b8 94 3d ea 54 cd bd
       -0.012503851 0.22786862 0.07261729 -0.10025962
000250 7e c2 ee bd fb a4 3e be 67 5b 87 3c 12 cd 76 3d
       -0.1165819 -0.18617623 0.016523076 0.060254164
000260 ac 91 39 bd 16 2c 17 3e 52 91 f6 bd 32 55 81 be
       -0.04530494 0.14762911 -0.120394364 -0.2526031
000270 ab 83 7d 3d b3 c5 07 be bd 97 15 3e 08 8d 02 be
       0.061893146 -0.1325901 0.14608665 -0.12749112
000280 a4 6e 15 be 82 67 d8 3d 0d 3c 27 be 3d 0d a8 bd
       -0.14592987 0.105666175 -0.16331501 -0.0820565
000290 f8 41 c6 3d ee 6c f5 bb 99 ad 07 be 2c 79 96 bb
       0.09680551 -0.007489792 -0.13249816 -0.0045920815
0002a0 f0 01 5e 3c 0d fa 60 3c 89 92 99 3d ff 89 64 be
       0.013550267 0.013731492 0.074986525 -0.22318266
0002b0 65 79 19 3e 96 93 6b be 35 14 0b 3d 3a 8b 51 bd
       0.14987715 -0.23005518 0.033954818 -0.051158167
0002c0 87 66 40 be 32 16 3c 3e 8a 50 43 be 15 39 2d 3e
       -0.18789111 0.18367842 -0.19073692 0.16916306
0002d0 af 7f 85 3d 78 1a 44 3d ee bc 72 be 05 1b eb 3d
       0.06518494 0.047876805 -0.23704883 0.11479763
0002e0 4d 1c 28 3e f1 b4 1c be b9 44 17 3c 7f 2f 6c bd
       0.16417046 -0.15303399 0.009232693 -0.057662483
0002f0 dc 37 1e 3d 73 5d 13 be 81 f7 29 3d ff d3 60 bc
       0.03862749 -0.14391117 0.041495804 -0.013722419
000300 72 9c 11 3e be 70 58 bd e0 6b 41 3d 93 5f 65 bd
       0.14219835 -0.052841894 0.04722202 -0.05599935
000310 ef eb b4 be 8d cb 47 be 7e 52 08 3d b6 36 02 be
       -0.35336253 -0.19511242 0.033281796 -0.12716183

fc2.weight f4 [150, 200]
000000 20 29 66 3e de 0d 82 3d 57 d9 79 3d c3 36 09 3e
       0.22476625 0.06350301 0.060998287 0.13399796
000010 9f 92 f2 3d e3 e6 85 bd 98 9d 33 bd 35 92 b8 bc
       0.11844372 -0.06538179 -0.043851465 -0.022530654
000020 35 dd 81 bd 47 f5 12 3d 4d 52 70 3c d3 8a f1 3a
       -0.0634102 0.035878446 0.01466806 0.0018428214
000030 34 96 69 3d c2 e6 ac bc 2a 60 29 3e be 65 6e bd
       0.05702801 -0.021106128 0.1654059 -0.058202498
000040 f7 2e 54 3d 1a 33 c2 3d 1b 05 bc 3d 26 bf 9f 3d
       0.0518026 0.09482403 0.09180661 0.078001305
000050 8b b8 97 3d f3 7d 5e bd 71 7b 58 3d d4 fb bc 3d
       0.07408246 -0.054319333 0.052852098 0.0922772
000060 f3 db f2 3d f4 6c da 3d 8a e0 e4 3d 40 95 c4 3d
       0.11858358 0.106653124 0.1117564 0.0959878
000070 05 71 be bb 39 2d 69 bd 52 e8 2b bc 9d 3d 13 bd
       -0.005811813 -0.056927893 -0.010492401 -0.03594743
000080 58 b7 c0 3d 7d 60 bd bd d6 36 3d 3d f3 3f 18 3d
       0.0940997 -0.09246919 0.046194874 0.03717036
000090 37 27 c5 bd 0a 04 17 bd f6 31 e7 bc 5b ba 33 3e
       -0.0962662 -0.036869086 -0.028222065 0.17551558
0000a0 d4 08 b1 3c 21 bf 3d 3d fb 44 25 3e a8 39 68 3d
       0.021610655 0.046324853 0.16139595 0.05669561
0000b0 6f 6a c6 3c d6 56 cf 3d b5 95 c6 3d 22 1e 5b 3b
       0.024220673 0.101239845 0.09696523 0.0033434709
0000c0 85 12 f7 bb 7e 71 9e 3c 3a 98 18 bd 4c 14 da 3d
       -0.0075400495 0.019341227 -0.03725455 0.106484026
0000d0 32 8d e6 bc c2 43 28 3e 11 d9 e2 3d 18 64 71 bd
       -0.028143499 0.16432098 0.110765584 -0.058933347
0000e0 f3 3b 4e 3e cf 06 81 bc e8 62 95 3d 80 fa 43 3e
       0.20140056 -0.015750317 0.072942555 0.19138527
0000f0 d8 28 ac 3c 68 bf 9e 3a 66 d7 ba bd 62 a3 51 bd
       0.02101557 0.0012111487 -0.09123115 -0.051181205
000100 90 49 33 3d 9c 10 b5 3d 93 7a 0a 3e 0c e5 d6 3d
       0.043771327 0.088410586 0.13523321 0.10492906
000110 5b 61 2a bc 05 94 4a bc dc f4 bc bc fc 07 59 bd
       -0.010399188 -0.012364392 -0.023065977 -0.05298613
000120 95 d3 b1 3c a7 52 b8 bc 6a 8e 7b 3d b3 25 76 bd
       0.021707335 -0.02250035 0.061415114 -0.060094547
000130 cf ad 7e bd d0 fb 12 3d 72 13 b9 3b 06 69 07 3e
       -0.062177476 0.03588468 0.00564807 0.13223657
000140 14 50 03 3d 80 6b ae bd a2 8c 18 bc a6 a5 1b 3d
       0.03205879 -0.08516598 -0.009310873 0.03799977
000150 39 fb 48 3d ff 05 35 ba 2f 4c 9d 3c 09 f7 70 3d
       0.04906771 -0.00069054955 0.019201366 0.05882934
000160 43 1f b1 bd c0 5b 72 3c 2c 1a 69 bd 6d 35 89 3e
       -0.08648541 0.014792383 -0.056909725 0.26798573
000170 d8 fd 4f bd a4 58 39 3d 85 ae c5 3c 81 69 6a 3d
       -0.050779194 0.04525055 0.024131069 0.057229523
000180 b3 0d 04 3d 2b 6a a1 3d 8b 84 cb 3d 25 dc 41 bd
       0.032239627 0.07881578 0.0993739 -0.047329087
000190 72 f6 95 3d cc 24 a1 3d 1b 16 9f 3d f6 96 cd 3d
       0.07322396 0.078683466 0.07767888 0.10038559
0001a0 09 a5 42 3e 4e ea 3c bd f1 22 ae 3d c5 06 d6 bd
       0.19008268 -0.046121888 0.08502758 -0.1045051
0001b0 d0 b5 38 bd e1 ee 26 bd 94 75 fb ba cb e7 2c bc
       -0.045095265 -0.040755156 -0.0019184821 -0.010553311
0001c0 f4 70 15 bd 2c 0a 3d 3d 44 4b 42 3e 2b 68 52 3c
       -0.036484674 0.04615228 0.18974024 0.012842218
0001d0 34 13 de 3d c2 1f be 3d 67 68 42 3d 70 cf 1c 3d
       0.108435065 0.09283401 0.047462847 0.038283765
0001e0 a1 b6 f1 bc 24 a9 97 bd 95 88 91 ba 27 93 48 bc
       -0.02950603 -0.07405308 -0.0011103327 -0.012242115
0001f0 06 ce c8 3d 4f 0e 6c 3d 1f 80 01 bd b7 22 b4 bd
       0.09804921 0.057630833 -0.031616326 -0.08795684
000200 63 53 1b bd 5e 3d 82 bd 18 be 4f bd 1e 63 84 3c
       -0.03792132 -0.06359361 -0.050718397 0.016160544
000210 94 d8 7e 3d 1a 74 8e 3d d5 19 73 bd e5 14 53 bc
       0.062218264 0.06955738 -0.059350807 -0.0128834
000220 cd 82 c1 3c fb aa 70 3e c0 59 de 3d 5e 92 10 bb
       0.023621941 0.23502724 0.10856962 -0.0022059898
000230 5d 66 e1 3c c8 25 a1 3d e3 e7 f0 3d e0 49 95 3d
       0.02751463 0.07868534 0.11762979 0.07289481
000240 4b c1 6b 3c 82 b6 d6 3c 63 f9 5d 3d f6 2b 32 3e
       0.014389346 0.026210073 0.05419291 0.17399582
000250 c0 18 33 3a 50 7f 4d 3d f1 bf 85 3d 38 f0 2a 3d
       0.0006831996 0.050170243 0.065307505 0.041732997
000260 3c 63 28 3c e8 84 9e 3c e3 9b 1e bd 6f 83 b2 3c
       0.010277566 0.019350484 -0.038722884 0.021791188
000270 8a cb a9 3c d5 c1 d0 3d fe 75 5e 3d 20 21 3c 3d
       0.020726938 0.101932205 0.054311745 0.045930028
000280 1d a4 70 3d d9 44 b4 bb 5e 43 98 3c a1 13 a3 bd
       0.05875026 -0.0055013713 0.01858681 -0.07962728
000290 48 66 5f 3d 28 bb 5e 3d 0b b3 10 bb 90 9c ad ba
       0.054540902 0.054377705 -0.0022079374 -0.0013245512
0002a0 fe 56 03 3d 1a 81 d6 3d 10 a7 b3 3d ce d5 90 3c
       0.032065384 0.10473843 0.08772099 0.017680075
0002b0 67 f2 1b 3d a2 ef 6c 3d 53 1c 3c 3d 87 7b 1f 3e
       0.03807297 0.05784572 0.04592545 0.15574466
0002c0 38 28 fd 3d 84 58 9e bd fc da 08 bc ba 29 7a bd
       0.12361187 -0.07731727 -0.008352991 -0.06107495
0002d0 db 22 93 3c 34 c6 48 3d 6a 3c 2a bd 01 a3 88 bd
       0.017960956 0.049017146 -0.04156152 -0.066717155
0002e0 6a 22 0b 3e ec fb fb 3b 04 a5 db 3c 98 f0 99 bd
       0.13587347 0.0076899435 0.026812084 -0.07516593
0002f0 dc 6e 57 3d 5c 5c 9d 3d 4a 37 8e 3c 11 cc ac 3d
       0.052595958 0.07683632 0.017360348 0.0843736
000300 5e f9 b1 bc b2 1a 2b 3d f3 3d dc 3c b8 11 0c 3e
       -0.021725353 0.041773506 0.026885008 0.13678634
000310 b8 4c 06 3e cd cf 13 3e 40 49 ee 3d 87 cf b1 3c
       0.13115203 0.14434738 0.11635065 0.021705402
000320 99 12 bb 3c cb 31 69 3b 8a 30 ce bd 31 9c ce 3c
       0.022836016 0.0035582657 -0.10067852 0.025220962
000330 c8 74 95 3c 55 ac 40 3d b0 3e 08 be fd dc ef 3d
       0.018244162 0.04703935 -0.13305163 0.11712072
000340 cb 91 85 3c 62 a2 28 bc f9 93 26 3d 8d 32 8b 3d
       0.016304871 -0.010292621 0.04066846 0.06796751
000350 79 5f a0 3d 6e fd 19 bd 64 8b 53 3e 9a 4a d9 3d
       0.0783071 -0.037595205 0.20658642 0.10609932
000360 93 09 b8 3d dd f6 ad 3d 02 e3 2d 3d 4d df 4e 3d
       0.08986201 0.08494351 0.04245282 0.050505925
000370 83 15 32 bd c3 25 a1 3c 6c 41 4b 3d 97 93 20 bc
       -0.043477546 0.019671327 0.049622938 -0.009800813
000380 df 4e dc 3d 18 24 7d bc 54 77 26 be 4e 83 b7 3b
       0.10757231 -0.0154505 -0.16256458 0.0056003695
000390 ad 46 0f 3d cf f9 31 3d ba 79 98 bd 76 8a 0d 3c
       0.03497951 0.043451127 -0.074450925 0.008638969
0003a0 ca cf 1f 3d ff 2f f2 bd 01 2f e6 bd 5c f6 fe bd
       0.039016522 -0.11825561 -0.11239434 -0.12449333
0003b0 32 65 44 be 61 eb 4b bd 92 3b e6 bc 84 50 19 3e
       -0.19179228 -0.04978502 -0.028104577 0.1497212
0003c0 f9 51 56 3d 18 cc c7 bd 67 92 ac 3d cf 28 82 bd
       0.05232427 -0.09755725 0.084263615 -0.0635544
0003d0 94 2c 0f be 5b f2 55 be 50 2b 8b bd 38 ce 14 3d
       -0.13981849 -0.20893233 -0.067953706 0.036329478
0003e0 f7 f2 d4 3d f5 28 fd bc 2d 06 b5 bd e5 39 23 3d
       0.10397904 -0.030903319 -0.088390686 0.039850134
0003f0 59 9b 0c 3e 64 9c 0d 3d 19 a6 d8 bc 82 dd b4 bc
       0.13731135 0.034572974 -0.026446389 -0.02207828

fc2.bias f4 [150]
000000 a8 54 99 bd 8d 89 a8 bd 00 a7 bf 3d 12 94 82 bd
       -0.0748685 -0.08229361 0.093580246 -0.063758984
000010 3d af 0e 3d af ef ca bd 6c 04 17 bb 4f 72 e6 bc
       0.03483509 -0.09908997 -0.0023043407 -0.028130678
000020 14 51 c9 bd 4b 4e 87 3d 5d a1 35 3d 54 0e 85 3b
       -0.098299176 0.0660673 0.04434334 0.004060546
000030 a6 2f 09 3d 1e 3b a7 3c 2b 0c f5 3a 42 ac 9b bc
       0.033492707 0.020413931 0.0018695643 -0.019003037
000040 b7 a6 18 3d 7d ec 3d 3d b4 d1 7c 3d 5d 66 82 bc
       0.037268367 0.04636811 0.061723426 -0.015917951
000050 34 32 90 bd 60 83 16 bd 58 6b ab bc b6 c1 a5 3c
       -0.070408255 -0.036746383 -0.020925209 0.02023397
000060 3b 6d 98 3d ce 98 e7 3b a7 f0 9c 3d b5 d4 8f 3c
       0.07442709 0.0070677763 0.07663088 0.017557481
000070 39 8e d4 3d 44 7f 1c 3d f3 14 51 3b dd 92 f7 bb
       0.10378689 0.038207307 0.0031903356 -0.0075553493
000080 69 9c e0 bd 16 5d ae bd 23 93 bc 3d 91 db 8d bd
       -0.10967333 -0.085138485 0.092077516 -0.069266446
000090 f3 00 0a 3c 52 63 44 3d d1 ac 04 bc d1 62 35 bc
       0.008423078 0.04794628 -0.008097843 -0.011070923
0000a0 81 58 76 3c ea cc 8b bd 6d 82 6f bd 50 35 4f 3c
       0.015035749 -0.06826194 -0.058473993 0.012646988
0000b0 38 1f a4 bd b5 3b a4 3c ce 0a 99 3d 0b 4e 30 3d
       -0.08013767 0.020048002 0.07472764 0.043043178
0000c0 cd 11 5c 3d 1d 0d 34 bb 18 d8 27 be db e6 a5 3b
       0.053727914 -0.0027473636 -0.16391027 0.0050629205
0000d0 94 49 c6 bc d4 04 c2 3d ab 48 70 3d f0 b1 6e bd
       -0.024205007 0.09473577 0.05866305 -0.058275163
0000e0 2d 96 10 bd e5 81 94 3c 43 10 0d 3d b0 80 81 3c
       -0.03529947 0.018128345 0.034439337 0.015808433
0000f0 2a 93 99 bd 91 96 e5 3d 22 f9 03 bd 53 c5 98 3d
       -0.074987724 0.11210359 -0.032220013 0.074595116
000100 2d 05 5c bc 95 19 11 3d 9d 40 99 ba 09 92 d7 bc
       -0.013428968 0.035424788 -0.001169223 -0.026314752
000110 a0 31 98 bb 56 30 a2 3c c7 34 7b 3d c4 b1 db 3d
       -0.0046445876 0.019798439 0.06132963 0.107272655
000120 e1 f5 db 3c 8b 3b a4 bc e2 82 03 3d c8 ac 1b bd
       0.026850643 -0.020047924 0.03210724 -0.038006574
000130 a8 14 4a bc 1e 56 d4 3c e6 1a b6 3c 02 83 1c bd
       -0.012334026 0.02591997 0.022229623 -0.038210876
000140 f2 bb 26 3d d2 8d 83 bd 31 44 ae 3b bd c0 d1 bb
       0.040706582 -0.064235345 0.0053181876 -0.00640115
000150 74 53 e4 bb 70 71 dd 3b 5b 85 17 3c 20 41 9c bc
       -0.006967956 0.0067579076 0.009248103 -0.019074023
000160 f2 1a e9 bd 87 1b e4 bc 3d 39 3e bd 0f 15 70 3c
       -0.113820925 -0.027845157 -0.046441305 0.014653458
000170 06 98 2c 3c f8 f8 45 3d f1 44 55 bd 4d 62 4e 3b
       0.010534292 0.04833314 -0.0520677 0.0031491697
000180 46 71 ed bc 9a 79 9b bd 8d 93 a3 bd ae b0 b8 3b
       -0.028984677 -0.07591553 -0.079871275 0.0056362962
000190 b0 5a fa 3d 9c a4 5d bd 9f ab bf 3c 24 03 01 3e
       0.122243285 -0.05411206 0.023397265 0.12598854
0001a0 6d 89 0f bc d1 01 78 bd ca 24 77 3c 05 c5 b6 bb
       -0.008760792 -0.060548607 0.015084455 -0.005577686
0001b0 cc 26 88 bd 20 b6 95 3d 58 40 98 bb e5 98 26 bd
       -0.06648025 0.07310128 -0.0046463422 -0.040673155
0001c0 63 77 e1 bc db 31 1f 3d 1e 3a e2 3d 89 c9 c0 bc
       -0.027522748 0.038865905 0.11046241 -0.0235336
0001d0 4b 79 34 bc 42 5c 50 3d 75 66 4e bd db 49 6d 3d
       -0.011015247 0.050869234 -0.05039068 0.057931762
0001e0 46 12 3d 3d 30 9d 33 3d e4 c5 3c bd f3 a7 0f bd
       0.046160005 0.043851078 -0.04608716 -0.03507228
0001f0 fe 81 0e bd a6 a8 06 3e dc d8 46 3d 0e 08 23 bd
       -0.03479194 0.13150272 0.048546657 -0.039802603
000200 79 1a 80 3d ca c6 87 3d cf e2 20 3d 5d b7 d4 b9
       0.06255049 0.06629713 0.0392788 -0.00040572407
000210 7e 03 7c 3d 21 6f 85 bd 8f 4d 49 bc 9f 6b da 3b
       0.061526768 -0.06515337 -0.012286558 0.0066656615
000220 be 30 01 3c 3b 1c 9f 3d b8 8e 5a 3c 2a c7 29 bd
       0.007885156 0.077690564 0.013339691 -0.041449703
000230 a3 b6 17 3d 80 ee 68 bc 8c c7 b7 bd 69 78 91 bd
       0.03703941 -0.014217019 -0.089736074 -0.071030445
000240 5e fe d7 bd 4d 3b d7 3c d6 a0 e3 3b d6 ef 60 3d
       -0.105465636 0.026273394 0.0069466634 0.054916225
000250 c5 ee 22 bd 9d c3 11 bd
       -0.03977849 -0.035586942

fc3.weight f4 [2, 150]
000000 98 82 2f bd 96 21 e0 bd 8c 29 eb 3d 1a 4b 67 bd
       -0.042849153 -0.10943906 0.11482534 -0.056468107
000010 64 3e 86 bd 5b d4 d1 bb 91 3b 26 bd bf de 8f bd
       -0.06554869 -0.0064034886 -0.04058415 -0.07024907
000020 da 4f 14 be 63 18 2a 3e ab a5 44 bd c0 65 1f 3e
       -0.14483586 0.16610865 -0.048009556 0.15566158
000030 bd c2 e1 bd c4 2f 27 3d 82 2e c3 bc f5 74 c1 3e
       -0.110234715 0.040817037 -0.023825888 0.37784544
000040 2a 7c 0a 3e b9 da 2e 3e 0d 1d e6 3d a9 53 40 3e
       0.13523927 0.17075624 0.1123601 0.18781914
000050 87 71 86 3e b1 43 c2 3d f5 49 19 3e e3 b0 2d bc
       0.2625849 0.09485567 0.14969619 -0.010601255
000060 b4 65 0c 3d 5e 7a 15 bd 3a 11 88 3d 04 1f 26 bd
       0.03427668 -0.03649365 0.06643911 -0.040556923
000070 33 b4 11 3e 69 dd b8 3a a1 80 2a 3e ed 4f 14 bd
       0.14228897 0.0014104071 0.1665063 -0.036209036
000080 db 35 33 3e 04 c3 1b be 75 cb db 3e 3c 10 ca 3c
       0.17501013 -0.15211111 0.42928663 0.024665944
000090 e6 7c 13 bd 55 49 16 3e 77 c2 83 3e 9d b8 97 3e
       -0.036007784 0.14676411 0.25734302 0.29633036
0000a0 a3 17 2f bd 07 7a 05 be ba c1 f2 3c d1 a1 95 3d
       -0.04274715 -0.13034831 0.029633392 0.07306255
0000b0 d0 38 05 bd e8 01 99 bd 09 f4 75 3e 8a 60 31 3e
       -0.032524884 -0.07471067 0.24018873 0.17321983
0000c0 69 0f 97 3e 16 67 f7 bc 03 47 fa bd dd 9f eb 3d
       0.29503945 -0.030200522 -0.12220576 0.11505101
0000d0 b2 8b 68 3e f8 64 6f 3e 15 85 01 3e 49 81 85 bd
       0.2270954 0.2337836 0.12648423 -0.065188
0000e0 58 c5 1d bd f8 4c 5b 3d 03 0a 4f 3e 0d cd 8a 3d
       -0.03851828 0.0535402 0.20218663 0.067773916
0000f0 cc 6e c8 bd d8 e3 cf 3d a0 06 8a bb 5d df 05 3e
       -0.09786758 0.101508796 -0.0042122155 0.13073488
000100 85 e7 ce 3d 0f 00 38 bd 89 06 23 3e 06 5a 51 bd
       0.101027526 -0.04492193 0.15920462 -0.051111244
000110 fc 6d 26 3e 83 10 1e bd 82 f5 e1 3d c8 b1 8d 3d
       0.16252893 -0.038589966 0.11033155 0.06918675
000120 07 d0 4e 3c 6d a8 1d 3e dc dc 3d bb 49 af 05 3e
       0.01262284 0.1539628 -0.0028970754 0.13055147
000130 d3 8f 5c 3e 17 4f 92 3e ca d5 8e 3c 55 b6 87 3e
       0.2153924 0.28575966 0.017435927 0.26506296
000140 92 e2 24 3e bf 76 ba bc a6 89 c4 3e c4 b4 00 be
       0.16102055 -0.0227617 0.38386267 -0.12568957
000150 47 62 ca 3d 48 2c 63 ba ac ca 38 bd 96 e7 2a be
       0.09882026 -0.0008665961 -0.045115158 -0.16689906
000160 1e 96 51 be 49 10 d7 3d 1e a7 2d bd be f3 ed 3d
       -0.20467421 0.10501153 -0.042395703 0.11618756
000170 4d cd ef 3d 73 1e a5 3e f8 ec 27 bd 6e 2d 91 bd
       0.1170908 0.32249793 -0.040997475 -0.07088743
000180 62 e2 3c 3d 6b c0 40 bd cc 6a 48 bd 21 02 48 3e
       0.046114333 -0.047058504 -0.048929974 0.19532062
000190 03 2a c6 3d 76 19 2a bd 64 1d 1d bd ff fc 3f 3e
       0.09675982 -0.041528188 -0.038358107 0.18748854
0001a0 d6 c3 71 bd 85 52 a0 ba b8 8d 46 3e bf 57 9a 3e
       -0.059024654 -0.0012231624 0.19389999 0.3014507
0001b0 26 2e 7a bd ac 4a e7 3d b9 7b 1a bd bf 4e 39 bd
       -0.061079167 0.112935394 -0.037715647 -0.045241114
0001c0 0a 49 3b 3e 12 60 41 bd 24 51 06 3e 51 68 ae 3e
       0.18289581 -0.04721076 0.1311689 0.34063962
0001d0 45 48 0e bd af cc f4 3d b7 79 bb bb 0d 52 21 3e
       -0.03473689 0.11953103 -0.0057212966 0.15753956
0001e0 be 32 94 bc 04 4b d6 3d 12 0d 82 3e 4c 67 19 bd
       -0.018090602 0.10463527 0.25400597 -0.037452027
0001f0 b3 7e 6a 3e a5 e3 af 3d e4 df 19 3e 8d 0f 1a bd
       0.22899894 0.085883416 0.15026814 -0.037612487
000200 cd a8 36 3e de b7 91 3e 4f c3 56 3e 71 b1 2a 3e
       0.1783783 0.28460592 0.20972942 0.16669251
000210 ad 41 72 bd 95 67 4a bd b2 5d 13 3e 16 a3 46 bd
       -0.059144665 -0.04941519 0.1439121 -0.048495375
000220 8b 7e 12 bd 8f 89 24 3e f0 aa 63 3e bd f7 c3 bc
       -0.035765212 0.160681 0.22233176 -0.023921842
000230 f6 56 da 3d 25 fe c4 3d 49 87 ba bd 9a 07 19 bd
       0.10661118 0.09618787 -0.09107835 -0.037360765
000240 d6 14 df 3d be 2c 75 3a 7b 10 5d bd 80 26 24 3e
       0.10892646 0.00093526754 -0.053970795 0.16030312
000250 f4 22 ba bc f4 c6 2a 3e 08 d7 24 3c e7 ba 5b 3e
       -0.022721745 0.16677457 0.010061033 0.21458016
000260 4b 0b bb bd 16 21 67 ba 93 a8 ff 3d 7a e6 f3 3d
       -0.09133013 -0.0008816881 0.12483325 0.11909194
000270 80 7f a7 bc eb f1 2b 3e 08 01 23 bc 2b af c3 be
       -0.020446539 0.16791503 -0.009948976 -0.3821958
000280 b6 8f 18 3e 04 75 96 3e b0 96 23 3e d9 fa 45 be
       0.14898571 0.2938615 0.15975451 -0.19333972
000290 0d 9d 3f 3d e1 8a b5 3d 63 74 a0 be a3 23 a5 bc
       0.046780635 0.0886438 -0.31338796 -0.020158594
0002a0 b3 46 07 3e 49 9b 1e be 76 bc f8 bd 35 e1 53 be
       0.13210563 -0.15488924 -0.12145321 -0.20691378
0002b0 0e 02 7e be 42 5f 35 be 8d e0 77 be 67 64 84 bc
       -0.24805471 -0.17712119 -0.24206753 -0.016161157
0002c0 e9 9e 11 3e 34 f4 07 3e f3 da 52 be 79 6a 05 3f
       0.14220776 0.1327675 -0.20591335 0.5211559
0002d0 6f 9c 88 3c 16 02 97 bc 5f ad 75 be 02 93 fb bd
       0.016676156 -0.018433612 -0.23991917 -0.12283899
0002e0 2c f1 0a bf 93 77 b5 be b6 32 99 bb bd 51 ae 3d
       -0.5427425 -0.3544279 -0.0046752347 0.08511684
0002f0 7a b3 d8 3c 18 49 c6 bd fa c0 b5 3d 29 87 82 3d
       0.026452769 -0.0968191 0.08874698 0.06373436
000300 fd bf 6d be 1a 3c 48 be 6c c2 68 3c d4 f1 fe 3d
       -0.23217769 -0.19554177 0.01420651 0.12448469
000310 fc e0 27 3e 40 d3 89 3c 6b a3 cd 3d f8 c4 06 bc
       0.16394418 0.016824365 0.10040935 -0.008225672
000320 fe 4c a9 bb 67 eb 2d 3e 68 5a 1e be ae a2 fc 3c
       -0.005166649 0.1698433 -0.15464175 0.03083929
000330 ed 54 32 3e 75 fb 78 3c 7c c2 0f be 39 3b a5 3e
       0.17415209 0.015196671 -0.14039034 0.32271746
000340 f3 32 06 be 78 9c e3 3d 40 7d 40 3e 13 13 8c bd
       -0.13105373 0.111138284 0.18797779 -0.068395756
000350 0a 4e b7 3d b4 b7 76 be 0c 17 7c 3e ad 9d 09 3d
       0.08950432 -0.24093515 0.24618167 0.033597637
000360 e2 53 f5 3b f8 fa cb bc 95 d1 43 be 5f 3c 2b 3b
       0.0074868063 -0.024899945 -0.19122918 0.0026128513
000370 e5 c1 84 bd d7 1d 99 3e 30 56 92 bb 64 c8 ab be
       -0.06482295 0.29905578 -0.0044658408 -0.33551323
000380 9e 32 cc 3d 95 15 9f be 82 ef 36 bd 58 5f 9e 3d
       0.09970592 -0.31071153 -0.044662006 0.07733029
000390 f1 25 c3 be 06 08 56 bd 38 86 e8 3d ad 0d c9 3c
       -0.38114884 -0.052253745 0.11353725 0.024542654
0003a0 5a 21 cf be d8 77 c2 3e 83 07 b7 bd 2f fe 12 3e
       -0.40455133 0.3798206 -0.089369796 0.14354776
0003b0 8d 32 88 bc c3 97 95 bd da 2a 9c 3d 3e 3e 4e 3e
       -0.016625667 -0.07304337 0.07625361 0.20140931
0003c0 c6 35 2a 3b 5f 75 c7 bd 14 b3 fa bd 18 73 d7 be
       0.0025971993 -0.09739184 -0.12241188 -0.42079997
0003d0 16 74 69 3c e3 1a ef 3d a7 2a 74 be cc b6 af bc
       0.014248868 0.1167505 -0.23844396 -0.021449469
0003e0 4c 58 73 bd 3f fb 46 3d 7f 86 13 3e 2a 55 53 bc
       -0.05941038 0.04857945 0.14406775 -0.012898723
0003f0 55 67 24 bd 95 3d 55 3e 24 25 fa 3c 3c 18 d7 3d
       -0.040137608 0.20824273 0.030535288 0.10502669

fc3.bias f4 [2]
000000 e4 5a 1c bd c1 f7 b5 3d
       -0.038172618 0.08885146
