p3_collab-compet/agent1_checkpoint_actor.pth (torch_old, 142817 bytes, 6 tensors)

fc1.weight f4 [200, 24]
00000000: 8e39 733d 44e0 d7bd 76a1 9dbd bf3f 4c3e
00000010: 49f2 72bd 8f9d b0bd 96e4 93bc 941c d93d
00000020: 6103 a53d a964 91bd 1c5b aebc 5e81 a53b
00000030: c07f 87bd 3e69 13be cec8 e3bb 9a2f f33c
00000040: 3f7a 22bd 055c bfbd 7767 19be b4fe 603b
00000050: 17d1 b0bd 9eca 10be 71a1 70bd cf0b 96bd
00000060: f235 98bc 195f d2bc a844 d8bd 6636 65bd
00000070: 009d 13bd 11c9 3b3e d76e 2dbd d5a1 9cbd
00000080: e96c 943d 879c 853d 69de 8dbc 2a96 903d
00000090: b4c5 ed3c 96ae a63d 7f3b b9bc 08f4 8e3c
000000a0: a4ab d73d 769b bb3d 8b66 d83d 39bd a3bd
000000b0: e08f f43d 8cce 8f3d 0de3 9a3d 9f89 cdbd
000000c0: 2cee 8c3c eba0 91bd 4353 313d 444c 30be
000000d0: 5a9c d63b 424d 7dbc 99a9 643d 9ebb 2cbe
000000e0: ddf3 9abd 790e 33bd 7b15 59bd 9f06 b3bd
000000f0: bbc1 643c 128a 223e 5c48 89bd ba61 35be
00000100: 2282 3c3d 6913 05be 19e9 debc 46c3 e6bd
00000110: 1fa5 8bbc e9d3 233e 2db3 b13d fc68 9fbd
00000120: 66ca 123d 8554 aabc 6bb7 303c a684 b9bd
00000130: 5287 68be ae8b 403d 548d 913b 8c1a 103d
00000140: 69b3 94bd 4387 9e3d 74d9 a33c 5315 ccbc
00000150: 5728 92be 74d9 00bd 2a44 8abb 0793 9bbd
00000160: 2452 92bc f0a2 8f3d 884e dd3c 6b8c bc3c
00000170: ded3 bdbe 93c9 8bbd b396 2ebd 18b4 41bd
00000180: 9ba8 0b3e 4bb0 28be 33dd 7ebd bc8a a3bd
00000190: 566b aa3d caa6 713b fd9e 9a3c 9ee5 803c
000001a0: 8575 903d d1fb 6cbe 90e4 a4bd 210b 6abc
000001b0: 4632 643e 8088 aa3d 8dab 16be 5e45 2cbd
000001c0: 9768 3c3b b28e 9cbd d83e 89bd 15c7 00be
000001d0: 2a78 503d cabc e83d aed5 73bc 50ef f1bc
000001e0: 72b2 fdbc 7ea6 15bc 033a d03c 5a8f fb3b
000001f0: 52c8 243e 85a8 9bbd 2261 10bb 0083 abbd
00000200: 7c60 8d3c 44be b73c 2015 b7bd 4605 08bd
00000210: 276d 643d 2741 9d3d 1638 d5bd 6a2b ab3d
00000220: d70d 49bc 5564 b8bc 8d4c d73d b2bb 9c3c
00000230: 2504 cbbd 7a82 aa3d 6ad6 963b f23c 373c
00000240: 56fb df3c b857 23be fd60 e33c 7e0b 733b
00000250: 7210 0ebc f873 1ebc f35a aebd 847c e63c
00000260: 2151 3c3d fae9 e2bd 3ceb 863d c8a7 173d
00000270: 7bfc 3a3d f729 1b3e 8910 44bc a921 933d
00000280: 259a 43bd 6442 1dbc 2093 b0bc 4ada 923e
00000290: 331a 933d 090f 8b3e aabc 1f3d e680 613e
000002a0: 9662 da3c 72e7 b4bd 6b1d 183d a8a3 183e
000002b0: f43d c53a d1d5 953c 6401 90bd ae3e 4b3e
000002c0: a70f b1bd 4e7e cdbc 0105 fa3a 17d9 cc3c
000002d0: 81fe aebc 85a1 013e a37e 183d 24d5 fa3d
000002e0: 8e82 abbc fc27 49bc a51c 993d 9160 3a3d
000002f0: 847e 82bd 05b3 723e 8fa3 4ebd f516 75bd
00000300: 26f7 8b3d 9ed5 cabd f0cb 103c 7d03 273d
00000310: 3886 5a3c 77ae 8dbd 09a8 8f3c fb0e 60bd
00000320: ce89 93bc 1032 afbd 2a4e 903c 2886 bfbd
00000330: 3e65 f6bd 311a 14be 9ef6 8a3d 1255 22bd
00000340: 36fd 923c da5c 47bd 483e 53bc 0ac3 8b3d
00000350: 968e 06be 320e 8abe e092 3a3d e377 fcbb
00000360: 313c 70bd 2596 62bd 41d3 76bd 6631 033e
00000370: 985d 53bd 5287 20bd febd 98bc d75c dd3d
00000380: e6be 823d ddfe 96bb 05d2 cb3d efba a6bd
00000390: 0a74 05bd 458a e03d e65c 84bc e910 a4bd
000003a0: fecb 223d 348b a2bd 022e 23bd 3dc0 f4bd
000003b0: 87f8 3d3c fc29 433e 4387 d5bd c3e4 33be
000003c0: 815f 96bc b45e 753d e450 e3bd 6a6a 07be
000003d0: 8bbd 92bd 7671 23be 9e43 dabd 4be8 d2bd
000003e0: 1ccf d4bd de26 bbbd 9194 a53d 866e f93c
000003f0: 3bc0 dfbd 2cce fbbd 26c4 21bd c832 81bd
0.05938106 -0.10540822 -0.07696812 0.19946192 -0.059313092 -0.08623802 -0.018053334 0.10601154
0.08057285 -0.070992775 -0.021283679 0.005050822 -0.06616163 -0.14395615 -0.006951428 0.029685784
-0.039667364 -0.09343723 -0.14980875 0.0034331502 -0.08633631 -0.14139792 -0.058747713 -0.07326471
-0.01858041 -0.025680112 -0.1055997 -0.05596008 -0.0360384 0.1833842 -0.042342033 -0.076480545
0.072473355 0.06523996 -0.017317967 0.070598915 0.029024936 0.081387684 -0.022611378 0.017450348
0.10530785 0.09160511 0.105664335 -0.07995076 0.119415045 0.070218176 0.07562838 -0.10036015
0.017203413 -0.07110771 0.043292295 -0.17216593 0.0065494003 -0.015460314 0.055825803 -0.16868445
-0.075660445 -0.043714974 -0.052999 -0.08741497 0.013962205 0.15872982 -0.067032546 -0.17713061
0.04602254 -0.12995686 -0.027210759 -0.11267714 -0.01704651 0.15998806 0.08676753 -0.07783696
0.035837553 -0.020792255 0.010785918 -0.09058504 -0.2270787 0.04700821 0.0044418965 0.035181567
-0.07260782 0.07740643 0.02000115 -0.024912512 -0.28546402 -0.03145738 -0.0042195516 -0.075964026
-0.017861433 0.070135 0.027014986 0.023016175 -0.37075704 -0.068255566 -0.042624187 -0.04729089
0.13638537 -0.164735 -0.06222267 -0.07985446 0.08321254 0.0036873096 0.01887464 0.01573449
0.07053665 -0.23142935 -0.08051407 -0.01428488 0.22284803 0.083268166 -0.14713879 -0.04205834
0.0028748864 -0.076444045 -0.067014396 -0.12575944 0.050895847 0.11364134 -0.014882488 -0.029533058
-0.030968878 -0.009133933 0.025418287 0.007677001 0.16092041 -0.07600502 -0.0022030552 -0.08374596
0.017257921 0.022429593 -0.08939576 -0.033208154 0.05576816 0.076784424 -0.10411088 0.0835789
-0.012271366 -0.02250878 0.10512648 0.019132469 -0.099129 0.08325668 0.004603197 0.011183964
0.027341526 -0.15951431 0.027756209 0.0037085707 -0.008670913 -0.009671204 -0.08513441 0.028135546
0.045975808 -0.11079784 0.06587836 0.037025243 0.04565094 0.15152727 -0.011966833 0.071841545
-0.047754426 -0.009598348 -0.02155453 0.28682166 0.071827315 0.27159908 0.038998283 0.22021827
0.026658338 -0.08833207 0.03713743 0.1490618 0.0015048371 0.018290432 -0.07031515 0.19848129
-0.086455636 -0.02508464 0.0019074978 0.02500586 -0.021361591 0.12659271 0.037230145 0.122476846
-0.020936277 -0.012277599 0.07476167 0.04550225 -0.06371787 0.23701103 -0.05044895 -0.059836347
0.06834249 -0.099040255 0.008837685 0.04077481 0.013337664 -0.06918042 0.01753618 -0.054701786
-0.018010046 -0.085544705 0.017615397 -0.0935176 -0.12031029 -0.14463116 0.0678532 -0.03963191
0.017943006 -0.048672535 -0.012893267 0.0682431 -0.1314033 -0.26963955 0.045550227 -0.0077047213
-0.058651153 -0.05531897 -0.06026006 0.12811813 -0.05160293 -0.03919155 -0.018645283 0.108087234
0.06384067 -0.004608019 0.099521674 -0.081411235 -0.032581367 0.10963873 -0.016157579 -0.08011038
0.039745323 -0.07936707 -0.0398388 -0.11950729 0.011594898 0.19058985 -0.1042619 -0.17567734
-0.018356087 0.05990477 -0.11099413 -0.13224187 -0.07165059 -0.1596125 -0.10657428 -0.102982126
-0.103910655 -0.09138273 0.080849774 0.03044821 -0.10925337 -0.122951835 -0.039493702 -0.06308514

fc1.bias f4 [200]
00000000: fa5c 6b3e 8ebd 4bbb 5a20 6c3d ef84 a2bc
00000010: 40da 98be 381e 6cbd 1c25 85bd c102 27be
00000020: 3d6c 573e c4da b8bd d6f2 1abe a909 ccbd
00000030: d88d 2f3d 58ed 553c 5f58 4d3e 8972 2dbc
00000040: dbce 05be 5ff3 323d 9136 d43d 6d43 62bd
00000050: bdae 1abe bcda 813e 091b 353e b017 32be
00000060: d736 74bd c7c1 a03d de8c 263e a474 ba3c
00000070: 2ce3 05be b336 0bbe 91f3 9b3c b087 e53d
00000080: 93f9 18be 3b28 2abe 9f0c a3bd f3af af3e
00000090: a37b 57bd 4e54 5ebe 964b fb3d 3f5a 6b3e
000000a0: d724 26be 6124 78be 5e2c aabd 55c5 da3d
000000b0: 9dda 0abe 539d 80bc eb8a 7b3e 81d8 00be
000000c0: 7dba 82be fff3 21bd 9325 663d 77c1 823d
000000d0: d520 593e 1cb8 143e 456a 03be 6d12 21bd
000000e0: ad23 6bbd a797 b33d 8bab 9bbc 5715 6bbe
000000f0: ca98 03be 7acc cb3d 0983 633e c9f1 f7bc
00000100: 23dc 97be 6b80 2abe f9c5 3dbe 494c 433d
00000110: 3e84 b93d 661f e43d 1bb4 d33d 187d 763e
00000120: 8302 ad3d 5664 1c3e 35c1 363e f79a 1cbd
00000130: 407b 103e bd9f 5cbe a567 3bbe e69e 4cbd
00000140: cc02 2a3e 736f 96be f33b 97bd aac0 11be
00000150: 45e0 773d 6097 3e3e 628f 1dbe 80b6 97bd
00000160: fffc b8bd 4fb5 333e 80c8 81bd 918f 16be
00000170: 712b 9bbd cc09 883d 40f5 d7bd 6182 f93d
00000180: e0e0 583d d0ea b7bd 7620 a83a 7013 e6bd
00000190: 1156 1d3d f545 efbd 32d9 213e 689e 373d
000001a0: f667 8cbe 631f 33bd 192b 5cbe d069 fe3d
000001b0: 881d fa3c a340 323c a075 55be 6fb0 50be
000001c0: aded 2dbe fb58 3abe e072 68be 6644 73be
000001d0: 0eee 6dbd 4628 28be 47c3 bf3d 61a4 053e
000001e0: 8d37 c23c 4344 67be 3dd4 2b3e 639d b33d
000001f0: 84b8 b53d 516f 96bd 4478 2fbb e296 1dbe
00000200: cc15 1ebd 0d3f 703e f806 2f3d a436 48be
00000210: ad10 a3b9 c1b5 83bd b55b 113d db2c debd
00000220: 2f68 cabb 5d48 3d3d 94f7 bfbd 8ed3 dbbc
00000230: ad1a d2bd aa21 03be 3dc9 453e 7320 1c3e
00000240: f5c2 483d d468 4c3e 1a0a 013e 0861 34be
00000250: f49a 74bc 8eb3 12be 2d3d e83b 31e3 bd3b
00000260: a427 c4bd bd2f 7a3d bafb ecbd 8c18 47be
00000270: bc76 52bc 23fc 06be dfab 9a3e 4648 a7bd
00000280: a6d3 a33c 8733 783c 03d4 1abe 50aa 3ebe
00000290: 5914 013e f5cc b63c b9a1 2fbe 5565 0cbd
000002a0: 5c26 a93b 4ea0 643d afc6 0f3e 2570 14be
000002b0: 6afd 7b3e 2208 91be d968 3f3d 7776 edbd
000002c0: 617e 01be bc7a 943e 3fea 2ebe 5fc1 4abd
000002d0: 8c93 2e3e 1133 af3d 2ca6 c5bd 4ee0 a83d
000002e0: 65a2 373e 22b9 d2bd 6dcc 89bd d9b6 29be
000002f0: 2ce3 04bd c6cc 08be 08a4 453e 5a96 57bd
00000300: 9ee1 2e3e 6a19 bb3d 9c3b 8a3c 379b 2ebe
00000310: af42 15be 00e5 f0bd 8b89 b3bb bfcf 26be
0.22984686 -0.0031088325 0.05764804 -0.019838778 -0.29854012 -0.057646006 -0.06501219 -0.16309644
0.21037383 -0.09026101 -0.15131697 -0.0996278 0.042859882 0.013057075 0.20053242 -0.010586389
-0.1306719 0.043689128 0.1036197 -0.055240083 -0.1510572 0.25362194 0.17686094 -0.17391849
-0.05962261 0.0784946 0.16264674 0.022760697 -0.1307494 -0.13595085 0.01903704 0.11207521
-0.14938955 -0.16616909 -0.07961392 0.34313926 -0.052608144 -0.21711847 0.12270276 0.22983645
-0.16224991 -0.24232627 -0.083092436 0.10682169 -0.13559957 -0.015700018 0.24564712 -0.1258259
-0.25532904 -0.039539333 0.056188177 0.06384557 0.2120393 0.14523357 -0.12833507 -0.039324213
-0.05740707 0.0876916 -0.019002696 -0.22957359 -0.12851253 0.0995111 0.22217955 -0.03026666
-0.29660138 -0.1665055 -0.18532552 0.047680173 0.09058426 0.11138801 0.10337087 0.24071157
0.08447745 0.1527265 0.1784714 -0.038233723 0.14109516 -0.2154531 -0.18301256 -0.049956225
0.1660263 -0.29381904 -0.07384481 -0.14233652 0.060516614 0.18612432 -0.15386727 -0.07407856
-0.0903263 0.17549632 -0.063370705 -0.14703204 -0.07576645 0.066424936 -0.105448246 0.12183071
0.052948833 -0.08980334 0.0012827057 -0.11234176 0.038412157 -0.11683265 0.1580551 0.044828802
-0.27423066 -0.043731105 -0.21500815 0.12422526 0.03053166 0.010879668 -0.20845652 -0.20379804
-0.16985197 -0.18198006 -0.22700071 -0.2375656 -0.058088355 -0.16421613 0.09363418 0.13050987
0.02370813 -0.22584634 0.16780181 0.087702535 0.08873084 -0.07345451 -0.0026774565 -0.15389588
-0.038595006 0.23461552 0.042731255 -0.19552094 -0.00031102207 -0.06431151 0.03548785 -0.10848399
-0.0061769704 0.04621159 -0.09373394 -0.026834276 -0.10258994 -0.1280581 0.19315048 0.15246753
0.04901405 0.19961864 0.1260151 -0.1761514 -0.014929522 -0.14326307 0.007087371 0.0057949056
-0.09577873 0.061080683 -0.115714505 -0.19442958 -0.012845691 -0.1318212 0.30209252 -0.08168082
0.019998383 0.015149004 -0.15119939 -0.18619657 0.12605418 0.022314528 -0.17151536 -0.034276325
0.0051620435 0.05581694 0.14040636 -0.14495905 0.24608389 -0.28326517 0.04673085 -0.11594861
-0.12645866 0.2899989 -0.17081545 -0.04950082 0.17048472 0.08554662 -0.096508354 0.08245908
0.17933042 -0.102892175 -0.06728444 -0.16573657 -0.03244321 -0.13359365 0.19300854 -0.05263362
0.17078254 0.09135707 0.016874127 -0.17051397 -0.14576219 -0.11762428 -0.005479043 -0.16290186

fc2.weight f4 [150, 200]
00000000: 2965 f63d cae8 b13d 9369 823d 184f 963d
00000010: bf34 7e3d d21d c0bd c92b 25bd 25c4 d3bc
00000020: 0390 f9bd 72d3 6d3d 7f80 a0bc 7e44 00be
00000030: 5fb4 103d 7e6a 38bd 9aab 493e e10d 56bd
00000040: f09f 273d 78d7 d73d 2600 773d d950 34bb
00000050: 3026 513d 61f3 5ebd 7fa3 823c cd80 b63d
00000060: 5c32 8d3d a0a8 8f3d c6e4 043e 64f0 013d
00000070: 7c55 e2bd cfdc b8bc ee47 20bc baf3 d0bd
00000080: 93c6 a23d 8d29 02be be8d 303e 70a7 cb3c
00000090: c83e 333c ef42 eabb 6751 64bb 96a0 913c
000000a0: e629 29bd 3eed a93c 4e5c af3d 4bae dd3c
000000b0: 8918 f43c 04c7 cd3c 8cce 0a3d 30b2 b73c
000000c0: 9973 10bc 0dbe 97bd 39d4 d1bc 8911 0f3e
000000d0: 6d65 07be 9bf8 0e3e 0148 f23d e851 62bd
000000e0: e479 283d 302c 94bc c422 a23c 549f 243e
000000f0: d250 f73b c070 0dbd e6a3 f2bd db62 89bd
00000100: 9b96 ac3c f42a e33c 70ee dc3d a0a7 903d
00000110: e116 e0bc 03ef 36bd a93c abbd c7a1 5dbd
00000120: afcd b13c a19e 493c 3c1c 8f3d 99e6 9ebc
00000130: ce53 afbd 2ccf 973c 4adb f23d bd1f b23d
00000140: ff97 66bd ac12 32be 177b 4fbb 3af9 053d
00000150: 6afb 123d fe38 45bc 9b16 0a3e 1455 7a3d
00000160: 84ff 0bbd f68c 3abd 696b 80bd a7f8 253d
00000170: f797 dbbc e335 b13d 3b69 bfbb d439 1ebc
00000180: 008f a7bc f1bf f73d e739 4f3d b061 133c
00000190: 0c5f 403d fb71 bc3d 6c35 d43d a2f7 2c3d
000001a0: 657f 293e a2a3 45bd 0890 b63d f196 9dbd
000001b0: a54e 9abc 4cd6 14bd e41f 29bd 1aaf 48bd
000001c0: 7ac1 d73c dcb1 593d 2a00 bd3d 6604 f8bb
000001d0: b78a 493d bbd1 de3d 69c8 2b3d d639 40bd
000001e0: ca60 67bb af2f 7cbd 7c4e 1a3c 2edb 54bd
000001f0: cada 933d 8e57 833d f874 9b39 7419 47bd
00000200: 6f48 623c 9406 a8bd 342c f1bc 3150 e13c
00000210: 066c 743d ce03 303d 4eba 21bd 6b4b b83d
00000220: 6656 ba3c 5d6f 8a3e 5d5b a43d 4f4e 36bc
00000230: 1256 ab3b 2abe 6d3c 5dc4 153d 549c 983d
00000240: 610f ba3d 00c2 10bd 5d77 393a 5209 013e
00000250: 31b4 0bbd b344 073d 34c8 763d 86b0 a23c
00000260: 4680 fabb 59dd 26bd 0bbe 7a3c 3acb 7fbc
00000270: 2aae 5abb 75f6 cb3d 9b8d 753a 6f64 103d
00000280: e77c 353d 132f 15bd 971b 7b3b 1ec7 903d
00000290: 1ba6 713c b26e 973d 6f9d 6f3d 31dc 31bc
000002a0: 0119 633d 7c35 c33d 51c1 b03d ceb7 68bd
000002b0: 2625 6bbd dc3c 003d 1bf3 803d 79dc c43d
000002c0: b9e0 b43d 246a 28bd f5ad 92bd e609 61bd
000002d0: a610 b43c 096e 133c bb9d 53bd 7d6a aebd
000002e0: ada3 1c3e fc57 be3b d1d7 f0bc 43bc 10bd
000002f0: 1980 8cbc 40a2 d33b 2bf8 ebbc 2b79 a23d
00000300: 0ff5 bf3d 9e24 913d 5724 6bbc dc06 213e
00000310: d2c0 00be 3461 853d 1194 853d 7209 ebbb
00000320: e0ef 593d b4b8 3a3e 33cd 723c 3327 b33c
00000330: f19e 4ebd 9324 2cbc 7f11 d83b b1e8 893d
00000340: 3f98 bfbd e83d 2a3d 82c2 c03d 4ae0 31be
00000350: 7de3 ba3c 19cc e43c 3d16 3b3e 8d10 5e3d
00000360: f073 7f3d 50d4 733c 2826 663d 5ff5 ae3d
00000370: b1e9 99bb 66a5 ca3d e44c 34bc 1940 f53d
00000380: 5a16 75bd 393c c8bd 2187 b7bd ec88 00be
00000390: a157 9dbd 1318 f43d 1ad5 8c3b 190c aa3d
000003a0: 8620 3cb9 e9b5 4ebd b622 d03d 470a 143e
000003b0: d1d0 5b3d 45c3 37bd cca1 cd3d 4fc5 803c
000003c0: 2ad1 02bb cb42 f3bc 39c4 473e e958 a93c
000003d0: d345 76bd fb21 67bb 6c7e 87be 5f5f 61bd
000003e0: 4575 8bbd eb34 823b daef 173d f7b9 353d
000003f0: a4ab 34bd 4389 c93d c3de 0bbc da67 2b3d
0.120310135 0.08686979 0.06367793 0.07339305 0.06206202 -0.09380688 -0.04032496 -0.025850365
-0.12185671 0.058062978 -0.019592522 -0.12526128 0.035328265 -0.045023434 0.19694367 -0.05225933
0.040924013 0.10539144 0.060302876 -0.002751401 0.05106181 -0.054431323 0.015947102 0.089112855
0.06894371 0.070145845 0.12977895 0.031723395 -0.11051461 -0.022566227 -0.009782774 -0.10202737
0.07948031 -0.12711163 0.1724157 0.024860114 0.010940261 -0.0071490924 -0.0034838559 0.017776769
-0.041299723 0.020743009 0.085625276 0.027060648 0.029796856 0.025119312 0.033888385 0.022423834
-0.008816623 -0.07409296 -0.025613891 0.13971533 -0.13222285 0.13962023 0.1183014 -0.055253893
0.04113187 -0.018087476 0.019791968 0.16076404 0.0075474763 -0.034531355 -0.118476674 -0.06708308
0.021067908 0.027730443 0.10787666 0.07063222 -0.02735466 -0.044661533 -0.083611794 -0.05410936
0.021704523 0.0123058865 0.06987807 -0.019397067 -0.08560906 0.018531404 0.11858232 0.0869746
-0.0562973 -0.17389935 -0.003165906 0.032708384 0.0358843 -0.012037514 0.13485186 0.061116293
-0.034179226 -0.045544587 -0.06270487 0.040520336 -0.02680586 0.08652856 -0.005841402 -0.009657342
-0.02045393 0.12097157 0.05059233 0.0089954585 0.046965644 0.092014275 0.10361752 0.04222835
0.16552503 -0.048251756 0.089141905 -0.076948054 -0.018836329 -0.036337182 -0.04129018 -0.048995115
0.026337374 0.053148136 0.09228547 -0.0075688837 0.049204554 0.10879847 0.041939173 -0.046930157
-0.0035305494 -0.061568912 0.009418126 -0.05196684 0.07219465 0.06413184 0.00029651052 -0.04860826
0.013811215 -0.0820438 -0.029440023 0.027504059 0.05967333 0.04297238 -0.039484315 0.0899876
0.022746276 0.27038088 0.08025239 -0.011127069 0.0052287662 0.014510671 0.03656422 0.07451692
0.090849645 -0.035341263 0.00070749765 0.12601212 -0.03410739 0.0330245 0.060249522 0.019859564
-0.007644686 -0.040738437 0.015304099 -0.015612418 -0.003336797 0.09959117 0.0009367109 0.03525203
0.04430857 -0.036421847 0.0038316005 0.070692286 0.014749075 0.0739416 0.05849975 -0.01085572
0.055443767 0.09531686 0.08630622 -0.056815915 -0.057408474 0.03130804 0.06296369 0.09612364
0.08831925 -0.04111685 -0.07162086 -0.05494108 0.021980595 0.008998402 -0.051664095 -0.08516405
0.15296812 0.0058088284 -0.029399784 -0.03533579 -0.017150925 0.0064585507 -0.02880486 0.07933267
0.09372913 0.07087062 -0.014351926 0.15725273 -0.12573555 0.06512681 0.06522382 -0.007172757
0.05320728 0.18234521 0.014819431 0.021869278 -0.050444547 -0.010506767 0.0065938826 0.067338355
-0.093552105 0.041562945 0.094120994 -0.17370716 0.022813553 0.027929353 0.18270202 0.054215003
0.062366426 0.014882162 0.056188732 0.085428946 -0.0046970476 0.098948285 -0.01100466 0.11975116
-0.05983577 -0.097771116 -0.08961321 -0.12552232 -0.076827295 0.11918654 0.0042978646 0.08303089
-0.00017941193 -0.05046645 0.101628706 0.14457045 0.05366594 -0.044863958 0.10040626 0.015719084
-0.0019961097 -0.029694935 0.19508447 0.020672278 -0.060125183 -0.0035268057 -0.2646364 -0.055022594
-0.06809477 0.0039735935 0.037093975 0.044366803 -0.044109 0.09840634 -0.008536997 0.041847087

fc2.bias f4 [150]
00000000: 683d d3bd 2615 893d e43b f83d f330 7cbd
00000010: 5a8e 0a3e 83e3 38bd ce7a c2bc 1320 49bc
00000020: 2d95 aa3a af7f a9bd 6402 cfbc 1fe1 42ba
00000030: a635 fb3c 38d8 a3bb 026b f8bc 9a20 db3c
00000040: dfee 0a3e 6e3e 6abd e852 b93d c43a 7e3d
00000050: d6ba aa3d 6656 953c bec2 203d aa79 b73d
00000060: 3306 0a3e b216 8c3b 9cf6 f93d a3a4 513d
00000070: b139 bd3d b474 f63d 6e33 04be bab9 e4bc
00000080: 08db c73c 6cfa 6a3d 1c7c c73d 2993 893d
00000090: 0007 6bbc f1f1 41bd f647 893d 3217 2f3d
000000a0: 6d8d fe3c 9a4e 55bd 38f3 4c3d b78c 223c
000000b0: 436a 88bd cb66 eb3c a438 1f3e 61a5 abbd
000000c0: 2e3f ab3d 63cf 99bb 1747 17be 75cf 943d
000000d0: 75fe 80bd cac6 b83d 82b4 be3a f08e 92bd
000000e0: 147e ef3d d2ca cb3d 0b34 8e3d 3ff7 06bd
000000f0: d510 f0bc 9ba4 ca3d 2e52 60bd 9404 f43d
00000100: 1330 41bd accf 753d d42a 3d3c 2505 0ebd
00000110: c464 78bd baaf 30bc 1603 083e dd82 173e
00000120: 29ae f53c 3a0a cb3d 50c6 72bd 14f3 813d
00000130: eabb bf3d 73f8 803d 367b f73c 11ff b93d
00000140: 0322 a8bd d816 c7bd bca4 1cbc 41d9 983b
00000150: e478 143d 933c 993d 3c53 5abc 5f21 29bd
00000160: 54fa 3c3c b104 75bb 5b6f 9cbd 14d1 2a3d
00000170: 013f 573c 3ea8 7d3d 468e 1bbd ee34 b73d
00000180: 02da e0bb 2fae d5bd feb4 afbd 0c06 353c
00000190: 7bc6 ff3d 449f 94bd a18a 2abc f951 343e
000001a0: 99b8 be39 0b2a ddbd 5201 b3bb 7920 e23d
000001b0: 8185 ccbd e2c5 dc3c 0a43 95bc bb78 56bd
000001c0: 275b e0bc 9002 b73c 5cf4 e33c 9d4c 033d
000001d0: 639c e0bc 141b e6bc 9849 69bd 48e1 fa3d
000001e0: 99f9 d7bd e714 6a3d 7f63 53bd 04a7 c9bc
000001f0: b561 d03d 9a0d 343e 5ff5 c63c 78b1 73bd
00000200: 351e a83d 8e77 473d 9158 4c3c 4b35 0d3c
00000210: 3e3b d23c 226f 87bd ca5a 843d 3266 a3bc
00000220: 431f 343c f1b1 1a3e 6517 723d 112a 0bbe
00000230: dc7e a03d 6802 25bd 435b 28bd 033c aebd
00000240: ac0f 5139 322e 053e 682e 27bd f7e7 1d3d
00000250: dc22 91bc 6a4e 93bc
-0.10314447 0.06693487 0.12120798 -0.06157012 0.13530865 -0.045138847 -0.023740198 -0.0122757135
0.0013014429 -0.08276307 -0.025269695 -0.00074340584 0.03066523 -0.0050001405 -0.030324463 0.026748944
0.13567685 -0.057188444 0.09049016 0.062067762 0.083364174 0.018229675 0.03924822 0.089587525
0.13478927 0.0042751664 0.1220524 0.0511824 0.092395194 0.12033978 -0.12910244 -0.027920593
0.024396434 0.057367727 0.09740469 0.06717522 -0.014344931 -0.047349874 0.067031786 0.04274673
0.031073296 -0.052076913 0.05003664 0.009921244 -0.06660893 0.028735539 0.1554895 -0.08381153
0.0836166 -0.004693912 -0.14773212 0.07266132 -0.06298534 0.09022291 0.0014549645 -0.071561694
0.11693969 0.09950794 0.0694352 -0.032950636 -0.029304901 0.09894677 -0.054765873 0.11914936
-0.047164988 0.060012504 0.011545856 -0.034672875 -0.060642973 -0.010784084 0.13282427 0.14796014
0.029990273 0.0991406 -0.059271157 0.063451916 0.09362014 0.06297388 0.030210119 0.09081853
-0.08209612 -0.09721154 -0.00956076 0.0046645706 0.036248103 0.07482257 -0.013325509 -0.04129159
0.011534292 -0.003738683 -0.07638427 0.0417033 0.01313758 0.061928026 -0.03797748 0.089456424
-0.006861926 -0.104336135 -0.085794434 0.011048805 0.12489029 -0.0725694 -0.010409028 0.17609395
0.0003637716 -0.10799035 -0.005462804 0.1104135 -0.09986401 0.026949827 -0.018220443 -0.05236123
-0.027387215 0.02234009 0.02782648 0.032055486 -0.027418321 -0.028089084 -0.05695495 0.1225
-0.10545654 0.05714884 -0.05160856 -0.024615772 0.10174886 0.17583314 0.024286924 -0.05949542
0.082088865 0.048698 0.012472288 0.008618663 0.025663015 -0.06612994 0.06462629 -0.019946191
0.0109937815 0.15106942 0.059104342 -0.13590266 0.078366965 -0.040285498 -0.04110266 -0.0850754
0.00019937631 0.13005903 -0.04081574 0.038551297 -0.017716818 -0.017981727

fc3.weight f4 [2, 150]
00000000: 7a9a 7ebc 1155 06bd d022 653e 622f 2bbd
00000010: af65 6d3c 2d6d 1dbd 23d9 20bd 7b6a 76bd
00000020: def0 263e 4970 58be 9bb2 f8bd c90b 463e
00000030: 9005 3bbd f215 25be aa50 42bd 4812 fb3d
00000040: e3b7 933e 4b77 68bd 9ca3 2d3e 5539 463e
00000050: 59f0 bd3e 59ad 0f3e b8d2 373e ef36 953d
00000060: 5420 343e 99ad 10bd 4bb0 803d 622d 97bb
00000070: ce14 5c3e b2e1 673c cc4f f2bd 1e33 25bd
00000080: 3c24 933e 1424 9e3d 9e77 ab3d 8a40 b93d
00000090: 12f4 1cbd f75b 183e 3ae2 f33d 0294 e33c
000000a0: 3093 1bbd 089e f0bd 1225 ed3e bbe7 8a3e
000000b0: ccb4 f9bc 5119 ebbd fd80 283e 704d 09be
000000c0: 3453 9c3d 1604 77bd ee5f debd f4ee cd3d
000000d0: ff67 8cbd db6e 5e3e 5f2c 3b3a 2e01 42bd
000000e0: f176 3f3d 5bd4 5e3e ae47 0b3e fc88 283e
000000f0: 87d9 babd 5258 ba3d 3c13 0bbd 5be2 1a3e
00000100: c237 4e3e 7e6b debd f30b 143e 4d2d 5dbd
00000110: 656a a93e 3fe7 10bd 7ceb a13c 3c3a 893e
00000120: fd1e 903e 1746 f03d 7019 5fbd df29 dc3d
00000130: 4613 7d3d 78bd 873e 8d30 683d ae1a b13d
00000140: 6975 fbbd 8776 5abd e129 c83c 25d8 0a3d
00000150: 60f8 193e 6f78 d5bd 2f17 15bd ca90 a1bd
00000160: b43e 963e b046 c43d 1e52 afbc d4e6 b23d
00000170: 1475 793d 12d6 1f3e bede 01bd 9184 a03d
00000180: 3bef 5e3e b2af 01bd fe0b 0dbd 970d 6c3e
00000190: fecc 923e 662f ebbc b9d4 72bd 90e2 513c
000001a0: f983 77bd ef1e 8fbd 0aa0 33bc ae96 f63d
000001b0: 0f85 7dbd 8b5c 753e 88d0 fbbc acfc 4abd
000001c0: 26ea 1d3d 9a9d 00be 53e3 cdbc 4ad6 f23d
000001d0: 3944 d2bc 59a2 05be 2818 c5bc d055 d63d
000001e0: 6f50 0fbe 84e7 2e3e 0dbc f8bc 049d 99bd
000001f0: 8912 223e 8913 083e eea6 cd3d a7af 0ebd
00000200: c59f ff3d cf4f 0e3d 9a21 c7bb 0da6 893c
00000210: f4df 38bd 6ab6 a8bc 2c49 933e de8e b6bc
00000220: c9b0 f7bc 6472 113e 1088 513e 9f9d 48bd
00000230: 7f12 a5bb f082 f4bd fadb 3bbd e38f 7fbd
00000240: 1042 1a3e 58ae 4dbc 202a afbd 8d5e 213e
00000250: afbd e0bc c5ed 823e d675 b43c b92d f63d
00000260: f1bf 31bd e959 a2bc c251 833e 3035 ad3d
00000270: 26b8 49bc 2e66 77bd b51b 103c 04ad 91bd
00000280: 1cd8 14bc f827 1ebd b3aa 9d3c 0d0e 873e
00000290: ddf9 cdbc 150d e0bd 4692 a0bd 3d87 013e
000002a0: 590d d63d afc7 fcbc ee2e 09bd d065 983e
000002b0: ab28 dc3c af82 bbbe 9d7f 283e df86 813d
000002c0: f8f4 e93d d1cb 733e 9029 1a3e d6c3 b63e
000002d0: c06d 4abe 8d8c f03d 94f6 9dbd f32d 8ebc
000002e0: 0f16 9fbe f31b 6d3e 587a dbbc d009 04be
000002f0: 2c40 813e 9b4d 80be d7d4 2e3d 9b84 05bd
00000300: f998 cabe 4247 00bd e7d1 dd3a 536d d83c
00000310: 7758 f63c 6efb 93bd e3a8 a8be bcc4 503d
00000320: afcd 9d3b 4d82 7f3d 31e0 36be be92 dc3d
00000330: e07c 113e 035d c3bb 2d19 32be 5fa5 8cbd
00000340: 55fd 31bc b76c c83d 1538 45bd 4667 8cbc
00000350: 2e36 243e b1ea 06be 2d9a 5ebd 31fd 70be
00000360: 12f7 843d bea0 ad3d 4c69 99be b540 2ebc
00000370: 96fa f03e e44d f5bd b819 5cbe 8bc6 d13d
00000380: 92af 5e3e 1402 e8bd 5550 4b3e bd97 8ebd
00000390: cdad 5b3e 9cce 4e3d 459e f4bd 8cd6 343d
000003a0: b11c a4be 6329 67be 25c0 40be e926 ea3d
000003b0: 60e1 b5bc 3ec9 d83c 019e 06bd 2f57 623e
000003c0: cc1b 4f3c d2e2 713e 16a1 47be 00b4 7e3e
000003d0: 032b 223d 3467 c53e 6971 82bd 0c98 5fbc
000003e0: d029 86bd 16ed 7cbd b79d f1bd 0019 dfbc
000003f0: 4bcd 473d b278 473e 6ab2 2abd cf36 d0bd
-0.01553976 -0.03279597 0.22376561 -0.041793235 0.014489575 -0.038434196 -0.039269578 -0.06016014
0.16302821 -0.21136583 -0.12143441 0.19340433 -0.0456596 -0.16121653 -0.04744021 0.12259346
0.28851232 -0.05675439 0.16956943 0.19357808 0.37097433 0.1403097 0.17951477 0.072858684
0.17590457 -0.035321806 0.06283625 -0.0046135643 0.21492311 0.014152931 -0.11831626 -0.040331952
0.28738582 0.07721725 0.083724245 0.09045513 -0.0383187 0.14878832 0.11908384 0.027780537
-0.037982166 -0.11748892 0.46317345 0.2712992 -0.030481718 -0.11479438 0.16455455 -0.13408446
0.07633057 -0.06030663 -0.10858141 0.10055342 -0.06855773 0.21721976 0.00071400957 -0.047364406
0.04674429 0.21760695 0.13601562 0.16458505 -0.09123521 0.09098877 -0.03395389 0.1512541
0.20138457 -0.10860346 0.14457683 -0.05399828 0.33088985 -0.035376783 0.019765608 0.26802242
0.28148642 0.117321186 -0.05446762 0.10750174 0.06178596 0.2651174 0.056686927 0.08647667
-0.122782536 -0.053335693 0.024434032 0.033897538 0.15036154 -0.104233615 -0.036399063 -0.078889444
0.29344714 0.09583795 -0.021401461 0.08735433 0.06090267 0.15609005 -0.031706564 0.07837785
0.21770947 -0.031661697 -0.034435265 0.23052059 0.28672022 -0.028709125 -0.0592849 0.012810364
-0.060428593 -0.06988322 -0.010963449 0.120404586 -0.061894473 0.23961084 -0.030739084 -0.049557373
0.03855338 -0.1256012 -0.02513281 0.11857279 -0.025667297 -0.13050212 -0.02405937 0.10465586
-0.13995527 0.17080504 -0.030363107 -0.075006515 0.15827383 0.13288702 0.10041605 -0.034835484
0.124816455 0.03474408 -0.0060770037 0.016802812 -0.045135453 -0.020594794 0.28766763 -0.022284921
-0.030235665 0.14203793 0.2046206 -0.048978444 -0.0050376053 -0.11939037 -0.045864083 -0.06239308
0.15064263 -0.012553774 -0.085529566 0.15758725 -0.027434198 0.2557203 0.022028845 0.1202044
-0.04339594 -0.019818263 0.25648314 0.0845741 -0.012311971 -0.06040018 0.008795668 -0.07113078
-0.009084728 -0.038612336 0.019246435 0.26377907 -0.025143558 -0.10939995 -0.078403994 0.12649246
0.104517646 -0.030856935 -0.03349202 0.29765177 0.02687486 -0.3662314 0.1645493 0.06324553
0.11423677 0.23808219 0.15054917 0.35696286 -0.19768429 0.11745558 -0.07713047 -0.017355895
-0.31071517 0.23155193 -0.026791736 -0.12894368 0.25244272 -0.25059208 0.04268345 -0.032597166
-0.39569834 -0.031317957 0.0016923518 0.026419317 0.03007148 -0.07225691 -0.3294135 0.05096887
0.004815779 0.062380124 -0.1785896 0.10770176 0.14207792 -0.0059620156 -0.17392416 -0.068674795
-0.010863622 0.09786361 -0.048149187 -0.017139088 0.16036293 -0.13175465 -0.054346252 -0.23534085
0.064924374 0.08477925 -0.29963148 -0.010635545 0.47066182 -0.11977747 -0.21494186 0.10242947
0.21746662 -0.11328521 0.19854863 -0.069625355 0.21453018 0.050490007 -0.1194425 0.04414992
-0.3205314 -0.22574382 -0.18823297 0.11433203 -0.022202194 0.026463147 -0.032865528 0.2210357
0.012640905 0.23621681 -0.19495043 0.24873352 0.0395918 0.385553 -0.063692875 -0.013647091
-0.06550944 -0.06174954 -0.1179766 -0.0272336 0.048779767 0.19479635 -0.041674055 -0.10166704

fc3.bias f4 [2]
00000000: aad3 97bc df1a 763d
-0.018533546 0.06008422
