p3_collab-compet/agent2_checkpoint_critic.pth (torch_old, 164615 bytes, 5 tensors)

fcs1.weight f4 [200, 52]
0	0x3e8d67e1	0.27618316
1	0xbe2592a2	-0.16169217
2	0xbcbe05aa	-0.02319606
3	0xbf020966	-0.5079559
4	0x3df30a0c	0.11867151
5	0xbec96e46	-0.39341944
6	0xbe0576e5	-0.13033636
7	0xbf023064	-0.5085509
8	0x3e00371b	0.12521021
9	0xbecc12ca	-0.39858085
10	0xbcccce9d	-0.025000865
11	0xbc927cf4	-0.017881848
12	0xbc35a70c	-0.01108719
13	0xbec13fa1	-0.37743858
14	0xbcc032f1	-0.02346179
15	0xbc464032	-0.012100266
16	0x3c08b874	0.008344758
17	0xbd596043	-0.053070318
18	0xbdcecefa	-0.100980714
19	0x3ea2d097	0.31799766
20	0xbd7ebd87	-0.062192466
21	0xbefb60be	-0.49097246
22	0xbde57e3e	-0.112057194
23	0x3e8a232b	0.26979956
24	0x3f3a207d	0.72705823
25	0xbe7b4f8e	-0.24542066
26	0xbd8613b7	-0.06546729
27	0xbe7baaae	-0.24576828
28	0xbd2adeb4	-0.041716293
29	0xbefc07b0	-0.49224615
30	0xbd8ae4bc	-0.06781909
31	0xbe94cae8	-0.29061055
32	0x3e8e8ae6	0.27840346
33	0xbee96c59	-0.45590475
34	0xbd2f0411	-0.042728487
35	0xbcdf0402	-0.02722359
36	0xbd8f42e4	-0.0699518
37	0xbe998201	-0.29981998
38	0xbd5cc850	-0.05390197
39	0xbd8c6564	-0.06855276
40	0x3e859240	0.26088142
41	0xbe8701cc	-0.26368558
42	0xbcb3965d	-0.021922285
43	0x3f19905c	0.599859
44	0x3de78ddc	0.113063544
45	0xbeea1436	-0.45718545
46	0x3cc3cf0d	0.02390244
47	0x3f1bb5c6	0.6082424
48	0x3ef34f7d	0.47521582
49	0x3fbaa0a9	1.458028
50	0x3ff99cfc	1.9501033
51	0xbd8e669c	-0.06953165
52	0x3f492d63	0.7858488
53	0x3f00a858	0.5025687
54	0x3cce4b5c	0.025182419
55	0x3e062cde	0.13103053
56	0x3cf7dedf	0.03025764
57	0xbea7379e	-0.3265962
58	0x3dc2c464	0.09510115
59	0x3db11a4b	0.08647593
60	0x3f04f25f	0.5193233
61	0x3eaa81e5	0.33302227
62	0xbe66d1c5	-0.22540958
63	0x3e47d64f	0.19515346
64	0x3d6ec673	0.058294725
65	0xbe702168	-0.23450243
66	0xbdf76eb4	-0.12081662
67	0x3e614d88	0.22002232
68	0x3f274f44	0.65355325
69	0x3e79ecd5	0.2440675
70	0xbbc618cd	-0.006045437
71	0xbeab278d	-0.33428612
72	0x3da7226e	0.08160864
73	0xbe6d2ce3	-0.23161654
74	0x3c69cdde	0.014270274
75	0xbea91555	-0.33024088
76	0x3e7b4a38	0.24540031
77	0x3f31eafb	0.69499177
78	0xbd3cd877	-0.046104874
79	0xbeb4541a	-0.35220414
80	0xbc744339	-0.014908605
81	0xbe62dbac	-0.2215411
82	0xbd6c657f	-0.05771398
83	0xbeaf67ba	-0.34258825
84	0x3e396f8d	0.1810896
85	0x3f0b47e1	0.54406554
86	0xbcda3df0	-0.026640862
87	0x3dc8674e	0.09785329
88	0x3c205575	0.009786
89	0xbe5a6848	-0.21328843
90	0xbd4bcdd8	-0.049756855
91	0x3de71f13	0.11285224
92	0x3eaf9b97	0.34298393
93	0x3f08fbd0	0.53509235
94	0xbd6a2655	-0.057165463
95	0x3eb61453	0.3556238
96	0xbe32b428	-0.17451537
97	0xbe338a0c	-0.1753313
98	0x3c3ab363	0.011395308
99	0x3eb10ac7	0.34578535
100	0xbf980f25	-1.1879622
101	0xbf801335	-1.0005862
102	0x401c34cb	2.4407222
103	0x3f40b648	0.7527814
104	0x3ed36a24	0.41291916
105	0x3cbb0362	0.022828761
106	0x3ca74d24	0.020422526
107	0x3e723a37	0.2365502
108	0xbe9f90ce	-0.31165165
109	0xbe77ea11	-0.24210383
110	0xbd6bde5a	-0.057585098
111	0x3e3d1059	0.18463267
112	0x3ef8f5d2	0.48625046
113	0xbca20932	-0.019779775
114	0xbd40b6b6	-0.047049247
115	0xbeae09d0	-0.3399186
116	0xbda2d986	-0.079516456
117	0xbf3d457d	-0.73934156
118	0x3d7560fc	0.059906945
119	0xbedeabda	-0.43490487
120	0x3dbb5830	0.0914768
121	0xbe1cd494	-0.15315467
122	0x3b7cd79b	0.003858066
123	0xbefac947	-0.48981687
124	0x3e9cc1af	0.3061652
125	0xbf6be369	-0.92143875
126	0xbb99c3c1	-0.004692525
127	0xbed72afd	-0.42024985
128	0x3e3091b3	0.1724308
129	0x3e6b0583	0.22951321
130	0x3d5e6489	0.054295097
131	0xbe8c9b66	-0.2746231
132	0x3ec3af06	0.3821947
133	0xbe5d8688	-0.21633351
134	0x3d0d2e0b	0.034467738
135	0xbea3200e	-0.31860393
136	0x3e8fb7f5	0.28070036
137	0x3ce2cde7	0.027686073
138	0xbd8a5f7b	-0.06756493
139	0xbf09cd28	-0.5382867
140	0x3d535cd1	0.05160219
141	0xbf32beb7	-0.6982226
142	0xbd350eff	-0.044203755
143	0xbf1c3412	-0.61016953
144	0x3e4e3bcc	0.20139998
145	0xbeb93cf8	-0.36179328
146	0xbd1d7adf	-0.038447257
147	0xbe9918db	-0.29901776
148	0xbeb58e27	-0.35460016
149	0xbf7dcf4d	-0.9914444
150	0xbcdbceea	-0.026832063
151	0xbeb9d71b	-0.36296925
152	0x3e29af38	0.16570747
153	0xbf30a902	-0.69007885
154	0x3f826f94	1.0190301
155	0x3f05338c	0.5203178
156	0x3d73997e	0.059472553
157	0x3e6c62d7	0.2308458
158	0x3a26aca5	0.00063581235
159	0xbcc7c7a2	-0.024387185
160	0xbc820695	-0.01587228
161	0x3ee53039	0.44763353
162	0x3dc65b8b	0.09685429
163	0xbd2824fa	-0.04105089
164	0xbdc19634	-0.09452477
165	0x3e9b60f0	0.30347395
166	0xbbc49074	-0.0059986655
167	0x3d3728d6	0.04471668
168	0xbd4d5cc5	-0.0501373
169	0x3d81b72e	0.06333767
170	0xbca6a8cb	-0.020344159
171	0x3d69100c	0.05690007
172	0xbdf5c595	-0.120005764
173	0x3e2ee628	0.17079985
174	0xbce3ed59	-0.027823137
175	0xbcaafa5e	-0.020871338
176	0x3db343e2	0.08753182
177	0xc00eb4bb	-2.229781
178	0xbc1ef951	-0.009702996
179	0xbd4daa32	-0.05021114
180	0xbe1dbbe1	-0.15403701
181	0x3f51cd14	0.8195355
182	0x3bee3316	0.0072692735
183	0xb7ea1ddc	-2.7908878e-05
184	0x3bfc7bda	0.007705194
185	0x3f088ddf	0.5334148
186	0xbbf842bd	-0.007576315
187	0x3bf4682d	0.007458708
188	0xbb2ebd2c	-0.0026663048
189	0x3f396456	0.72418725
190	0x3d02e36a	0.03195516
191	0xbcd340c7	-0.025787724
192	0xbd808ffc	-0.06277463
193	0x3d05708a	0.03257803
194	0x3c3fe628	0.011712588
195	0x3c96733f	0.0183655
196	0x3d259c9f	0.04043257
197	0x3f37f180	0.71852875
198	0xbd5a9360	-0.053363204
199	0x3d0a6944	0.033791795
200	0xbca0b7aa	-0.019618828
201	0xc00a2d29	-2.1590064
202	0x3d0430ac	0.03227298
203	0x3d856554	0.065134674
204	0x3f6f78e4	0.9354384
205	0x3ea7da39	0.32783678
206	0xbcd79923	-0.026318138
207	0x3dff571b	0.12467786
208	0xbe5e58bb	-0.21713535
209	0x3faa6116	1.3310878
210	0x3cfc67fd	0.030811304
211	0xbd6f1b3b	-0.05837558
212	0x3d861b77	0.06548207
213	0x3de05428	0.109535515
214	0x3ac7784d	0.0015218348
215	0x3bbe9b5c	0.00581686
216	0xbc7cae8b	-0.015422474
217	0x3facb5b4	1.3492951
218	0xbc8aedcd	-0.016959095
219	0xbbbbd1bd	-0.00573179
220	0x3e30fe88	0.17284596
221	0xbe370388	-0.17872441
222	0x3cf6ba9c	0.03011828
223	0x3c3b1bcb	0.011420201
224	0xbd8a793f	-0.06761407
225	0x3fae12ac	1.3599448
226	0x3d7997c1	0.06093574
227	0xbe2380a3	-0.1596704
228	0x3d26aa3a	0.040689684
229	0xbf973a28	-1.1814623
230	0xbcc95e2d	-0.02458104
231	0xbe4facdf	-0.20280789
232	0x3d9117f7	0.07084649
233	0x3e5ce3df	0.21571301
234	0xbd44e51e	-0.048070066
235	0x3e27b12e	0.16376182
236	0xbe120753	-0.14260606
237	0x3e0aa8ce	0.13540956
238	0xbcaec7e2	-0.021335546
239	0x3e08a5a4	0.13344437
240	0x3e6f97ba	0.23397723
241	0x3ed155fa	0.40885907
242	0xbbd02a52	-0.006352701
243	0xbc642db5	-0.013926913
244	0xbde47f24	-0.11157063
245	0xbe0158e7	-0.1263157
246	0x3cd15ba1	0.025556387
247	0xbd734935	-0.059395988
248	0x3e3c2b92	0.18375996
249	0x3ec3d3f6	0.3824765
250	0xbdaedbd7	-0.08538025
251	0x3eded1ae	0.43519348
252	0xbcdfcf6b	-0.027320584
253	0xbf99e5dc	-1.2023273
254	0xbd40c1a1	-0.04705966
255	0x3ed28522	0.41117197

fcs1.bias f4 [200]
0	0xbf0b5c94	-0.5443814
1	0xbf41d943	-0.7572214
2	0xbe8cd950	-0.27509546
3	0x3f86f70f	1.0544146
4	0xbdd14d91	-0.10219873
5	0xbf0a7a36	-0.5409273
6	0xbf5ba5b7	-0.85799736
7	0x3efc46b4	0.49272692
8	0xbd8172d3	-0.06320729
9	0xbefd3092	-0.4945112
10	0xbf2a02b1	-0.66410357
11	0xbeb1d075	-0.34729353
12	0xbf2814a9	-0.65656525
13	0xbeb4b46e	-0.35293907
14	0xbdc9f494	-0.09861103
15	0xbeea314f	-0.45740744
16	0x3e8bcc52	0.27304322
17	0x3dc1c6e6	0.09461765
18	0xbf92168b	-1.141313
19	0xbf278514	-0.65437436
20	0xbbb8d3fa	-0.005640504
21	0xbf091d2e	-0.5356015
22	0x3e04796b	0.12936942
23	0xbe29bdaf	-0.16576265
24	0xbe6a4e59	-0.2288145
25	0xc0044927	-2.0669649
26	0xbe1915a8	-0.14949667
27	0x3c8ac03b	0.016937366
28	0xbf6081f9	-0.8769832
29	0x3f2dd4de	0.67902935
30	0xbda2d9e5	-0.07951716
31	0xbf33af67	-0.7018952
32	0xbf1c77d6	-0.61120355
33	0x3b22eb01	0.0024859312
34	0xbefc4a77	-0.49275562
35	0xbf5e48cd	-0.86829835
36	0xbecd2c17	-0.400727
37	0xbf4d6cb9	-0.8024402
38	0xbf7ddd1b	-0.99165505
39	0xbf7d9181	-0.99050146
40	0xbf80072d	-1.000219
41	0xbf02608d	-0.50928575
42	0xbe961f9a	-0.29320985
43	0xbf2f50b6	-0.6848253
44	0xbe421225	-0.18952234
45	0xbf25143b	-0.64483994
46	0xbed34933	-0.41266784
47	0xbf525bf4	-0.8217156
48	0xbf0fc27d	-0.5615614
49	0xbe22c38e	-0.1589491
50	0xbe55eebf	-0.20891856
51	0xbcabc8b1	-0.02096972
52	0x3f072508	0.5279088
53	0x3e663a79	0.22483243
54	0x3e338fb3	0.17535286
55	0xbf52c152	-0.82326233
56	0xbf2fb2e3	-0.68632334
57	0xbec4cb07	-0.38436148
58	0xbf30ce89	-0.6906515
59	0xbf45d072	-0.7727119
60	0x3f45bd95	0.77242404
61	0x3f1a8b03	0.60368365
62	0xbd48fc54	-0.049068764
63	0xbf03c3b5	-0.514705
64	0xbde4301b	-0.11141988
65	0xbe1fd22f	-0.15607522
66	0xbf35a33b	-0.70952195
67	0xbe52ca87	-0.2058507
68	0x3c0e4c48	0.008685179
69	0x3ca96611	0.020678552
70	0x3e73b52e	0.23799583
71	0xbf17230c	-0.5903785
72	0xbf09b6ba	-0.53794444
73	0xbe762245	-0.2403651
74	0x3e7e31b5	0.24823649
75	0xbea6f121	-0.32605842
76	0xbf6d2b8a	-0.9264456
77	0xbef73fb1	-0.4829078
78	0xbf0fcdf6	-0.56173646
79	0xbfaad1b5	-1.3345248
80	0xbec78be7	-0.38973925
81	0x3d2f9a2b	0.042871635
82	0xbf81a528	-1.0128527
83	0xbfd97814	-1.698977
84	0xbf03babc	-0.5145681
85	0xbeead437	-0.45865032
86	0xbddb82fa	-0.10718341
87	0xbebd5f1b	-0.36986622
88	0xbebde49c	-0.37088478
89	0x3ec9849f	0.39358994
90	0xbf82a91e	-1.020786
91	0xbe923c61	-0.2856169
92	0x3eff81e5	0.4990379
93	0xbf67e7a2	-0.9058782
94	0xbf020c92	-0.5080043
95	0xbe9e02be	-0.30861467
96	0xbef587f3	-0.47955284
97	0xbd82411f	-0.06360077
98	0x3d99fcf8	0.07518953
99	0xbf00ce48	-0.5031476
100	0xbf114aaf	-0.56754583
101	0xbeaf4043	-0.34228715
102	0xbea4c1fe	-0.32179254
103	0xbe8f32af	-0.27968356
104	0x3cf28f5a	0.029609371
105	0xbf579f89	-0.84227806
106	0xbf426c35	-0.7594636
107	0xbf3cac1a	-0.73700106
108	0xbee64c14	-0.44979918
109	0xbe4d0494	-0.20021278
110	0xbe93ce2e	-0.2886824
111	0xbd4402a2	-0.047854073
112	0x3eca1c6f	0.39474818
113	0xbf041404	-0.5159304
114	0x3f7962d1	0.97416407
115	0x3e0b7dba	0.1362218
116	0xbed9b773	-0.42522773
117	0xbf4d4e6f	-0.80197805
118	0x3e68854a	0.22707096
119	0xbedfe615	-0.43730226
120	0x3f735d1b	0.9506394
121	0xbf1a1812	-0.6019298
122	0xbf43d145	-0.76491195
123	0xbf2b6da0	-0.6696415
124	0xbea7ff9f	-0.3281221
125	0xbe7d81c8	-0.24756539
126	0xbe6dc615	-0.23220094
127	0xbf201bc4	-0.62542367
128	0xbf2b3dae	-0.6689099
129	0x3f864607	1.0490121
130	0x3e5d42c9	0.21607508
131	0xbe7ba4b0	-0.24574542
132	0xbd162265	-0.036653895
133	0xbf8fe9ee	-1.1243265
134	0xbedc4395	-0.4302031
135	0xbc0bb630	-0.008527324
136	0xbdc4079f	-0.09571766
137	0x3e936e6a	0.28795177
138	0xbe8fd61e	-0.28093046
139	0xbc3b5f1d	-0.011436251
140	0xbf44e416	-0.7691053
141	0xbe211ceb	-0.15733688
142	0x3e840958	0.2578838
143	0xbf37678a	-0.71642363
144	0xbf2603a7	-0.64849323
145	0xbf2486ea	-0.6426836
146	0xbe9a7a98	-0.30171657
147	0xbf8117fd	-1.0085446
148	0xbf2bb90a	-0.6707922
149	0x3e6893ab	0.22712581
150	0xbf3b26aa	-0.7310587
151	0x3d832869	0.06404192
152	0xbf2c7f87	-0.6738209
153	0xbe96c519	-0.2944725
154	0xbedc9e13	-0.4308935
155	0xbedbcff4	-0.42932093
156	0xbf8c2160	-1.0947685
157	0xbea73abf	-0.32662007
158	0x3f3bdcdc	0.7338388
159	0x3f0872cd	0.5330017
160	0x3f375ca8	0.7162576
161	0xbf69dd3c	-0.913532
162	0xbf054f23	-0.5207388
163	0xbe501469	-0.20320286
164	0xbf42d7c0	-0.7611046
165	0x3c338dbb	0.010959084
166	0xbf5927ec	-0.8482654
167	0xbedb94a1	-0.42886832
168	0xbebd4b05	-0.36971298
169	0xbea69c40	-0.32541084
170	0xbf0100d4	-0.5039189
171	0xbf80bfe1	-1.0058557
172	0x3e6f50db	0.23370688
173	0xbeac94f5	-0.33707395
174	0xbf52b46e	-0.82306564
175	0xbe935ed4	-0.28783286
176	0xbed89de9	-0.42307976
177	0xbc1709f9	-0.009218686
178	0xbfa991cb	-1.3247617
179	0xbf4ff448	-0.8123212
180	0xbf54b53e	-0.83089054
181	0xbf25e121	-0.64796644
182	0xbe2e580c	-0.17025775
183	0xbef8e6c5	-0.48613563
184	0xbe4e872f	-0.20168756
185	0xbbc827ed	-0.006108275
186	0xbf83f60e	-1.0309465
187	0xbe5ba373	-0.2144907
188	0x3e8e2ff9	0.27770975
189	0x3e732884	0.23745924
190	0xbf0e00f4	-0.55470204
191	0xbf15fd65	-0.58589774
192	0xbf72bd97	-0.9482054
193	0xbea21b60	-0.3166151
194	0xbf16635d	-0.58745366
195	0x3d2dcb10	0.042429984
196	0xbe29508c	-0.16534632
197	0xbf34d360	-0.7063503
198	0xbdb90e08	-0.090358794
199	0xbefb30b6	-0.490606

fc2.weight f4 [150, 200]
0	0xbe2dd3d5	-0.16975339
1	0xbeb7c766	-0.35894316
2	0xbe0505e1	-0.12990524
3	0x3dabd86d	0.08390889
4	0xbd25ee88	-0.040510684
5	0xbed7c5ec	-0.4214319
6	0xbe500fd3	-0.20318536
7	0x3ec90034	0.39257967
8	0xbdcdf66a	-0.100567654
9	0xbe986129	-0.29761627
10	0xbda9f99a	-0.08299561
11	0xbe00fab3	-0.12595634
12	0xbeb11c1a	-0.34591752
13	0xbd0e3bd3	-0.03472502
14	0xbdbb5e74	-0.09148875
15	0x3e42a79d	0.19009252
16	0xbe1a7875	-0.15085013
17	0xbe878ad2	-0.264731
18	0xbdb9286c	-0.09040913
19	0xbe43297f	-0.19058798
20	0xbf163c5d	-0.5868586
21	0x3e3ac8f3	0.18240719
22	0x3e52df79	0.2059306
23	0xbf3a6b98	-0.72820425
24	0x3d5096d6	0.0509251
25	0xbe4eb14a	-0.20184818
26	0xbe40657e	-0.18788716
27	0xbe891a2a	-0.26777774
28	0xbe34416c	-0.17603081
29	0xbd914bbc	-0.07094523
30	0xbd67ad94	-0.05656202
31	0xbe7d859b	-0.24757998
32	0xbf6a3ed0	-0.91502094
33	0x3d1d66f1	0.03842825
34	0x3eb31287	0.34975073
35	0x3e5a39d1	0.21311118
36	0xbebce609	-0.36894253
37	0xbd19bb83	-0.03753234
38	0xbe07cb9c	-0.13261265
39	0xbeaef5fc	-0.34172046
40	0x3dd62cc2	0.104577556
41	0xbeeacd1a	-0.45859605
42	0xbe4741ef	-0.19458745
43	0xbe140959	-0.14456691
44	0x3e2f50ee	0.17120716
45	0xbe5ff289	-0.21869864
46	0xbea5abb8	-0.32357574
47	0x3cd4a8a3	0.025959319
48	0xbea79e63	-0.32738027
49	0xbe6d767b	-0.23189728
50	0xbeb544de	-0.35404104
51	0x3dfbd9a1	0.12297369
52	0xbd07f864	-0.033195868
53	0x3e660b7f	0.22465323
54	0xbde67834	-0.11253396
55	0xbe28b2da	-0.16474476
56	0xbe50f969	-0.20407642
57	0xbeead108	-0.45862603
58	0xbc62b684	-0.01383746
59	0xbe2f6059	-0.17126597
60	0xbe09a964	-0.13443524
61	0x3d9f04d2	0.07764591
62	0xbeb31a82	-0.3498116
63	0xbdc1785b	-0.09446784
64	0xbc75b1de	-0.01499602
65	0xbc9fb41d	-0.019495064
66	0xbed98d25	-0.42490497
67	0xbebc401c	-0.36767662
68	0x3e2978b3	0.1654995
69	0xbe685bd2	-0.22691277
70	0xbe9aa318	-0.30202556
71	0xbdd9cb73	-0.10634508
72	0xbeb7b5fc	-0.3588103
73	0x3d370326	0.044680737
74	0x3d770ef2	0.060316987
75	0xbd130d1a	-0.035901166
76	0xbe2eb150	-0.17059827
77	0xbe4979f9	-0.19675435
78	0xbe5d4ae2	-0.21610597
79	0xbeaaebc9	-0.33383015
80	0xbe91ad42	-0.28452498
81	0xbdfc6581	-0.12324048
82	0x389728e8	7.2078605e-05
83	0x3e129fcd	0.14318772
84	0xbd433496	-0.04765757
85	0x3e2d1bad	0.16905089
86	0xbda92d17	-0.08260553
87	0xbf289b13	-0.65861624
88	0xbe607b7b	-0.21922104
89	0xbec23e92	-0.37938362
90	0xbe344ae2	-0.1760669
91	0xbe140169	-0.14453663
92	0xbe588c13	-0.21147184
93	0xbdcce29a	-0.10004158
94	0xbe15b805	-0.14620979
95	0xbce8faf6	-0.02843998
96	0xbe8c9a72	-0.27461582
97	0xbecb6cfe	-0.39731592
98	0xbe45a2d8	-0.19300401
99	0x3e2e29bf	0.17008112
100	0x3de0035d	0.109381415
101	0x3d40e2c6	0.047091268
102	0xbe0c426c	-0.13697213
103	0xbf0ba7d1	-0.5455294
104	0xbeaad842	-0.33368117
105	0x3d7494e9	0.059712324
106	0xbd167527	-0.03673282
107	0xbe01adcd	-0.12663956
108	0x3d6e36a4	0.058157578
109	0x3cf414d7	0.029795093
110	0x3df408b7	0.11915725
111	0x3d05a4f1	0.032628004
112	0xbe8f5c6d	-0.28000203
113	0x3df234e5	0.11826495
114	0x3d852b0a	0.0650235
115	0xbe0a72be	-0.13520333
116	0xbef7c5fc	-0.48393238
117	0x3e2d4d71	0.16924073
118	0x3dc4d602	0.09611131
119	0xbe9cac8d	-0.30600396
120	0x3e02603a	0.1273202
121	0xbe102e2a	-0.1408011
122	0xbd0c3dfc	-0.0342388
123	0x3d47bdf6	0.048765145
124	0xbcc1ea31	-0.023671241
125	0xbdff5375	-0.1246709
126	0xbdee3d67	-0.11632805
127	0xbe53b39a	-0.20673981
128	0x3a81d2ac	0.0009904704
129	0x3d520151	0.051270787
130	0xbde8fd5d	-0.1137645
131	0xbeb86aa1	-0.3601885
132	0xbe6ff277	-0.23432337
133	0xbe823bc5	-0.25436226
134	0xbc8ef0fe	-0.017448898
135	0xbe3efe96	-0.18651804
136	0x3d5be545	0.053685445
137	0xbeaaa7a5	-0.33331028
138	0x3d398697	0.04529437
139	0xbdbe897c	-0.09303567
140	0xbee12971	-0.4397693
141	0xbe2a3cf5	-0.16624816
142	0xbf098afd	-0.53727704
143	0xbdc13ae8	-0.094350636
144	0x3dd5b8f1	0.104356654
145	0xbd85f220	-0.06540322
146	0xbe0ce771	-0.13760163
147	0x3d21a7a6	0.039466523
148	0xbd78c8f1	-0.060738508
149	0xbe01bf46	-0.12670621
150	0xbf348ff2	-0.70532143
151	0xbe11683d	-0.1419992
152	0xbdd45bfb	-0.103691064
153	0xbdc56064	-0.09637526
154	0xbf05674b	-0.5211074
155	0xbe2b8a13	-0.1675189
156	0xbe69265b	-0.22768538
157	0xbeac836b	-0.33694014
158	0xbf0023a3	-0.5005438
159	0xbc9edb78	-0.01939176
160	0xbebbb2bb	-0.36659798
161	0xbe81fe6c	-0.2538942
162	0xbe9066ae	-0.28203338
163	0xbd5a2edf	-0.053267356
164	0xbcade912	-0.0212293
165	0xbef9556a	-0.48697978
166	0xbebc2ea4	-0.36754334
167	0xbe3188f1	-0.17337395
168	0xbe885eea	-0.26634914
169	0xbe2ddcb4	-0.16978723
170	0xbdb09bcb	-0.08623465
171	0xbe80bed1	-0.2514558
172	0x3dfaf0b1	0.122529395
173	0xbebb8218	-0.3662269
174	0xbec45eb3	-0.383535
175	0xbe64d560	-0.22347021
176	0xbe963a59	-0.2934139
177	0xbd1111e2	-0.035417445
178	0xbc3bdae3	-0.011465761
179	0x3ecd21ff	0.40065
180	0xbee4cc44	-0.44687092
181	0xbe7b6c88	-0.2455312
182	0xbd32c6fb	-0.043646794
183	0xbd7587b6	-0.059943877
184	0xbcce71c4	-0.025200732
185	0xbe8c5123	-0.27405652
186	0x3e355842	0.17709449
187	0xbf163edb	-0.5868966
188	0xbc3fa1aa	-0.011696259
189	0xbd8cfde1	-0.06884361
190	0x3d8d6d8a	0.069056585
191	0xbdbc3c2e	-0.09191166
192	0xbe8fbb1f	-0.2807245
193	0x3dad0651	0.084484704
194	0xbe1e29dd	-0.15445657
195	0x3bd3f638	0.0064685605
196	0xbdc6a2f6	-0.09699051
197	0xbdd3a449	-0.10334069
198	0xbdafd8f0	-0.085862994
199	0xbeb86303	-0.3601304
200	0xbbe557ee	-0.0069990074
201	0x3d3ea30e	0.04654222
202	0x3d3081cf	0.043092545
203	0x3e836a03	0.25666818
204	0x3d958e47	0.07302528
205	0xbcc921cf	-0.024552254
206	0xbc1f2514	-0.00971343
207	0x3d9fb0a4	0.077973634
208	0x3c95ee5f	0.01830214
209	0xbdf6b58a	-0.120463446
210	0x3dcaf99b	0.0991089
211	0x3d8d0a50	0.068867326
212	0xbd206c44	-0.03916575
213	0xbc2b607d	-0.010460016
214	0x3c0fc0be	0.008773981
215	0x3dfc573b	0.123213254
216	0x3dc47d07	0.095941596
217	0x3df9c259	0.12195272
218	0xbd47b8bd	-0.048760165
219	0xbe1ccc02	-0.15312198
220	0x3dde9ebc	0.1087012
221	0xbda51913	-0.08061423
222	0xbc9faa39	-0.019490348
223	0x3d36cd8a	0.04462961
224	0x3da60a72	0.08107461
225	0xbf6b61fe	-0.919464
226	0x3c85f1dc	0.01635068
227	0xbccc35d5	-0.024928013
228	0xbda2973b	-0.07939001
229	0x3de2b342	0.11069347
230	0x3bcf351a	0.006323469
231	0xbd04e95a	-0.032449104
232	0xbd1b344b	-0.037891667
233	0xbd1c4aa3	-0.038157117
234	0x3c95d2f6	0.01828907
235	0xbe2a0204	-0.16602331
236	0xbdba5d56	-0.09099834
237	0xbd92f737	-0.07176059
238	0xbda4e3f6	-0.080512926
239	0xbd56b36f	-0.052417215
240	0x3d855c88	0.065117896
241	0xbb9f2562	-0.0048567513
242	0x3d8bb694	0.068219334
243	0xbdc4c115	-0.0960714
244	0x3d3c2600	0.045934677
245	0x3da64a5e	0.08119653
246	0x3c82cae0	0.015965879
247	0x3c81bc8d	0.015836978
248	0x3de343b3	0.11096897
249	0x3db38951	0.087664254
250	0x3e83533e	0.25649446
251	0x3d9651fc	0.07339856
252	0x3e54cd91	0.20781542
253	0x3d699c95	0.057034094
254	0xbdde13e0	-0.108436346
255	0xbdbc1c4a	-0.09185083

fc2.bias f4 [150]
0	0xbe5e7b92	-0.21726826
1	0x3f28f350	0.65996265
2	0x3e9e60cf	0.30933234
3	0xbda8be44	-0.08239415
4	0xbf367d90	-0.71285343
5	0xbe2c1a20	-0.16806841
6	0x3ec1079a	0.37701112
7	0xbdd98a5a	-0.106220916
8	0xbe2ae398	-0.16688383
9	0xbd028b8f	-0.031871375
10	0xbe9a71ac	-0.3016485
11	0xbdca3a1c	-0.09874365
12	0xbe1bc91e	-0.15213439
13	0x3dad5106	0.084627196
14	0x3e57272c	0.21011037
15	0xbe0f2d73	-0.13982181
16	0xbe472ff7	-0.19451891
17	0x3e0bf551	0.136678
18	0xbd585cce	-0.05282288
19	0x3d5b92f0	0.053606927
20	0xbe278393	-0.16358785
21	0xbe5da3a6	-0.21644458
22	0xbe02d0ee	-0.12775013
23	0xbea2dc27	-0.31808588
24	0xbe28f90c	-0.16501254
25	0xbe1cb81e	-0.1530461
26	0xbdaab8c8	-0.083360255
27	0xbe43497b	-0.19071
28	0xbdd206f6	-0.10255234
29	0xbddce820	-0.10786462
30	0xbdfcd8ab	-0.12346014
31	0xbe35e783	-0.17764096
32	0xbdd61036	-0.10452311
33	0xbdd9fda2	-0.1064408
34	0xbc2e6cc0	-0.010646045
35	0xbdabaae2	-0.08382203
36	0xbdc10aef	-0.094259135
37	0x3de61a7c	0.1123552
38	0xbe0a753a	-0.13521281
39	0xbed656ab	-0.41862997
40	0xbdbf4564	-0.09339407
41	0xbdb40d13	-0.08791556
42	0xbd83a817	-0.06428545
43	0xbda9d1fa	-0.08292003
44	0xbdf3cfdd	-0.11904881
45	0xbd2747dd	-0.04084002
46	0xbde36b9a	-0.11104508
47	0xbe7bd8e3	-0.24594454
48	0xbe47c6ed	-0.19509478
49	0xbe3db138	-0.18524635
50	0xbe02f2a7	-0.12787877
51	0xbdccedf3	-0.10006323
52	0x3ecd30b2	0.40076214
53	0x3f6b4362	0.91899693
54	0xbe52ad80	-0.20573997
55	0xbdab23b3	-0.083564185
56	0xbd2a8b07	-0.041636493
57	0xbed150d0	-0.40881968
58	0xbdeab3ae	-0.114600524
59	0xbd06aca9	-0.032879505
60	0xbe9280a0	-0.28613758
61	0xbd9832e3	-0.07431581
62	0x3e9ee1fc	0.31031787
63	0xbdef6fa2	-0.11691214
64	0xbf9a25cb	-1.2042783
65	0xbe1a5d18	-0.15074575
66	0xbd7d2963	-0.061807048
67	0xbd77d82b	-0.06050889
68	0xbe8a1856	-0.26971692
69	0xbdf0ab28	-0.117513955
70	0xbea5ce32	-0.32383877
71	0xbdf49eb3	-0.11944332
72	0xbe100499	-0.14064254
73	0xbe7643f9	-0.24049367
74	0xbe0003e8	-0.1250149
75	0xbde2b735	-0.110701
76	0xbee82bf2	-0.45346028
77	0xbe54cf59	-0.20782222
78	0x3f0e1192	0.5549556
79	0xbe142c79	-0.1447009
80	0xbdf33fa8	-0.11877376
81	0x3de77f4f	0.11303579
82	0xbe3198de	-0.1734347
83	0x3dfcb7b3	0.12339725
84	0xbdda87f3	-0.106704615
85	0x3ecc0baa	0.3985265
86	0xbdb5d9dd	-0.08879445
87	0xbd50003c	-0.050781474
88	0xbe269c22	-0.16270497
89	0xbd6b3364	-0.057422057
90	0x3b338ee0	0.0027398393
91	0xbda84aea	-0.08217414
92	0xbf3f21ae	-0.74660766
93	0xbe183273	-0.14862995
94	0xbd8b8549	-0.068125315
95	0xbe0dca13	-0.13846616
96	0x3f3236d1	0.69614893
97	0xbde0e313	-0.10980811
98	0xbe177e3a	-0.14794245
99	0xbe09cd80	-0.13457298
100	0xbeb45046	-0.35217494
101	0x3b06efc4	0.0020589689
102	0xbe8d5fc1	-0.27612117
103	0xbda167c6	-0.07881121
104	0xbde86a86	-0.11348443
105	0xbdcdb955	-0.10045115
106	0xbe90e219	-0.282975
107	0xbe9b3503	-0.30313882
108	0xbe3cade1	-0.18425705
109	0xbdd9e4c9	-0.106393404
110	0xbeaf88d2	-0.34284073
111	0xbe0ba837	-0.13638388
112	0xbb4d2d06	-0.0031307354
113	0xbf0c6850	-0.5484667
114	0xbda2ae83	-0.07943442
115	0xbe1ae5c1	-0.15126707
116	0xbde91daa	-0.11382611
117	0xbd4d58ef	-0.05013364
118	0xbdd8e65f	-0.10590815
119	0xbe258bcd	-0.16166611
120	0x3f0f4332	0.55961907
121	0xbe3760c2	-0.17908004
122	0x3efa0c67	0.48837587
123	0xbe2b5c32	-0.16734388
124	0xbe32102b	-0.1738898
125	0xbe4da445	-0.20082195
126	0xbe729fb1	-0.2369373
127	0xbe1e9caf	-0.15489458
128	0xbdd4fd54	-0.10399881
129	0xbe29f11b	-0.1659588
130	0xbe497d24	-0.19676644
131	0xbdeac23f	-0.11462831
132	0xbdf56a32	-0.11983146
133	0xbe23fe65	-0.16015013
134	0x3ee84236	0.45363015
135	0xbdda0424	-0.10645321
136	0xbe5761c3	-0.21033387
137	0xbdb9c6a8	-0.09071094
138	0xbf6b425f	-0.9189815
139	0x3f555a0d	0.8334053
140	0xbe6f4626	-0.23366603
141	0xbd89121d	-0.06692908
142	0xbd13709e	-0.035996072
143	0xbddb3312	-0.107031
144	0x3e0b5b4e	0.13609049
145	0xbf0efbe3	-0.558531
146	0xbdf4b8e5	-0.11949328
147	0xbc978531	-0.018496128
148	0xbd6c1d49	-0.057645116
149	0xbed38d4d	-0.4131874

fc3.weight f4 [1, 150]
0	0xbc722853	-0.014780122
1	0xbc034079	-0.008010977
2	0x3c2c50a2	0.010517271
3	0xbac3d218	-0.0014939932
4	0xbc4ee575	-0.012627949
5	0xbb31ff16	-0.00271601
6	0x3beafb0e	0.0071710413
7	0xbc8a52f2	-0.016885255
8	0xbc3cceb9	-0.011523896
9	0xbc059c4f	-0.008154943
10	0xba916a8b	-0.0011094374
11	0x3cd48ff3	0.025947547
12	0x3d319a53	0.043360066
13	0xbbe14b03	-0.006875397
14	0x3c0f54da	0.0087482575
15	0xbc42a541	-0.01188022
16	0x3cd796ed	0.026317084
17	0x3c5cfaae	0.013487501
18	0xbc468c79	-0.012118452
19	0xbc3968f5	-0.011316528
20	0x3b6bb874	0.0035968097
21	0x3b3ab1f8	0.0028487425
22	0x3b93eeaa	0.004514535
23	0xbd28d44c	-0.041218087
24	0xbbb03297	-0.0053771245
25	0x3c7ebfed	0.015548688
26	0xbb8ee7a5	-0.0043611103
27	0x3cfe9f16	0.031081717
28	0xbcc00bd5	-0.023443142
29	0xbca9d263	-0.020730203
30	0xbbf6a567	-0.0075270417
31	0x3b177e22	0.0023115952
32	0x3c8796f8	0.01655148
33	0x3ca2f1e6	0.019890737
34	0xbc08d18e	-0.008350743
35	0xbcac48ee	-0.02103087
36	0x3cd5cf54	0.026099838
37	0xbbcf2104	-0.0063210744
38	0xbc159478	-0.009129636
39	0xbab16e77	-0.0013536949
40	0xbc76298c	-0.015024554
41	0xbc68c633	-0.014207411
42	0x3b94341a	0.0045228126
43	0xba9d5c85	-0.0012005722
44	0xbce2e146	-0.02769531
45	0xbb9df9e6	-0.00482105
46	0xbceb6847	-0.028736247
47	0x3c4f77f1	0.012662874
48	0x3ce16c14	0.027517356
49	0x3ca7d6fc	0.020488255
50	0x3c83a8a5	0.016071627
51	0xbcc2ff1e	-0.02380329
52	0x3c0100a1	0.007873685
53	0x3c3b32b7	0.011425666
54	0xbc84c32a	-0.016206343
55	0x3a349309	0.0006888365
56	0xbcf238fb	-0.029568186
57	0xbc0c7dfd	-0.00857496
58	0xbacc4baf	-0.001558652
59	0xbbdd9b71	-0.006762915
60	0xba5138ab	-0.00079811615
61	0x3c9bd4d0	0.019022375
62	0x3c5aeee8	0.013362624
63	0x3cd85555	0.026407877
64	0x3bbdc466	0.005791235
65	0xbc68cd74	-0.01420914
66	0xbcca48f9	-0.024693
67	0x3c752f24	0.0149648525
68	0xbc08a02d	-0.00833897
69	0x3c999c7e	0.01875138
70	0xbc8de0e9	-0.01731916
71	0xbc9ef0cc	-0.01940193
72	0xbb78b481	-0.0037949386
73	0xbcc7f368	-0.024408057
74	0x3cf97f2f	0.030456154
75	0xbb55297b	-0.0032525945
76	0x3c8a1088	0.016853586
77	0x3cb01816	0.02149586
78	0x3c806f9f	0.015678225
79	0x39c4eed5	0.00037561977
80	0xbc5241d3	-0.0128330765
81	0x3c89a399	0.016801642
82	0x3ce93764	0.028468795
83	0x3dd81c5c	0.10552284
84	0x3bd796c7	0.0065792534
85	0xbc321d77	-0.010871283
86	0xbc4ee1cf	-0.012627079
87	0x3c9bd517	0.019022508
88	0x3cb7909b	0.02240782
89	0xbbf7c6b6	-0.00756153
90	0xbbb666eb	-0.005566468
91	0xbbd203db	-0.006409151
92	0xbc83b016	-0.016075175
93	0xbc98b9c6	-0.018643271
94	0x3d18d903	0.037316334
95	0xbb248053	-0.0025100901
96	0x3c357007	0.011074073
97	0x3bc4e244	0.0060084183
98	0xbb4e1dcc	-0.0031450866
99	0xbc5686d9	-0.013093674
100	0xbcc5d5b5	-0.024149755
101	0xbc1b4834	-0.009477664
102	0x3b89e755	0.004208485
103	0x3c2a3210	0.010387912
104	0x3c3f0e85	0.011661177
105	0x3ce0f03e	0.027458306
106	0xbcc26179	-0.02372812
107	0x3c4436c2	0.011975946
108	0xbb2a6325	-0.0025999036
109	0xbbb10571	-0.00540226
110	0xbb728fff	-0.0037012098
111	0x3cb77777	0.022395832
112	0xbca26a0c	-0.019825958
113	0x3ab167ba	0.0013534941
114	0xbc773378	-0.015087955
115	0x3ca95688	0.020671144
116	0xb9a6d1b9	-0.00031818243
117	0xbc7d5eff	-0.015464543
118	0xbbb33ebe	-0.005470126
119	0xbbe6ebfa	-0.0070471736
120	0x3c4210a4	0.011844788
121	0x3ca2d103	0.019875055
122	0x3c01db6f	0.007925852
123	0x3c7e41b5	0.015518595
124	0x3aee5db6	0.0018185887
125	0x3caf034e	0.02136388
126	0xbcad672f	-0.021167366
127	0xbcc3d2db	-0.023904255
128	0x3cc406ba	0.023928989
129	0x3ca7e005	0.020492563
130	0xbca3993d	-0.01997053
131	0x3aa649b8	0.0012686765
132	0xbc9b69d5	-0.018971363
133	0xbc924c80	-0.017858744
134	0x3caa5adb	0.020795276
135	0x3ccfd4a2	0.025369946
136	0x3ca5620d	0.020188356
137	0x3c8c45c9	0.01712312
138	0xbca1a144	-0.019730218
139	0x3be0f7dc	0.0068654846
140	0xbc7f9fe6	-0.015602088
141	0xbd62136c	-0.055194303
142	0x3c33eb55	0.0109814005
143	0x3b563556	0.00326856
144	0xbc5e5363	-0.013569686
145	0xbcb8a365	-0.02253885
146	0xbc4ab2ec	-0.01237176
147	0x3c50b629	0.012738743
148	0x3c3f0936	0.011659911
149	0x3b4473d1	0.0029976259
