p2_continuous-control/checkpoint_critic.pth (torch_old, 174535 bytes, 9 tensors)

fcs1.weight f4 [256, 33]
0	0xbb3fda33	-0.0029274344
1	0xbd374ebb	-0.044752818
2	0x3d8cc4df	0.06873488
3	0xbe901fbc	-0.2814921
4	0x3dc40321	0.09570909
5	0xbe9592f1	-0.2921367
6	0xbd7f9842	-0.062401064
7	0x3de04d03	0.10952189
8	0x3b3a0662	0.0028385152
9	0xbe52e0a1	-0.20593502
10	0x3da93bf0	0.08263385
11	0x3d009e05	0.0314007
12	0x3d6b3222	0.057420857
13	0x3e01708f	0.12640594
14	0x3dfba728	0.12287742
15	0xbda2f94b	-0.07957705
16	0x3cf85bb6	0.030317169
17	0xbd8d829d	-0.06909678
18	0x3e13d574	0.14436895
19	0x3dd26052	0.10272278
20	0x3c9b77ba	0.018977989
21	0x3da0af46	0.07845931
22	0xbd2f766f	-0.042837556
23	0x3dd10881	0.102067
24	0x3d55c56e	0.052190237
25	0xbd4a7b08	-0.049433738
26	0xbcac5a3b	-0.021039119
27	0x3cea8a4b	0.028630396
28	0x3c680a26	0.014162576
29	0x3c0a8f90	0.0084570795
30	0x3be4fea8	0.006988365
31	0xbd256168	-0.040376097
32	0x3e875566	0.2643234
33	0x3d035f16	0.032073103
34	0xbea38b5c	-0.3194226
35	0x3d383c79	0.044979546
36	0xbd04bc22	-0.03240598
37	0xbccbe847	-0.024891032
38	0xbe828cf4	-0.25498164
39	0xbe800561	-0.25004104
40	0xbd9ccf3d	-0.07656715
41	0x3d3d919a	0.046281435
42	0xbc6f56ed	-0.014608127
43	0x3d9d19d2	0.076709405
44	0xbd1159ef	-0.035486158
45	0xbc181da6	-0.0092844125
46	0xbd1b6a84	-0.037943378
47	0x3e36f0f3	0.17865352
48	0xbb3bcd95	-0.0028656472
49	0x3d57b703	0.052664768
50	0x3e4adbe9	0.19810452
51	0xbe33f804	-0.17575079
52	0x3d1a1af9	0.03762338
53	0x3bf9df1e	0.0076254746
54	0x3cde08a3	0.027103728
55	0xbdb4a960	-0.08821368
56	0xbc82d9ba	-0.01597296
57	0xbb4d4905	-0.003132404
58	0x3b0f7b98	0.0021893736
59	0x3d006079	0.031342003
60	0x3d60b96d	0.054864336
61	0x3cff5901	0.03117037
62	0x3bc92ee0	0.006139621
63	0xbd4a437f	-0.049380776
64	0xbd59b03a	-0.05314658
65	0xbebbdce5	-0.36691967
66	0x3cd428dd	0.025898391
67	0x3c9af802	0.018917087
68	0x3df08c66	0.11745529
69	0xbcf2ff6e	-0.029662814
70	0x3dd44173	0.10364046
71	0x3dbe01aa	0.09277661
72	0x3ca953d9	0.020669864
73	0xbda42196	-0.080142185
74	0xbdf75c07	-0.120781
75	0xbd337a1c	-0.043817624
76	0x3da6fb37	0.08153384
77	0x3d1074cd	0.03526764
78	0x3d3c2f3b	0.04594348
79	0x3dc46328	0.09589225
80	0xbc9737fe	-0.018459316
81	0xbd8c05f5	-0.06837074
82	0xbd27c846	-0.04096248
83	0x3e3cf354	0.18452197
84	0xbe23a3d9	-0.15980472
85	0xbd43e801	-0.047828678
86	0xbc0bdeef	-0.008537038
87	0xbca13207	-0.019677175
88	0x3c51fa6c	0.012816053
89	0xbd882b98	-0.0664894
90	0x3cc2c258	0.023774311
91	0x3cd62498	0.026140496
92	0xbe5f2563	-0.21791606
93	0x3d198eef	0.037489828
94	0x3b84a390	0.0040478185
95	0xbcea37e0	-0.028591096
96	0x3b01e7ac	0.0019821925
97	0xbcb5a1e4	-0.022171922
98	0x3ec3e20c	0.38258398
99	0xbc562eed	-0.013072711
100	0x3d267acf	0.040644463
101	0xbddea438	-0.10871166
102	0xbc765099	-0.015033864
103	0x3e0f33e2	0.13984635
104	0xbde8956b	-0.11356624
105	0xbe976229	-0.29567078
106	0xbd3a7ad3	-0.04552729
107	0xbe005693	-0.12533025
108	0x3f017ff6	0.5058588
109	0xbc69fdd4	-0.014281709
110	0xbd8c0a96	-0.068379566
111	0xbbb54ab5	-0.0055325874
112	0xbdacc7a4	-0.08436516
113	0xbc7d6f29	-0.015468397
114	0x3dce4501	0.10071755
115	0x3dbc30f2	0.09189023
116	0xbccfbcfc	-0.02535867
117	0x3e56bdb4	0.20970803
118	0x3e30caa7	0.17264806
119	0x3c629284	0.013828877
120	0x3d05cf9e	0.032668702
121	0xbcd64711	-0.026156934
122	0xbba5f1dd	-0.0050642327
123	0xbd3cdced	-0.04610913
124	0x3cb5bcde	0.022184785
125	0x3daf91da	0.08572741
126	0xbd74855a	-0.059697486
127	0xbc8bcf81	-0.017066719
128	0x3ce74838	0.028232679
129	0xbd24db7c	-0.04024838
130	0x3d2e9a20	0.042627454
131	0xbe50ccbc	-0.203906
132	0xbe25151d	-0.16121335
133	0xbd06eb19	-0.03293905
134	0x3e1dcf31	0.15411068
135	0xbcd4eb4e	-0.025991108
136	0xbe912148	-0.28345704
137	0xbe91456f	-0.28373286
138	0x3e98e657	0.29863235
139	0xbc9c00ff	-0.019043444
140	0xbe5e2b5f	-0.21696232
141	0xbc1b1c3d	-0.009467182
142	0xbd8eb62e	-0.06968342
143	0x3c0f288a	0.008737693
144	0x3d04c19e	0.03241121
145	0x3db3d144	0.087801486
146	0xbd9daf88	-0.076994956
147	0xbdf8aebd	-0.12142704
148	0xbdd2f2fc	-0.10300252
149	0xbd0faf75	-0.03507944
150	0xbe25dd4d	-0.16197701
151	0xbe069f8b	-0.13146798
152	0x3dab0dab	0.08352216
153	0x3d9b582d	0.075851776
154	0xbd325ea2	-0.04354728
155	0xbc89f834	-0.016841985
156	0xbd5ba914	-0.053628042
157	0xbdd72e4a	-0.10506876
158	0x3cba376f	0.02273151
159	0x3b1c0899	0.0023808836
160	0x3ca20cc0	0.01978147
161	0xba9d8780	-0.0012018532
162	0x3d35aaff	0.044352528
163	0xbcde10d8	-0.027107641
164	0xbdf4f746	-0.11961226
165	0xbae2137f	-0.0017248242
166	0x3ddbd9c7	0.10734897
167	0x3da51359	0.08060331
168	0x3b1f8532	0.0024340865
169	0xbd0ca8b4	-0.034340575
170	0xbe082cd8	-0.13298357
171	0x3dc9dc5f	0.098564856
172	0x3d9c5770	0.07633865
173	0xbe6821f5	-0.22669204
174	0xbd38b3aa	-0.045093216
175	0xbd7a75c5	-0.06114747
176	0x3d107658	0.03526911
177	0x3d5d1026	0.05397048
178	0x3d837030	0.064178824
179	0xbdc4d698	-0.09611243
180	0xbdc532f4	-0.09628859
181	0xbe9fea30	-0.31233358
182	0xbdc2c6ff	-0.09510612
183	0x3ecca1fc	0.39967334
184	0x3c621ac9	0.013800331
185	0x3d0b112b	0.03395192
186	0x3d3f2286	0.046663783
187	0x3d06c8fa	0.03290651
188	0xbd20dfb6	-0.039275847
189	0xbbc3b7dc	-0.0059728455
190	0xba98e6c5	-0.0011665454
191	0xbd8b7413	-0.06809249
192	0x3c7c897f	0.015413641
193	0xbdfa2147	-0.122133784
194	0xbd25ffae	-0.04052704
195	0x3d527016	0.051376425
196	0x3c37d018	0.011219047
197	0xbd8ecda2	-0.06972815
198	0x3dd55d0a	0.104181364
199	0xbda3a762	-0.0799091
200	0x3e40ac09	0.18815626
201	0x3cb49641	0.022044303
202	0xbda7fa33	-0.082020186
203	0xbde75ac4	-0.11296609
204	0xbca65774	-0.020305373
205	0x3c9563f0	0.01823613
206	0xbcca91ca	-0.02472772
207	0xbe38b53f	-0.1803789
208	0x3d427c03	0.047481548
209	0xbd2342b4	-0.039858535
210	0xbcaadc0a	-0.020856876
211	0xbb7e4c63	-0.0038802854
212	0x3ce1bac7	0.027554883
213	0xbdc02fa8	-0.0938409
214	0xbe17553a	-0.14778605
215	0x3d1eb236	0.038744174
216	0xbdc26a95	-0.09492985
217	0xbe0f6fdb	-0.14007513
218	0x3d1134b1	0.03545064
219	0x3d539a1a	0.051660635
220	0x3d0ecb3c	0.03486179
221	0x3cb9bc60	0.022672832
222	0xbd321ab9	-0.043482516
223	0xbd3c363e	-0.045950167
224	0xbd74e012	-0.059784003
225	0xbc20b029	-0.009807625
226	0x3dc89296	0.09793584
227	0xbc9639d8	-0.018338129
228	0xbd20aeea	-0.03922931
229	0x3d2e663e	0.042577974
230	0xbeea0883	-0.4570962
231	0xbc7618e2	-0.015020581
232	0xbd3965d6	-0.045263134
233	0xbdb17980	-0.086657524
234	0xbd57b8a9	-0.05266634
235	0xbcc01930	-0.02344951
236	0xbd03337a	-0.032031514
237	0xbdef8cb4	-0.11696759
238	0x3d3acd0f	0.045605715
239	0xbd375e74	-0.044767812
240	0x3cb2e990	0.021839887
241	0x3d14edb0	0.03635949
242	0xbcd413be	-0.02588832
243	0x3d38d506	0.04512503
244	0xbd0fd3e6	-0.03511419
245	0x3b2c7992	0.0026317579
246	0x3d962b02	0.07332422
247	0x3c114cd4	0.008868415
248	0xbd934408	-0.0719071
249	0x3d4b69ca	0.049661435
250	0x3cc6bf21	0.02426106
251	0x3c4ffd5a	0.012694681
252	0x3c827e50	0.015929371
253	0xbde1214a	-0.109926775
254	0x3db35308	0.08756071
255	0x3d1decae	0.038555793

fcs1.bias f4 [256]
0	0x3e0a0049	0.13476671
1	0xbe29b310	-0.16572213
2	0xbd51d057	-0.05122408
3	0x3d84f6ec	0.06492409
4	0x3dee84fb	0.11646458
5	0x3dbc5338	0.0919556
6	0xbdc81476	-0.097695276
7	0x3d4dafda	0.050216533
8	0x3e197f28	0.14989913
9	0xbd65df63	-0.05612124
10	0xbd3d10a2	-0.04615844
11	0xbcb57c25	-0.022153923
12	0xbd1cf9d2	-0.038324185
13	0x3e1af116	0.1513103
14	0xbc8328ce	-0.016010668
15	0xbe218e73	-0.15776996
16	0x3cbe2627	0.023211552
17	0xbcc476a2	-0.02398235
18	0x3dcee9d8	0.10103196
19	0x3e1fa09c	0.15588611
20	0xbddc13b5	-0.10745946
21	0xbd8b35d6	-0.06797378
22	0xbc9341fc	-0.0179758
23	0x3e053281	0.13007547
24	0xbe302c44	-0.17204386
25	0x3deb2d3d	0.11483238
26	0x3e2046a2	0.15651944
27	0x3d19126d	0.037371088
28	0xbdbbf337	-0.09177249
29	0x3d2e7ef5	0.042601544
30	0xbde3676b	-0.1110371
31	0x3bdedd0d	0.0068012537
32	0x3e1a4fd2	0.15069512
33	0xbe0e88eb	-0.13919418
34	0x3e1de73f	0.15420245
35	0x3dad3773	0.08457842
36	0x3ddd0a55	0.10792986
37	0xbe02c5d5	-0.1277078
38	0xbd4541e0	-0.048158526
39	0x3e04fdf9	0.12987508
40	0xbe04daad	-0.12974043
41	0x3e1920ea	0.14953962
42	0xbd54e26e	-0.051973753
43	0xbe27bf70	-0.16381621
44	0x3e06084f	0.13089107
45	0x3d162b37	0.036662307
46	0x3c6d6676	0.014489761
47	0x3952c9bb	0.00020102311
48	0xbdb67fb7	-0.089110784
49	0xbd6656f3	-0.056235265
50	0x3d0c4dd0	0.034253895
51	0x3cda89f2	0.026677106
52	0x3d499607	0.049215343
53	0x3d5afbcf	0.0534628
54	0x3dd9090c	0.10597429
55	0x3de584be	0.11206959
56	0x3dbf8744	0.09351972
57	0x3cdefbe4	0.02721972
58	0xbdcdd884	-0.10051063
59	0x3e1562ad	0.14588423
60	0x3d414f67	0.047194865
61	0xbdc1892f	-0.09449994
62	0xbe14b12d	-0.14520712
63	0xbd8aa8fa	-0.06770511
64	0x3e314c90	0.17314363
65	0x3df3a3a1	0.11896444
66	0xbcb0cf34	-0.021583177
67	0xbde9b9fd	-0.114124276
68	0x3bf1d893	0.007380554
69	0xbd2922ff	-0.04129314
70	0x3d868ffb	0.06570431
71	0xbe206d21	-0.1566663
72	0x3d82dfb4	0.06390324
73	0x3db5429f	0.088505976
74	0x3e1c0af0	0.15238547
75	0x3e1b90dd	0.1519198
76	0xbd85d525	-0.06534795
77	0xbd50df06	-0.05099394
78	0x3e2e957f	0.17049216
79	0x3dd87ad1	0.105703
80	0xbc94a03f	-0.018142818
81	0xbd1a2c60	-0.037639976
82	0xbdb613e9	-0.08890516
83	0xbd93e451	-0.07221282
84	0x3d9b728e	0.07590209
85	0x3c76f566	0.015073156
86	0x3d3f066e	0.04663699
87	0x3c69a6a4	0.014260922
88	0x3e2af80b	0.16696183
89	0x3d27d6b0	0.040976226
90	0xbe2e73f0	-0.17036414
91	0x3d9908ba	0.074723676
92	0x3dce697a	0.10078712
93	0xbddad1eb	-0.1068457
94	0x3d98d843	0.07463124
95	0x3d5a6280	0.053316593
96	0xbc9e6c93	-0.019338882
97	0xbe255c3b	-0.16148464
98	0xbd76812e	-0.06018179
99	0x3d944451	0.07239593
100	0x3e17899b	0.14798586
101	0x3d9eedee	0.07760225
102	0xbdaa5e69	-0.083187886
103	0xbdd34797	-0.10316389
104	0xbdcc3c10	-0.099723935
105	0x3dfa0616	0.12208192
106	0xbd94d494	-0.072671086
107	0xbe016c05	-0.12638862
108	0xbddabd16	-0.106805965
109	0x3d32a133	0.043610763
110	0x3ca47b80	0.02007842
111	0x3e1e15ab	0.15437953
112	0x3b9393e1	0.0045037125
113	0xbce67f64	-0.028136916
114	0xbda7f544	-0.082010776
115	0xbdd5c32f	-0.10437619
116	0xbdb561c2	-0.088565364
117	0x3dfc1037	0.1230778
118	0xbcc21f16	-0.023696464
119	0xbdb5a286	-0.088688895
120	0xbcf7ed4b	-0.030264517
121	0xbe037975	-0.12839301
122	0xbdf0de9d	-0.1176121
123	0xbdb4cbf8	-0.088279665
124	0x3c9f353c	0.019434564
125	0xbdaebcac	-0.0853208
126	0xbe03bc8b	-0.12864892
127	0x3cb6ef9c	0.022331052
128	0x3ce8891a	0.028385688
129	0x3d8deead	0.069302894
130	0xbc061b5e	-0.008185236
131	0xbd872145	-0.065981425
132	0x3dce8f24	0.10085896
133	0xbc3326a8	-0.010934509
134	0x3dfb93ba	0.12284036
135	0xbdc8c2c3	-0.09802773
136	0x3cbfd53b	0.023417106
137	0x3e1bddc5	0.15221317
138	0xbcb8031c	-0.02246242
139	0xbd98fd8e	-0.07470237
140	0x3cd8f2a2	0.026482884
141	0xbdd3a674	-0.10334483
142	0x3d679e52	0.05654747
143	0xbdcbc48d	-0.099495985
144	0x3e26dc99	0.16295089
145	0x3e20b379	0.15693463
146	0x3c91e08a	0.017807264
147	0x3dab4dce	0.083644494
148	0xbd4c26d6	-0.049841724
149	0x3d1c9cba	0.038235404
150	0xbe2bfe9f	-0.16796349
151	0xba38507a	-0.0007031035
152	0x3d183d82	0.037168033
153	0x3d9f62ef	0.07782542
154	0x3de739ed	0.11290345
155	0xbc7beb26	-0.015375888
156	0xbe1c6f56	-0.15276846
157	0xbcf2d42e	-0.02964219
158	0x3c7ad80b	0.015310298
159	0x3dd13e2b	0.10216936
160	0xbe1d073c	-0.15334791
161	0x3e0be293	0.1366065
162	0x3e06f2f3	0.13178615
163	0x3da7c77a	0.08192344
164	0xbe2be6ef	-0.16787313
165	0xbc35ecb0	-0.011103794
166	0x3d75a098	0.059967607
167	0xbdcd3a68	-0.10020906
168	0x3d9642d0	0.07336962
169	0xbd813a14	-0.06309906
170	0xbe00bdfe	-0.12572476
171	0x3c9edc8b	0.019392272
172	0x3cafc054	0.021454014
173	0x3d4d8104	0.050171867
174	0xbd97b2e4	-0.074071676
175	0x3df0d7fd	0.117599465
176	0xbd348894	-0.044075564
177	0x3e29431e	0.1652951
178	0xbdcffc49	-0.101555414
179	0xbcb0969b	-0.02155619
180	0x3d69a4c3	0.057041895
181	0x3de12b1a	0.10994549
182	0x3e154a5f	0.14579152
183	0x3d43e05e	0.047821395
184	0xbdd4e178	-0.10394567
185	0x3da0d229	0.07852585
186	0xbd7b2d03	-0.061322223
187	0x3e23db86	0.1600171
188	0xbd14e48f	-0.036350783
189	0xbd0c6d94	-0.03428419
190	0xbce2c670	-0.027682513
191	0x3e00bd06	0.12572107
192	0xbd93912a	-0.07205422
193	0xbd99c0b0	-0.07507455
194	0xbe2a8e30	-0.16655803
195	0xbdf9e19e	-0.12201236
196	0x3e062059	0.13098277
197	0xbe1ec943	-0.15506463
198	0xbda4ad0d	-0.08040819
199	0x3bf6e772	0.0075349147
200	0xbdb757d0	-0.08952296
201	0xbc6df2bf	-0.014523207
202	0x3e03f77c	0.12887377
203	0x3ddb5536	0.10709612
204	0x3d0a6dba	0.03379605
205	0xbb2a5e93	-0.0025996312
206	0xbdf4c85f	-0.1195228
207	0x3d8b396d	0.067980625
208	0x3d9b9d29	0.07598335
209	0xbd7fc6e4	-0.062445536
210	0xbdbac8df	-0.09120344
211	0x378294fe	1.5566588e-05
212	0x3e0d1ef7	0.13781343
213	0xbdf392a8	-0.11893207
214	0x3daabb5a	0.08336516
215	0xbde37290	-0.111058354
216	0xbd1fd789	-0.03902391
217	0xbe2aeac9	-0.16691126
218	0x3e221e3f	0.1583185
219	0x3dbffc31	0.093742736
220	0xbc897e6f	-0.016783921
221	0xbe12c91b	-0.14334528
222	0xbe08342c	-0.13301152
223	0xbd4d767d	-0.050161827
224	0x3d145262	0.03621138
225	0x3e049cf1	0.12950493
226	0x3da57a96	0.08080022
227	0x3e23c024	0.15991265
228	0x3ba3d156	0.00499932
229	0x3e2b20af	0.16711687
230	0x3da06836	0.07832377
231	0x3e1cbc97	0.15306316
232	0xbe2f06bf	-0.17092417
233	0x3c70155e	0.014653532
234	0x3d8f6cfc	0.07003209
235	0x3ca916bc	0.020640723
236	0x3e273de6	0.16332206
237	0x3d609512	0.054829665
238	0x3e30a25d	0.17249437
239	0xbe309a20	-0.17246294
240	0x3d27c941	0.040963415
241	0xbdef7183	-0.116915725
242	0x3d652394	0.055942133
243	0xbe2efcb5	-0.17088588
244	0xbe00662b	-0.12538974
245	0x3e29398a	0.16525856
246	0x3c7b6370	0.015343532
247	0x3e0efe04	0.13964087
248	0xbe2a5b52	-0.16636398
249	0x3d12c8a4	0.035835877
250	0xbd45ff3f	-0.048339125
251	0xbd5aa3eb	-0.05337898
252	0x3daf18a9	0.085496254
253	0xbdc1ad06	-0.0945683
254	0xbdf28c50	-0.11843169
255	0xba5efb84	-0.00085061067

bn1.weight f4 [256]
0	0x3f07b175	0.5300515
1	0x3eb8261d	0.35966578
2	0x3eeaa080	0.45825577
3	0x3f1b29d5	0.60610706
4	0x3ef1f4ca	0.47257072
5	0x3d2fc546	0.042912744
6	0x3ecae996	0.39631337
7	0x38b1bc6e	8.4751155e-05
8	0x3e0cb38a	0.13740364
9	0x3e8f8cd9	0.28037146
10	0x3dcc8d3a	0.09987874
11	0x3ed7bd03	0.42136392
12	0x3ec254ca	0.37955314
13	0x39ea0d59	0.00044641903
14	0x3ebdf306	0.37099475
15	0x3f06b300	0.5261688
16	0xb9825293	-0.00024857055
17	0x3dd816be	0.10551213
18	0x3d629474	0.055317357
19	0x3eb55d36	0.35422677
20	0x3e72eca6	0.23723087
21	0x3eef73a9	0.4676793
22	0x3ef01834	0.46893466
23	0x3ed3299b	0.4124268
24	0x3e11f742	0.14254478
25	0x3d334552	0.04376728
26	0x390efca3	0.0001363629
27	0xb9211128	-0.00015360548
28	0x3c91c4ed	0.017794097
29	0x3f3c3f85	0.73534423
30	0x3f0de853	0.55432624
31	0x3f030843	0.5118448
32	0x3e1d7bcd	0.15379258
33	0x3f23c413	0.6397106
34	0x3e893f5b	0.2680615
35	0x3ef3fc1c	0.47653282
36	0x3f979d23	1.1844829
37	0x3d394564	0.04523219
38	0x3f66627b	0.8999402
39	0x3f0c86c0	0.5489311
40	0x3f2a6338	0.66557646
41	0x3f0b2555	0.5435384
42	0x3ea00983	0.31257257
43	0x3f1c0ea4	0.6095984
44	0x3e65e443	0.22450356
45	0x3ea603b0	0.32424688
46	0xbcedbb37	-0.029019935
47	0x3f096dd1	0.5368319
48	0x3e97e1b8	0.29664397
49	0x3f1e36e2	0.61802495
50	0x3f1cbdf3	0.6122734
51	0x3d6a1b15	0.057154734
52	0x3e8d3804	0.275818
53	0x3ed91fbc	0.42407024
54	0x3f34d5f2	0.70638955
55	0x3eda5b50	0.4264779
56	0x391beee0	0.0001487094
57	0x3f1d2bc0	0.6139488
58	0x3f28b375	0.6589883
59	0x3e189a01	0.14902498
60	0x39294dc1	0.00016146062
61	0x3e72537b	0.23664658
62	0x3ea1f899	0.31634977
63	0x3e76513d	0.24054427
64	0x3e59e1f0	0.21277595
65	0x3f057186	0.5212635
66	0x3d988d98	0.07448882
67	0x3f252ed8	0.645246
68	0x3f073b4e	0.52824867
69	0x3f37a4ff	0.7173614
70	0x3e0b7ed4	0.136226
71	0x3f09da0a	0.53848326
72	0x3eae031f	0.33986756
73	0x3eca08cd	0.3945984
74	0x3e0c093f	0.13675402
75	0x3f1037f4	0.5633538
76	0x3eec4b56	0.46151227
77	0xba268882	-0.0006352739
78	0x3f4d08a5	0.80091316
79	0x3f263ffa	0.6494137
80	0x3f6eac6d	0.9323185
81	0x3ea145b2	0.31498486
82	0x3f737084	0.9509356
83	0x3f0d6acf	0.552411
84	0x3f5f6641	0.872654
85	0x3ea302a5	0.31837955
86	0x39e25e3e	0.00043176295
87	0x3ea13ae5	0.31490245
88	0x3f7326c6	0.9498104
89	0x3f01ad48	0.5065503
90	0x3f55c53d	0.83504087
91	0x3cc5ae8e	0.024131086
92	0x3f0cca07	0.5499577
93	0xb9c4f7c6	-0.0003756864
94	0x3e3b691b	0.18301813
95	0x3ea91d5d	0.33030215
96	0x3ec3aa1a	0.38215715
97	0x3e151b42	0.1456118
98	0x3f258406	0.64654577
99	0x3a58a88a	0.00082648604
100	0x3e8fd94b	0.2809547
101	0x3f00cb52	0.5031024
102	0x3e8edb48	0.27901673
103	0x3ed0f8a0	0.40814686
104	0x3f02d17f	0.51100916
105	0x3e6352b0	0.22199512
106	0x3e61f836	0.22067341
107	0x3dfd4365	0.1236637
108	0x3e369ad0	0.17832494
109	0x3f2f47f9	0.68469197
110	0x3ef5006c	0.47851884
111	0x3e85db91	0.26144078
112	0x3e382028	0.17981017
113	0x3e67f505	0.22652061
114	0x3eca19bf	0.39472768
115	0x3f0e8320	0.5566883
116	0x3f5533b0	0.83281994
117	0x3f0530c1	0.5202752
118	0x3f42a188	0.7602773
119	0x3f3cd89f	0.7376804
120	0xba065745	-0.00051246985
121	0x3ac2bb51	0.001485685
122	0x3f4917f1	0.78552157
123	0x3d002c48	0.03129223
124	0x3e77f84b	0.2421581
125	0x3a38b134	0.00070454483
126	0x3f2498bc	0.64295554
127	0x3f3407ca	0.70324385
128	0x3e84cb58	0.2593639
129	0x3e693e54	0.22777683
130	0x3ea8b796	0.32952565
131	0x3dd1b54c	0.10239658
132	0x3f39f41d	0.7263811
133	0x390083f5	0.00012256189
134	0x3e9a2877	0.30108997
135	0x3f3ddd02	0.74165356
136	0x3d016b8f	0.031596716
137	0xb9d01561	-0.0003968878
138	0x3e80c028	0.25146604
139	0x3f8584e5	1.0431181
140	0x3da3c1e6	0.079959676
141	0x3ea583cf	0.32327124
142	0xb944514c	-0.00018722302
143	0x3e004584	0.12526518
144	0x3eba86f6	0.36431092
145	0x3f12c3b1	0.5732985
146	0x3ec61fd1	0.3869615
147	0x39119fe6	0.00013887844
148	0x3e89ccd4	0.26914084
149	0x3f24ca89	0.64371544
150	0x3e2f4f88	0.17120183
151	0x3eca1612	0.39469963
152	0x3ea7f404	0.32803357
153	0x3f376cf1	0.71650606
154	0x3f36d403	0.71417254
155	0x3ece7f3a	0.4033144
156	0x3d8a16cd	0.0674263
157	0x3f0c7f80	0.5488205
158	0x3e59c3be	0.21266076
159	0x3edf4dcd	0.43614045
160	0x3dd0482c	0.10170016
161	0x3e978d5c	0.29600036
162	0x3f2dc450	0.67877674
163	0x3e3ca393	0.18421774
164	0x3d1866e7	0.03720751
165	0x3da301bb	0.079593144
166	0x3e3cbde6	0.18431816
167	0x3ebff33b	0.37490258
168	0x3e8777a7	0.26458475
169	0x3eef09b3	0.46687087
170	0x3f0667dc	0.52502227
171	0x3f334f31	0.7004271
172	0x3f7ab073	0.9792549
173	0x3eda7375	0.42666212
174	0x3e8393f7	0.25698826
175	0x3d86a7e4	0.06574991
176	0x3eb33ec1	0.35008815
177	0x3e8269e7	0.25471422
178	0x3a2c4a15	0.00065723184
179	0x3e9b0768	0.30279088
180	0x3f2bae8f	0.6706323
181	0x3ef116dd	0.47087756
182	0x3ecd8afe	0.40145105
183	0x3d586f7e	0.052840702
184	0x3da77498	0.08176535
185	0x3ee3ba8c	0.4447826
186	0x3f35b99c	0.7098634
187	0x3ea35bbc	0.31905925
188	0x3f0aee78	0.54270124
189	0x3e9bb8e4	0.30414498
190	0x3efee289	0.49782208
191	0x3eb6884b	0.35650858
192	0x3def4b8f	0.116843335
193	0x3e52666e	0.20546886
194	0x3e83742b	0.25674567
195	0x3e6e1034	0.23248369
196	0x3f02bccc	0.5106933
197	0x3e663dbc	0.22484487
198	0x3f4d3f5e	0.80174816
199	0x3ebe02c4	0.37111485
200	0x3d09d02d	0.033645798
201	0x3e74b4ee	0.23897144
202	0x38ee732c	0.00011370177
203	0x3cad744e	0.021173622
204	0x3e45d9e1	0.19321395
205	0x3f3b22d7	0.73100036
206	0x3e789808	0.24276745
207	0x3f6a59b9	0.91543156
208	0x3f05ce66	0.52268064
209	0x3f483752	0.7820941
210	0x3ea1b09f	0.31580064
211	0x3eae96dd	0.34099475
212	0x3d98dafe	0.074636444
213	0x3ee8b0aa	0.45447284
214	0x3f2f3e4b	0.68454427
215	0x3f0337b5	0.5125688
216	0x3f4d826c	0.80277133
217	0x3f1497d4	0.5804417
218	0x3ecac6c2	0.39604765
219	0x3de31dda	0.11089678
220	0x3e9120f5	0.28345457
221	0x3f2a5435	0.6653474
222	0x3f2be5b4	0.67147374
223	0x3edfa638	0.43681502
224	0x3e96bb04	0.29439557
225	0x3ef57d28	0.4794705
226	0x3e538423	0.20655875
227	0x3ea50564	0.32230675
228	0x3e968fcb	0.2940658
229	0x3f87dd4f	1.0614413
230	0x3e8e0f7b	0.27746186
231	0x3d102991	0.03519589
232	0x398d11b8	0.00026906817
233	0x3f41a88b	0.756478
234	0x3ea99079	0.33118036
235	0x3f7268fb	0.9469144
236	0x3f04659f	0.5171756
237	0x3ed25066	0.41076964
238	0x3dfb82c1	0.12280799
239	0x3f425463	0.75910014
240	0x3f638657	0.8887686
241	0x3ea093de	0.31362814
242	0x3eb9b8be	0.3627376
243	0x3e4124e7	0.18861733
244	0x3f021509	0.5081335
245	0x3e4d377b	0.20040695
246	0x3d637645	0.055532712
247	0x3d451b74	0.048121884
248	0x3d5c312f	0.053757843
249	0xb94fafe9	-0.0001980659
250	0x3f76fe1c	0.9648149
251	0x3efa37f1	0.48870805
252	0x3e624a9c	0.22098774
253	0x3b3ca9f2	0.0028787819
254	0x3eb75d4f	0.35813376
255	0x3f26e50c	0.6519325

bn1.bias f4 [256]
0	0xbc0ea76c	-0.008706909
1	0xbdc97a3c	-0.098377675
2	0xbc9dfb6d	-0.019284928
3	0x3dbb36b0	0.0914129
4	0xb8849a44	-6.322985e-05
5	0xbdb2dd95	-0.0873367
6	0x3e03ccd0	0.12871099
7	0xbe6bf5ea	-0.23043028
8	0x3d69a0f0	0.057038248
9	0x3d22c40d	0.03973775
10	0xbd3535fb	-0.044240933
11	0xbcfbd182	-0.03073955
12	0x3d1ed376	0.038775884
13	0x3e3f710d	0.18695469
14	0xbdb95e00	-0.09051132
15	0xbe338df5	-0.17534621
16	0x3e62fd99	0.22167052
17	0x3e671f18	0.22570455
18	0x3e3ebd6f	0.1862695
19	0xbdc0f670	-0.09422004
20	0xbe43a7bb	-0.19106953
21	0xbddd75f0	-0.108135104
22	0x3e840ff9	0.25793436
23	0x3e009b9f	0.12559365
24	0x3aa7aeda	0.0012793199
25	0xbbc8e21f	-0.0061304714
26	0x3e47e6c6	0.19521627
27	0x3e1e21b4	0.15442544
28	0x3e1f0958	0.15530908
29	0xbd49aeab	-0.049238842
30	0x3e8dd812	0.2770391
31	0xbcbcd5a8	-0.023051098
32	0xbd94fa88	-0.072743475
33	0xbc816b8a	-0.015798349
34	0xbd2245b0	-0.03961724
35	0xbd80cfee	-0.062896594
36	0xbeaeb0c8	-0.34119248
37	0x3e022463	0.12709193
38	0xbe94d1d1	-0.29066327
39	0xbe0f1002	-0.1397095
40	0x3e225e37	0.15856253
41	0x3d1c4997	0.03815612
42	0x3e808c8c	0.2510723
43	0xbe2c6094	-0.16833717
44	0xbd4a842f	-0.049442466
45	0xbd23681f	-0.03989422
46	0xbbb58834	-0.0055399183
47	0x3e044fd0	0.12921071
48	0xbe12d5a8	-0.14339316
49	0x3bc6a089	0.0060616178
50	0x3e163ba2	0.14671186
51	0x3da8e7db	0.08247348
52	0xbde21d60	-0.11040759
53	0x3be72d2f	0.007054947
54	0x3c94f44c	0.018182896
55	0xbce7615b	-0.028244665
56	0xbe2914e9	-0.16511883
57	0xbd1fab99	-0.038982008
58	0x3e7de7d1	0.24795462
59	0x3c9eaab0	0.0193685
60	0x3dc100ab	0.094239555
61	0xbd654cb3	-0.05598135
62	0xbe0c7c8f	-0.1371939
63	0x3bb46865	0.005505609
64	0x3e74fc86	0.23924455
65	0x3d2796ec	0.040915415
66	0x3eac1e89	0.33617046
67	0xbcc2d32a	-0.023782331
68	0xbe413502	-0.18867877
69	0xbd3fab92	-0.04679448
70	0xbe980ff9	-0.29699686
71	0x3ea2dcfe	0.3180923
72	0x3e0ea8df	0.13931607
73	0xbe221527	-0.15828381
74	0xbc6647f2	-0.014055239
75	0x3d88747e	0.06662844
76	0xbba937d4	-0.005164126
77	0x3e5ed962	0.21762612
78	0x3d966b9a	0.07344742
79	0x3cd1a04b	0.025589129
80	0xbe02a25f	-0.12757252
81	0x3d871349	0.06595475
82	0xbe36aacb	-0.1783859
83	0xbdb92029	-0.09039337
84	0x3e687e5f	0.22704457
85	0x3d291c2c	0.041286632
86	0xbe79e71a	-0.24404564
87	0xbe140cfb	-0.14458077
88	0x3e04f914	0.12985641
89	0x3d966a0b	0.07344445
90	0xbdf153e8	-0.11783582
91	0xbd1ebc54	-0.038753822
92	0x3e0bdb75	0.13657935
93	0xbe1ffb60	-0.15623236
94	0x3e251aa3	0.16123442
95	0x3d32dadf	0.043665763
96	0x3dd21cbe	0.102593884
97	0xbe4ffb7f	-0.20310782
98	0x3c5104f6	0.01275753
99	0xbd24f2f4	-0.04027076
100	0xbecffb72	-0.40621525
101	0xbc368899	-0.011140966
102	0x3e84f729	0.25969818
103	0xbd0cca95	-0.034372885
104	0xbe3140f5	-0.17309935
105	0xbdd727fb	-0.105056725
106	0x3e630e13	0.22173338
107	0xbe58fe0f	-0.21190666
108	0xbd1cd650	-0.03829032
109	0x3d117466	0.035511397
110	0x3e8c29b9	0.27375582
111	0x3e2db41e	0.1696324
112	0xbe447366	-0.19184646
113	0xbe104e17	-0.14092289
114	0xbe22c8fd	-0.15896983
115	0xbd8bd192	-0.06827082
116	0xbcd99bf5	-0.026563624
117	0x3e0d0377	0.13770853
118	0xbe2cc47d	-0.1687183
119	0x3c216f7d	0.009853241
120	0x3e3cc113	0.18433027
121	0x3e63ed4c	0.2225849
122	0x3d97b698	0.07407874
123	0xbe01d307	-0.12678157
124	0x3e4c91bb	0.19977467
125	0xbe6f655d	-0.23378511
126	0xbe1b7fc3	-0.15185456
127	0xbddb9766	-0.10722236
128	0x3e823535	0.2543122
129	0xbdea1131	-0.1142906
130	0x3d2b349d	0.041798223
131	0x3e09f32a	0.13471666
132	0xbe1c8e56	-0.15288672
133	0x3e56a21d	0.20960279
134	0xbe4281d0	-0.18994832
135	0xbdd12e18	-0.1021387
136	0xbe39654f	-0.18105052
137	0xbe45c35b	-0.19312803
138	0x3dcbd72b	0.099531494
139	0xbd5ce4dc	-0.053929195
140	0xbd880395	-0.06641308
141	0x3df3c990	0.11903679
142	0x3e478fc4	0.19488436
143	0xbd17dc85	-0.03707554
144	0x3e4e47cf	0.2014458
145	0xbdefd163	-0.11709859
146	0xbd783608	-0.060598403
147	0xbe287e8e	-0.16454527
148	0xbe5ee96a	-0.21768728
149	0xbda8ceea	-0.08242591
150	0xbd8c4c0f	-0.068504445
151	0x3d1c880d	0.038215686
152	0xbe5d4770	-0.21609282
153	0xbd260319	-0.040530298
154	0xbccb3ed8	-0.02481024
155	0xbd071842	-0.03298212
156	0xbe8fc205	-0.28077713
157	0x3d0414e0	0.03224647
158	0xbb8013c5	-0.0039086067
159	0xbe4576da	-0.1928362
160	0xbe71857b	-0.23586075
161	0x3d6c46f4	0.057684854
162	0x3eb8fa29	0.36128357
163	0xbb2d10ac	-0.0026407642
164	0xbdd4497c	-0.103655785
165	0xbe131e03	-0.14366917
166	0x3e2ea162	0.1705375
167	0xbd9c17cf	-0.07621729
168	0xbe916e22	-0.28404337
169	0x3e544709	0.20730223
170	0x3c910da5	0.017706702
171	0x3dd4b9fa	0.10387035
172	0x3e0a4318	0.13502157
173	0x3bdec69c	0.0067985784
174	0x3dd4a380	0.10382748
175	0xbe8a9f16	-0.27074498
176	0xbe89e27c	-0.26930606
177	0xbd5dacac	-0.05411975
178	0x3e4eac4a	0.2018291
179	0x3dbaa715	0.091138996
180	0x3e0f8dfa	0.14019004
181	0x3e42b8ab	0.19015758
182	0x3e710d83	0.2354031
183	0x3e308109	0.17236723
184	0xbdb30102	-0.087404266
185	0x3d684e95	0.056715567
186	0x3da84d79	0.08217902
187	0x3d8261ee	0.06366335
188	0x3d138f08	0.036025077
189	0x3e1d4b57	0.15360771
190	0xbc9039ca	-0.017605681
191	0x3dbd4ec0	0.09243536
192	0xbea2f1fb	-0.3182524
193	0x3d6a2606	0.05716517
194	0xbcdd8b19	-0.027043866
195	0xbb9902a1	-0.004669503
196	0x3e15e73d	0.14638992
197	0x3d8747b6	0.06605475
198	0x3c2225ba	0.00989669
199	0x3e2aeea4	0.16692597
200	0x3e00344a	0.12519947
201	0x3dbbad15	0.09163872
202	0xbd309dc4	-0.043119207
203	0x3e0c9bb8	0.13731277
204	0x3e17ac61	0.14811851
205	0xbe0cb7a4	-0.13741928
206	0xbd477301	-0.04869366
207	0xbd8d3e9f	-0.0689671
208	0xbbb00416	-0.005371581
209	0xbb3c04c4	-0.0028689364
210	0x3d6fa938	0.05851099
211	0x3e3bf669	0.18355717
212	0xbe3240b9	-0.17407502
213	0xba6f90d1	-0.0009138706
214	0xbceb1c7e	-0.02870011
215	0xbd8054a9	-0.06266148
216	0xbd67538a	-0.056476153
217	0x3d05a4fb	0.03262804
218	0xbce66063	-0.028122133
219	0xbe2d83c1	-0.16944791
220	0x3e20d9e2	0.15708116
221	0x3c7ccd95	0.015429874
222	0xbdcb6156	-0.09930675
223	0xbe3bca61	-0.1833892
224	0xbd903231	-0.07040823
225	0x3d0d5a55	0.034509975
226	0xbd9d9ebc	-0.07696292
227	0x3d5fdcba	0.05465386
228	0xbcb17502	-0.021662239
229	0x3e2dd523	0.16975836
230	0xbe4a5c26	-0.19761714
231	0x3e1399ac	0.1441409
232	0xbe2da02d	-0.16955633
233	0x3d7d8dcd	0.06190281
234	0x3e8a4b2f	0.27010486
235	0xbd97308e	-0.07382308
236	0x3be62a37	0.0070240754
237	0xbe0fca80	-0.14042091
238	0x3cad4139	0.021149265
239	0x3e69a3f5	0.22816451
240	0xbe1e3610	-0.1545031
241	0xbe3b7d5c	-0.1830954
242	0x3e06306a	0.13104406
243	0x3e1e4468	0.15455782
244	0x3931133e	0.00016887204
245	0xbd4688c5	-0.048470277
246	0x3e5c0e5b	0.21489851
247	0xbdfea364	-0.12433508
248	0xbed20183	-0.41016778
249	0xbdeb037b	-0.11475273
250	0xbda68d74	-0.08132449
251	0x3cd3f15a	0.025871921
252	0x3ea2d4b5	0.31802908
253	0x3e8568df	0.26056573
254	0x3e1ddc02	0.15415958
255	0xbe8282d6	-0.25490445

bn1.running_mean f4 [256]
0	0xbec3a702	-0.38213354
1	0x3db902b6	0.0903372
2	0xbdf7ab8a	-0.12093265
3	0x3dce9210	0.10086453
4	0x3e8602d3	0.2617403
5	0x3d8fe24f	0.07025587
6	0x3d94766e	0.07249151
7	0x3de897a7	0.113570504
8	0x3df754f1	0.12076748
9	0x3e962b8e	0.29330105
10	0xbe2d894d	-0.16946907
11	0xbf52378b	-0.82116
12	0xbe63886d	-0.22220011
13	0xbe5cd85a	-0.21566907
14	0xbe9f921c	-0.3116616
15	0xbea99ea6	-0.33128852
16	0x3f1bcc2b	0.6085841
17	0xbc36ef73	-0.011165488
18	0xbef5869f	-0.4795427
19	0x3e8f0d21	0.27939704
20	0xbe97bdab	-0.29636893
21	0xbe66b278	-0.22529018
22	0xbee9c730	-0.4565978
23	0x3f10fd05	0.5663608
24	0xbf030c52	-0.51190674
25	0x3f40f28e	0.7537011
26	0xbe5ae245	-0.21375377
27	0x3d626f9b	0.055282217
28	0x3eb31fdf	0.34985253
29	0x3d4368cc	0.047707364
30	0x3db27f6e	0.087157115
31	0xbd8794da	-0.06620188
32	0x3f296fb4	0.6618607
33	0xbe0ffc66	-0.14061126
34	0x3f367577	0.7127299
35	0x3f027bd1	0.5097018
36	0x3ee8a0f7	0.45435306
37	0xbf00c4e6	-0.50300443
38	0x3dc434de	0.09580396
39	0xbe7b48d0	-0.24539495
40	0x3e45f093	0.19330053
41	0xbd353873	-0.044243287
42	0x3efe78de	0.4970159
43	0xbf2c767c	-0.6736829
44	0x3f2d1348	0.67607546
45	0x3f2a4c6c	0.6652286
46	0xbda363d9	-0.07978029
47	0x3ede9e61	0.4348021
48	0x3b8dafd4	0.004323939
49	0x3ebaece3	0.36508855
50	0x3e91f13e	0.28504366
51	0x3dc940d2	0.098268166
52	0xbeb30abe	-0.34969133
53	0x3e5cad59	0.21550502
54	0x3ef0669d	0.46953288
55	0x3e8fd9bc	0.28095806
56	0x3edad85f	0.42743203
57	0x3e0a1e6e	0.1348817
58	0xbdcf517d	-0.101229645
59	0x3de2204c	0.110413164
60	0x3f5cf8bf	0.86317056
61	0xbf0634af	-0.5242414
62	0xbe807152	-0.25086457
63	0x3d1977ac	0.037467644
64	0x3da9902e	0.08279453
65	0xbe67fb90	-0.22654557
66	0x3c95c30f	0.018281488
67	0xbe899186	-0.26868838
68	0x3e03b7e5	0.12863119
69	0xbd3050b3	-0.04304571
70	0xbf208cb3	-0.6271469
71	0xbf926944	-1.1438375
72	0x3f29fc9b	0.6640107
73	0xbedfa4a3	-0.43680295
74	0x3edf605f	0.43628213
75	0x3ecf4f0d	0.40489998
76	0x3e8299b3	0.25507888
77	0x3f2b4584	0.6690295
78	0x3e43e908	0.19131863
79	0xbe322e4b	-0.17400472
80	0xbf0557fa	-0.52087367
81	0x3e04da4b	0.12973897
82	0xbd9da2ba	-0.07697053
83	0xbea1ccf5	-0.31601682
84	0x3d8d1905	0.06889538
85	0x3ef37c9d	0.4755601
86	0x3eee51e8	0.46546865
87	0x3f049fd0	0.51806355
88	0x3e0571be	0.1303167
89	0x3f3384de	0.70124614
90	0x3df10491	0.11768449
91	0xbf171f64	-0.59032273
92	0x3db29703	0.087202094
93	0xbf14e24d	-0.5815781
94	0x3e9d7d6a	0.30759746
95	0x3e321a98	0.17392957
96	0xbd53984e	-0.05165892
97	0xbe31e3d8	-0.17372072
98	0xbef2f927	-0.47455713
99	0x3e476f17	0.19475971
100	0x3e841d16	0.2580344
101	0x3e581a3e	0.2110376
102	0xbe05dc9a	-0.13072434
103	0xbf3f3b54	-0.746999
104	0x3eda8b08	0.42684197
105	0x3e0c3157	0.13690697
106	0xbf087b50	-0.5331316
107	0xbf40b12b	-0.75270337
108	0xbe1c533a	-0.15266123
109	0x3e1dd040	0.15411472
110	0x3d1af777	0.037833657
111	0x3e94fba9	0.2909825
112	0xbf28cf3a	-0.659412
113	0xbf1933b2	-0.59844506
114	0xbec2b587	-0.3802912
115	0xbdfaf3e2	-0.12253548
116	0x3eb0577a	0.3444174
117	0xbea0aed4	-0.31383383
118	0xbe5fbc2d	-0.21849127
119	0xbccf7f9c	-0.025329404
120	0x3ec588b5	0.38580862
121	0xbe418a31	-0.18900372
122	0xbd459bcc	-0.048244283
123	0xbf003e95	-0.5009549
124	0x3f1dd3c2	0.6165124
125	0x3c745938	0.0149138495
126	0x3d8e7dc5	0.069575824
127	0xbe01b40d	-0.1266634
128	0x3e83d4c1	0.25748256
129	0xbd63ecdd	-0.055645812
130	0x3ef81e12	0.48460442
131	0x3cc5740e	0.02410319
132	0x3e7ca7c4	0.24673373
133	0xbe8196b2	-0.25310284
134	0xbeeed242	-0.4664479
135	0xbe27dbca	-0.16392437
136	0xbf0af2b4	-0.54276586
137	0xbe8b8007	-0.27246115
138	0x3d828c47	0.06374412
139	0x3e4f6ec9	0.20257105
140	0xbf283814	-0.6571057
141	0xbeebf6d3	-0.4608675
142	0x3f80fc19	1.0076934
143	0x3ec7a034	0.38989413
144	0x3ed663b3	0.4187294
145	0x3e089bf8	0.13340747
146	0xbf0aceaa	-0.54221594
147	0xbf08c460	-0.53424644
148	0xbd5310c7	-0.051529672
149	0xbf185181	-0.59499365
150	0xbd0c1b9c	-0.034206018
151	0x3f4826b9	0.78184086
152	0xbe3cb135	-0.18426974
153	0x3e46dd2f	0.19420312
154	0x3e8b959e	0.27262586
155	0x3e4be438	0.19911277
156	0xbf54098c	-0.8282707
157	0xbdb3e963	-0.08784749
158	0x3e9568fc	0.2918166
159	0x3eb4b470	0.35293913
160	0xbe4ec8a8	-0.20193732
161	0x3f0f698a	0.56020415
162	0x3f37db0f	0.7181863
163	0x3eb89311	0.36049703
164	0xbe99d44d	-0.30044785
165	0x3ed43a09	0.41450527
166	0x3de66baa	0.11251004
167	0x3ea2496c	0.3169664
168	0x3e4431aa	0.1915957
169	0x3df96bb7	0.12178748
170	0xbe488b95	-0.19584496
171	0xbea323ae	-0.3186316
172	0x3dce2fce	0.10067712
173	0x3ebf057b	0.3730887
174	0xbda42b9b	-0.080161296
175	0xbe7df5c6	-0.24800786
176	0xbe54b54a	-0.20772281
177	0x3ea6ccfd	0.3257827
178	0xbf320755	-0.6954244
179	0x3e837380	0.25674057
180	0x3db54a1c	0.08852026
181	0x3f34cecf	0.70628065
182	0xbda60cdb	-0.08107921
183	0x3f2686f3	0.65049666
184	0xbe5a848f	-0.2133963
185	0x3e1e2c37	0.15446554
186	0xbe637080	-0.22210884
187	0x3f8a8299	1.0821105
188	0xbea12eaa	-0.31480914
189	0x3f388975	0.7208474
190	0xbdac06f5	-0.083997644
191	0xbe1de722	-0.15420201
192	0xbe7c1b5c	-0.24619812
193	0xbef9a190	-0.48756075
194	0x3e4f3dff	0.20238493
195	0xbecda1fc	-0.40162647
196	0x3e5a3637	0.21309744
197	0x3e9a01bf	0.30079457
198	0xbf49a00d	-0.78759843
199	0x3edbcf5b	0.42931637
200	0xbe231959	-0.15927638
201	0xbd939713	-0.072065495
202	0x3ddb37b2	0.107039824
203	0x3f18e8e1	0.59730345
204	0x3df0ccb9	0.11757798
205	0x3e5cacfc	0.21550363
206	0xbd3411ae	-0.043962173
207	0xbeeffb1b	-0.46871266
208	0xbf133d34	-0.57515264
209	0x3c775c70	0.015097722
210	0x3c5d813e	0.013519583
211	0x3e9f369b	0.31096348
212	0xbe193287	-0.14960681
213	0x3ea24bdb	0.31698498
214	0x3d6ba493	0.057529997
215	0xbc0742bd	-0.008255658
216	0x3de154b2	0.110024825
217	0xbf2f69eb	-0.68520993
218	0x3e4aab27	0.19791852
219	0xbf1779fa	-0.59170496
220	0x3e3bcb14	0.18339187
221	0xbe6480b3	-0.2231472
222	0xbf6abacf	-0.916913
223	0xbe2a4929	-0.16629471
224	0xbd9200cc	-0.07129058
225	0x3e19410b	0.14966218
226	0xbdf99b56	-0.12187831
227	0x3e8da9c8	0.27668595
228	0x3e33e007	0.17565928
229	0x3f263ef7	0.64939827
230	0x3ba24f2a	0.0049532847
231	0xbc7063ba	-0.014672214
232	0x3ebd8ed6	0.37023038
233	0x3f17743c	0.59161735
234	0x3e888817	0.26666328
235	0x3e0ef5b8	0.13960922
236	0x3ceaf51d	0.028681332
237	0xbeb9a56a	-0.36259013
238	0x3e6a38fb	0.22873299
239	0xbe8b63e5	-0.2722465
240	0x3ebcdf91	0.36889318
241	0x3e8369bc	0.25666606
242	0x3e75370b	0.23946778
243	0xbe9272fc	-0.2860335
244	0x3d325e7f	0.04354715
245	0x3e56d7b0	0.20980716
246	0x3f146f22	0.57982075
247	0xbd0bd2f4	-0.034136727
248	0xbf7eeaa1	-0.99576765
249	0xbeebd183	-0.46058282
250	0xbee48d9f	-0.44639298
251	0x3e617836	0.22018513
252	0x3f1d0325	0.61332923
253	0xbe7a5889	-0.24447836
254	0xbdb4c165	-0.088259496
255	0xbe26830e	-0.16260931

bn1.running_var f4 [256]
0	0x3f0a9499	0.5413299
1	0x3e2db33d	0.16962905
2	0x3f2e0145	0.6797069
3	0x3e07ba4f	0.13254665
4	0x3e41ee31	0.18938519
5	0x3f75c7e2	0.9600812
6	0x3ed58807	0.41705343
7	0x3ffa7c03	1.9569095
8	0x3e6059f9	0.21909322
9	0x3f368284	0.712929
10	0x3e9556f8	0.29167914
11	0x3f01d04b	0.50708455
12	0x3f72b744	0.9481089
13	0x3e5f54a8	0.21809638
14	0x3e097c1c	0.1342625
15	0x3f0e3fc9	0.5556608
16	0x3f24f175	0.64430934
17	0x4000fa9a	2.0152955
18	0x3ffd0be4	1.9769254
19	0x3e1a0afb	0.15043251
20	0x3f79bfbd	0.97558194
21	0x3f4fdc24	0.8119528
22	0x3f4259ee	0.7591847
23	0x3e5e3ddf	0.2170329
24	0x3f21c617	0.63192886
25	0x3e7885ac	0.24269742
26	0x3ef46dbf	0.4773998
27	0x3f26c0fe	0.6513823
28	0x4011486b	2.270045
29	0x3e4a569d	0.19759603
30	0x3e930bcf	0.28719947
31	0x3f80e8ce	1.0071046
32	0x3f1e835d	0.61919194
33	0x3e9b009d	0.30273905
34	0x3e77af55	0.24187978
35	0x3e4953c6	0.19660863
36	0x3e96a002	0.2941895
37	0x3fdfdbe5	1.7488981
38	0x3e9d469a	0.30717927
39	0x3f2d5da1	0.6772099
40	0x3de3c01b	0.111206256
41	0x3e50a572	0.20375612
42	0x3fcc1234	1.5943055
43	0x3e8ea07d	0.27856818
44	0x3f4b5112	0.7942058
45	0x3fb61c7c	1.4227443
46	0x3e599348	0.2124759
47	0x3e06cf38	0.13164985
48	0x3e15e04f	0.14636348
49	0x3f37e24d	0.7182968
50	0x3fbd74ff	1.4801329
51	0x3ead4fb2	0.33849865
52	0x3f0b36c7	0.5438046
53	0x3ed0aafd	0.40755454
54	0x3e953af9	0.29146555
55	0x3e9444c5	0.28958717
56	0x3ea097dc	0.3136586
57	0x3de7a8de	0.11311506
58	0x3f0ad0c8	0.54224825
59	0x3ec0e1dd	0.3767232
60	0x3fc0ab55	1.5052286
61	0x3dbe9ac0	0.0930686
62	0x3f0810a4	0.5315039
63	0x3dbfd0f0	0.093660235
64	0x3fb98f8d	1.4496933
65	0x3f89b8e0	1.0759544
66	0x3fa06f0f	1.2533892
67	0x3deb7c05	0.11498264
68	0x3e6be700	0.23037338
69	0x3e480574	0.1953333
70	0x3f50336f	0.8132848
71	0x40116cc1	2.2722628
72	0x3eac9297	0.3370559
73	0x3f3f0454	0.7461598
74	0x3e7937bb	0.24337666
75	0x3f1d2327	0.61381763
76	0x3e08c317	0.13355671
77	0x3eb0e567	0.3455002
78	0x3efc4d2a	0.49277622
79	0x3f85d4b4	1.0455537
80	0x3e70211c	0.2345013
81	0x3e79c37a	0.24390975
82	0x3ea1ac73	0.3157688
83	0x3dbf1db4	0.09331837
84	0x3f08ae94	0.53391385
85	0x3e060cea	0.13090864
86	0x3ec5956f	0.3859057
87	0x3fec0794	1.8439813
88	0x3e5bc700	0.21462631
89	0x3eaef2de	0.34169668
90	0x3e844fb2	0.25842053
91	0x3f9e0cba	1.2347634
92	0x3e5af23f	0.21381472
93	0x3ed17227	0.40907404
94	0x3ea7e839	0.3279436
95	0x3f125c9b	0.57172555
96	0x3f43aee5	0.7643874
97	0x3ef9dcd0	0.4880128
98	0x3e005d89	0.12535681
99	0x3ec50962	0.3848372
100	0x3f32d946	0.6986278
101	0x3e8e1ac0	0.27754784
102	0x3eba5f82	0.36400992
103	0x3ed94f3f	0.42443272
104	0x3fa41e52	1.2821753
105	0x3ede0d39	0.43369463
106	0x3f37137b	0.715141
107	0x3f1ddcb8	0.61664915
108	0x3e6c760a	0.23091903
109	0x3e5e2294	0.21692878
110	0x400ac88d	2.1684906
111	0x3f6bb8cc	0.9207885
112	0x3ed0f830	0.40814352
113	0x3faaf05d	1.3354603
114	0x3e79cd02	0.2439461
115	0x3e69cbb2	0.2283161
116	0x3edd4810	0.43219042
117	0x3e839263	0.25697622
118	0x3e9c5ee0	0.30541134
119	0x3e6e552e	0.23274681
120	0x3e8ed14e	0.27894062
121	0x3fff06f0	1.9923992
122	0x3e97dc57	0.29660293
123	0x3fcce7c9	1.6008235
124	0x3f20ecce	0.62861335
125	0x3e76bcec	0.24095505
126	0x3e7c90e7	0.24664651
127	0x3e94dfe7	0.29077074
128	0x3f4dc881	0.8038407
129	0x3fd866e0	1.6906395
130	0x3ee803b4	0.45315325
131	0x3f75cf9e	0.96019924
132	0x3ece52c2	0.40297514
133	0x3f945731	1.1589109
134	0x3ff85de3	1.9403652
135	0x3e3235f9	0.17403401
136	0x3f0f5834	0.5599396
137	0x3e2bbe7e	0.16771886
138	0x3e606744	0.21914393
139	0x3e13c708	0.14431393
140	0x3f66e64e	0.9019517
141	0x3f2be21d	0.67141896
142	0x3f3244fc	0.6963651
143	0x3e3e6db1	0.18596531
144	0x3fbb3260	1.4624748
145	0x3ec2e7a4	0.38067353
146	0x3e96f7e9	0.29486015
147	0x3f99d057	1.2016705
148	0x3ef1f638	0.47258162
149	0x3ea0f66c	0.31438005
150	0x3ea7ee5d	0.32799044
151	0x3e8e663c	0.27812374
152	0x3f46d58c	0.77669597
153	0x3de2157a	0.110392526
154	0x3ec09a87	0.37617895
155	0x3ddb0c27	0.10695677
156	0x3f839162	1.0278742
157	0x3f3d4750	0.7393694
158	0x3e521ab6	0.20518002
159	0x3edb6f34	0.4285828
160	0x3feb546b	1.8385137
161	0x3e34a9ed	0.17642947
162	0x3f056359	0.5210472
163	0x3efcab67	0.4934952
164	0x3f83f561	1.0309259
165	0x3ee162f4	0.44020808
166	0x3f471bae	0.7777661
167	0x3e73f88c	0.23825282
168	0x3f4dfc7d	0.8046339
169	0x3e99ce92	0.30040413
170	0x3e99748b	0.29971728
171	0x3f1e51d9	0.6184364
172	0x3e3cc5bc	0.18434805
173	0x3dd7d397	0.105384044
174	0x3f0f8ca9	0.56074005
175	0x3eed4327	0.46340296
176	0x3f584486	0.8447956
177	0x3ea4821c	0.32130516
178	0x3e54a117	0.20764576
179	0x3e9bca1d	0.30427638
180	0x3edd3a32	0.43208462
181	0x3f12e867	0.5738587
182	0x3e5853cf	0.2112572
183	0x3fe2fddd	1.7733723
184	0x3f3b48a6	0.7315773
185	0x3f39faa5	0.7264808
186	0x3e5dd560	0.21663427
187	0x3fa00942	1.2502825
188	0x3e82f47a	0.25577146
189	0x3e58c5f7	0.21169268
190	0x3eea180b	0.45721468
191	0x401cbf59	2.449179
192	0x405b8eb3	3.4305847
193	0x3e617d49	0.22020449
194	0x3dba3976	0.09092991
195	0x3f993b00	1.197113
196	0x3e642488	0.2227956
197	0x402e3a70	2.7223167
198	0x3e2df456	0.16987738
199	0x3e45b4ff	0.19307326
200	0x401e08bc	2.469283
201	0x3e19b4c4	0.15010363
202	0x3e83acd3	0.25717792
203	0x3eb568e4	0.35431588
204	0x3f3de2eb	0.74174374
205	0x3e65a781	0.22427179
206	0x3ecd21bd	0.40064803
207	0x3dfa1068	0.122101605
208	0x3ecd7826	0.40130728
209	0x3e5ea1eb	0.21741454
210	0x3ecfcb95	0.40585008
211	0x3e3b81ed	0.18311282
212	0x400ab676	2.1673865
213	0x3e8d6234	0.27613986
214	0x3e3c8b2d	0.18412466
215	0x3e5a7581	0.21333887
216	0x3f099a69	0.53751236
217	0x3ef0a390	0.46999788
218	0x3e4f9b6d	0.20274134
219	0x3e6a854a	0.22902408
220	0x3e39a3f9	0.18128957
221	0x3e1977b1	0.14987065
222	0x3ddb0d6a	0.10695918
223	0x3e97d6a0	0.29655933
224	0x401512c6	2.3292708
225	0x3e78929c	0.24274677
226	0x3e5851ce	0.21124956
227	0x3fea6536	1.8312137
228	0x3f85adca	1.0443661
229	0x3e8acf94	0.27111495
230	0x3f01b5cb	0.5066802
231	0x401e32b2	2.4718442
232	0x3f2abf2a	0.66697943
233	0x3f2ecd84	0.6828234
234	0x3e3fb86a	0.18722692
235	0x3e85d9dd	0.2614278
236	0x3e2ac1ab	0.16675441
237	0x3f4808f3	0.78138655
238	0x3e97bb7c	0.29635227
239	0x3e8a808d	0.270512
240	0x3e335eda	0.17516652
241	0x3e839461	0.25699142
242	0x3e159467	0.14607392
243	0x3f195208	0.59890795
244	0x3e212911	0.15738322
245	0x3fc8b37b	1.5679773
246	0x3fa53bd4	1.2908883
247	0x3e63c220	0.22242022
248	0x3edf7f51	0.43651822
249	0x3e9d8c48	0.3077109
250	0x3e5232b2	0.20527151
251	0x3e5d875c	0.21633667
252	0x3e80d2a4	0.25160706
253	0x3ff62a99	1.923175
254	0x3ed6fe22	0.41990763
255	0x3f14d1e3	0.5813276

fc2.weight f4 [128, 260]
0	0x3d90552d	0.07047496
1	0x3dfc1464	0.12308577
2	0xbd808d2a	-0.06276925
3	0x3de2aec4	0.1106849
4	0x3e116b32	0.14201048
5	0xbdcb6fc7	-0.09933429
6	0xbc5b1122	-0.013370784
7	0x3d338cee	0.043835573
8	0xbe1c9434	-0.1529091
9	0x3b82b9f2	0.0039894516
10	0x3c171ad2	0.009222703
11	0xbd6cc95f	-0.05780923
12	0x3d0e199d	0.034692395
13	0xbdcfab00	-0.101400375
14	0x3e00ef35	0.1259125
15	0x3d033a73	0.032038163
16	0xbe33e823	-0.17569022
17	0x3d2ff36a	0.042956747
18	0xbd02eae6	-0.031962298
19	0x3d0934ef	0.033497747
20	0x3e084fe1	0.13311721
21	0x3cac4d42	0.021032933
22	0xbd9b9222	-0.07596232
23	0x3e125b77	0.14292704
24	0x3e0213f4	0.12702924
25	0xbdfa5fd4	-0.12225309
26	0xbccd496b	-0.025059422
27	0xbd9cf42c	-0.076637596
28	0xbd2d3f99	-0.04229698
29	0x3d92d1ae	0.071688995
30	0x39decab5	0.00042494168
31	0xbd000867	-0.031258013
32	0x3dda79e2	0.106677786
33	0xbd901a10	-0.07036221
34	0xbb712e5b	-0.0036801312
35	0xbda5c1fa	-0.08093639
36	0x3d291837	0.04128286
37	0xbd26cc31	-0.040722076
38	0x3bd21fcd	0.0064124824
39	0x3dcbb374	0.09946337
40	0x3d68da1b	0.056848627
41	0xbdd2cf22	-0.10293414
42	0x3da6e15f	0.08148455
43	0xbbf50656	-0.007477562
44	0x3e095c83	0.13414197
45	0xbd2e1b59	-0.04250655
46	0xbc42f450	-0.011899069
47	0xbd7d882f	-0.061897453
48	0xbe380d0c	-0.17973727
49	0xbb8ce665	-0.004299926
50	0x3d2b4024	0.041809216
51	0xbde3d301	-0.1112423
52	0xbc9a34c7	-0.018823994
53	0x3d44cdae	0.048047714
54	0xbdef85e7	-0.11695462
55	0xbc70caae	-0.01469676
56	0x3dc7d07f	0.09756564
57	0x3d59534b	0.05305795
58	0x3c7bbbb7	0.015364579
59	0x3cb63b75	0.022245148
60	0x3d7165d5	0.058935005
61	0x3e072398	0.13197172
62	0xbdc4ec39	-0.096153684
63	0xbb2c06ae	-0.0026249099
64	0xbd702e93	-0.058638167
65	0xbad09704	-0.0015914147
66	0xbdffbe8f	-0.12487518
67	0xbd8a423a	-0.06750913
68	0xbc804a24	-0.015660353
69	0xbe22bf0e	-0.15893194
70	0x3d207548	0.039174348
71	0xbda09043	-0.07840016
72	0xbcc15da9	-0.023604231
73	0xbd33b508	-0.043873817
74	0x3d24865d	0.0401672
75	0xbe305f5f	-0.17223881
76	0xbe5d555a	-0.2161459
77	0x3c432ba3	0.011912259
78	0xbe271375	-0.16316016
79	0xbe0d055e	-0.13771579
80	0xbd1351ef	-0.03596681
81	0xbdb7fae3	-0.089834
82	0xbc89f339	-0.01683961
83	0xbdb32f63	-0.08749273
84	0x3d792921	0.06083024
85	0xbd4460fc	-0.047944054
86	0x3dc868fb	0.097856484
87	0x3dc61087	0.09671121
88	0xbcd9ec1c	-0.026601844
89	0xbbe64bc5	-0.0070280754
90	0x3d016799	0.03159294
91	0xbd3e68e9	-0.04648677
92	0x3dcf365c	0.1011779
93	0x3dcff037	0.10153239
94	0xbe59b551	-0.21260573
95	0x3a354b22	0.0006915798
96	0xbe6aae37	-0.2291802
97	0x3e093198	0.13397825
98	0x3d88f541	0.066874035
99	0xba0421ae	-0.0005040419
100	0xbc9b785f	-0.018978296
101	0x3cc1ed84	0.023672827
102	0x3e05fa08	0.1308366
103	0x3d8c421c	0.06848547
104	0xbab178d4	-0.0013540038
105	0xbe2b28d5	-0.16714795
106	0xbb804272	-0.003914171
107	0x3d42e1ec	0.047578737
108	0x3dd76b71	0.1051854
109	0xbd462062	-0.048370726
110	0x3d8d8be8	0.069114506
111	0xbe1104a9	-0.14161934
112	0xbcd4bdde	-0.025969442
113	0x3e2e3820	0.17013597
114	0x3cb732d9	0.022363113
115	0x3db00462	0.08594586
116	0x3dd196e6	0.1023386
117	0xbd3ccc17	-0.046093073
118	0xbc9bdd5e	-0.019026455
119	0xbdfcb574	-0.12339297
120	0xbdbb0179	-0.0913114
121	0xbdcb8c88	-0.099389136
122	0x3b3da1e6	0.002893561
123	0x3dc26126	0.09491186
124	0xbc7f8b3f	-0.015597164
125	0x3d296ec1	0.04136539
126	0xbd37801b	-0.044799905
127	0xbd0d0cfd	-0.034436215
128	0xbd7aedd6	-0.061261974
129	0xbbecd878	-0.0072279535
130	0x3b466e57	0.003027817
131	0xbc33688d	-0.01095022
132	0xbd53217d	-0.05154561
133	0xbe000cf2	-0.12504938
134	0x3df80b37	0.12111514
135	0xbe39cd29	-0.18144669
136	0x3e0903c9	0.1338035
137	0x3dadba92	0.08482851
138	0xbde804cf	-0.11329042
139	0xbd5117e6	-0.051048182
140	0xbd4b64e8	-0.04965678
141	0x3e2aff9b	0.16699068
142	0xbd210334	-0.039309695
143	0xbdee843b	-0.11646315
144	0xbdeb5a10	-0.114917874
145	0x3d2230a3	0.039597165
146	0x3da276cd	0.07932816
147	0x3c857e1e	0.016295489
148	0x3d37ad85	0.044843215
149	0x3d6fe8bf	0.058571573
150	0x3d359ff8	0.04434201
151	0xbd115f2e	-0.03549116
152	0xbc193a33	-0.009352255
153	0xbd6a03cb	-0.057132524
154	0x3d81b407	0.063331656
155	0x3caed1ef	0.021340339
156	0x3dea4772	0.11439408
157	0xbc9c1ced	-0.019056762
158	0x3d5248f0	0.05133909
159	0x3d9913ba	0.07474466
160	0x3d95477f	0.072890274
161	0xbdc028fd	-0.09382818
162	0xbd3b3f62	-0.045714743
163	0xbabec48c	-0.0014554425
164	0xbe03eeb8	-0.12884033
165	0xbcf810fa	-0.030281533
166	0x3d9f6aff	0.0778408
167	0xbde9e1af	-0.11419999
168	0xbcb5c9ce	-0.022190955
169	0x3c8a15fd	0.016856188
170	0x3d256c6e	0.04038661
171	0x3d2ad1aa	0.041703857
172	0xbcfb9e2f	-0.030715076
173	0xbe0966a0	-0.13418055
174	0xbe0d646b	-0.13807838
175	0x3da450d8	0.08023232
176	0x3dff3d0e	0.12462817
177	0x3c07f298	0.008297585
178	0xbe2e0a4d	-0.16996117
179	0x3d271be3	0.04079808
180	0xbc3201f2	-0.010864722
181	0xbda20a99	-0.079121776
182	0xbd769294	-0.06019838
183	0xbd105206	-0.035234474
184	0x3bff6643	0.007794173
185	0xbdde2362	-0.108465925
186	0x3c4321fd	0.011909959
187	0x3d299b5e	0.041407935
188	0x3d6dea4c	0.05808477
189	0xbd0dc795	-0.034614164
190	0x3dcb2865	0.09919814
191	0x3d100646	0.035162233
192	0x3b13f8cf	0.0022578721
193	0xbe06c01d	-0.13159223
194	0x3caf42d7	0.021394176
195	0xbd878c64	-0.06618574
196	0x3be91bc8	0.0071139075
197	0x3d619858	0.055076927
198	0xbcbb489f	-0.022861777
199	0x3cab8df9	0.020941721
200	0xbd13b375	-0.036059815
201	0xbd53583a	-0.05159781
202	0xbde963af	-0.11395966
203	0xbdaf7a73	-0.08568277
204	0x3d07c39a	0.033145525
205	0xbd8ed2b1	-0.0697378
206	0x3dc72287	0.097233824
207	0x3c30cc0e	0.010790838
208	0xbc2efbd1	-0.010680155
209	0x3df9aa01	0.12190629
210	0xbcadca68	-0.021214679
211	0xbbd20e46	-0.006410393
212	0x3d37b885	0.044853706
213	0xbb953ed5	-0.0045546093
214	0xbdd04e56	-0.101711914
215	0xbd1b4432	-0.037906833
216	0x3db5eb37	0.08882754
217	0xbd2065d4	-0.03915961
218	0x3d4fe579	0.05075595
219	0x3d2c314b	0.042039197
220	0x3d4b8d6f	0.04969543
221	0xbc998ec1	-0.018744828
222	0xbcbc5491	-0.022989543
223	0xbd6616bb	-0.05617402
224	0x3d4af7c9	0.049552713
225	0x3dcae3ab	0.099067055
226	0xbc971798	-0.018443868
227	0xbd98124b	-0.07425364
228	0xbd473362	-0.048632987
229	0x3d3fa152	0.046784706
230	0x3d312e47	0.043257024
231	0x3c90240d	0.017595315
232	0x3d03f5b3	0.03221674
233	0x3c809d85	0.015700111
234	0x3d36be81	0.044615272
235	0xbc85ad7c	-0.016318075
236	0xbde805b2	-0.11329211
237	0x3ddd01b4	0.107913405
238	0xbc8e5736	-0.01737557
239	0xbdb84127	-0.08996802
240	0x3d0af707	0.03392699
241	0xbe284006	-0.16430673
242	0xbd161880	-0.03664446
243	0xbe00a1e4	-0.12561756
244	0x3d29f493	0.04149301
245	0xbd52b056	-0.0514377
246	0xbd9c1ec1	-0.07623053
247	0xbd040a06	-0.03223612
248	0x3dc3eaf0	0.09566295
249	0x3d7b8924	0.061410084
250	0xbd0d3399	-0.034473035
251	0x3de8cc96	0.11367147
252	0x3d97cd21	0.07412172
253	0x3bd150c7	0.0063878032
254	0x3c006ef8	0.007838957
255	0xbc294811	-0.010332123
