p2_continuous-control/checkpoint_actor.pth (torch_old, 174033 bytes, 10 tensors)

fc1.weight f4 [256, 33]
000000 00 14 8c 3d fa 6d c7 3d d1 73 91 3d b7 58 51 bc
       0.06839752 0.09737773 0.07102168 -0.012777499
000010 2f d9 b9 3d ab 9a 86 3c 99 1c aa 3e b8 66 c2 3d
       0.090746276 0.016431173 0.33224943 0.09492248
000020 d2 fc db bc 18 6b 80 3d 16 a5 32 3d cb 39 9e 3d
       -0.026853953 0.062704265 0.04361447 0.07725867
000030 41 c7 35 3d 29 81 25 3d 79 72 f9 3d 10 91 06 be
       0.044379476 0.04040638 0.12180037 -0.13141274
000040 0f 1d 8f 3d 12 79 1a 3d 8e 67 18 be 3b a0 1a bc
       0.06987964 0.037713118 -0.14883253 -0.009437616
000050 e7 70 29 bd 96 1e d2 3d ba 4a 9c bd cd 2c 22 3c
       -0.041367438 0.1025974 -0.076314405 0.009898377
000060 b5 36 1b 3e 49 08 4f 3c 50 93 8a bb 9b ef 42 bc
       0.15157588 0.012636253 -0.004228987 -0.011897947
000070 32 f5 07 3e 42 fb 7d 3d cf c8 6f 3d b2 68 1c bd
       0.13277128 0.062007196 0.058541115 -0.038185783
000080 25 4c b6 be ec e0 b2 3d 70 e2 01 bd 66 5d 82 3d
       -0.3560497 0.08734307 -0.03171009 0.063654706
000090 97 80 e1 bd 1e 52 ab be 37 c5 1e 3e 33 ad 0b 3e
       -0.11010855 -0.33461088 0.15504919 0.13640289
0000a0 9d 57 3e 3d ef ab 00 3d be ea a6 3d e7 14 de bc
       0.046470273 0.03141397 0.08150242 -0.027109576
0000b0 e4 2d 07 bb c7 b7 87 3c 76 03 b3 bd 4e e6 32 bd
       -0.0020626718 0.016567124 -0.087408945 -0.043676667
0000c0 02 ab 08 3b 72 71 72 3d c3 a4 65 3a c5 21 b5 3c
       0.0020853882 0.05919022 0.0008760208 0.02211083
0000d0 66 72 86 bd 57 37 0e 3d b3 fe 33 3c 50 c6 a9 bd
       -0.065647885 0.034720745 0.010986018 -0.08289778
0000e0 66 be 9b bd 5b 68 2f 3d 24 59 a3 bd 7e 64 b3 be
       -0.07604675 0.04282413 -0.079759866 -0.35037607
0000f0 92 08 59 3d ad b9 ca 3c 92 10 47 bd a1 fa 82 bc
       0.05298669 0.02474674 -0.048599787 -0.01598865
000100 d2 be 2e 3d 28 5b b5 bd c0 1c bd 3d bb 9d 89 bd
       0.04266245 -0.08855277 0.09233999 -0.06719538
000110 ef 48 38 bd ea a3 52 be f1 b2 1c be 44 30 a1 bd
       -0.04499143 -0.20570341 -0.15302636 -0.07870534
000120 ff 35 d7 bd ee 2d a8 3c 3a 79 87 bc 40 15 d8 be
       -0.10508346 0.020529713 -0.016537298 -0.42203712
000130 3d 10 a8 3d 1a 56 a0 bd ed c1 3e bd f7 5c 76 3d
       0.08206222 -0.078289226 -0.04657166 0.060147252
000140 b7 e2 15 be d2 b4 30 3d be 24 40 be d9 69 8d 3e
       -0.14637266 0.043141194 -0.18764016 0.27619818
000150 b7 65 b4 bd f9 52 54 3e f4 e7 d5 3c dd f2 84 3d
       -0.08808463 0.20734777 0.02611158 0.06491635
000160 41 47 8d bd 5a 32 87 3c 01 19 21 bc 0c 30 c6 3c
       -0.06898356 0.016503502 -0.009832622 0.024192832
000170 90 20 80 bd ba 12 75 3d 1e b2 ea 3d 50 23 df bb
       -0.06256211 0.059832312 0.114597544 -0.0068096295
000180 5f a5 a6 3c a6 05 14 bd 1c 94 aa be 9b 3c 91 3d
       0.020342527 -0.0361382 -0.33316123 0.07091638
000190 1f 55 99 bc ce 27 ef 3c 64 25 13 bd fa 46 40 be
       -0.018717347 0.029193785 -0.03592433 -0.18777075
0001a0 be f4 c9 3c 56 28 c9 3d 0b 2b d6 bd f8 28 da bd
       0.024652835 0.098221466 -0.104574285 -0.106523454
0001b0 3b f6 3e 3e f4 95 67 3e 17 3e 41 bd 08 ad 54 3c
       0.18648617 0.22615796 -0.047178354 0.012980707
0001c0 da f0 08 3e 49 ad 9b bd 7c b7 ac bd c0 8b 53 3d
       0.13373128 -0.07601411 -0.08433434 0.051646948
0001d0 52 b7 95 bd 7b a7 c7 bd d9 f0 8c 3b ee a9 a6 3c
       -0.07310356 -0.09748741 0.004301172 0.0203447
0001e0 e3 f7 aa 3d d6 09 cb 3d 60 da 15 3e 4d 80 d6 bd
       0.08348062 0.099139854 0.14634085 -0.1047369
0001f0 8c ef 69 bd e1 43 ba 3d 20 d8 bd bc 91 55 29 bc
       -0.057113215 0.09094978 -0.023174345 -0.010335342
000200 36 3f 7a 3d 19 ab 10 3d 52 e9 4e bd 56 63 93 bd
       0.06109544 0.03531942 -0.05051548 -0.07196681
000210 74 db ef bc 0a c7 12 bd 29 01 16 be b0 2f a4 be
       -0.029279448 -0.03583435 -0.1464888 -0.32067633
000220 d1 ce d3 3d a0 e9 ab 3d 4a 38 52 be 91 b9 08 be
       0.103421815 0.0839417 -0.20529285 -0.13352038
000230 fd 32 6f 3e 96 17 38 3e a9 02 04 bd 0a 68 3a bd
       0.23359294 0.17977747 -0.0322291 -0.045509376
000240 2c 96 e6 3c ad 22 7d 3d e3 9e 05 3e 58 ef f5 3d
       0.02814778 0.061800648 0.13048892 0.12008542
000250 db 51 9d bc 6b de 30 3d 83 14 a2 3c 5d 62 05 be
       -0.01920407 0.043180864 0.019785171 -0.13025804
000260 1d c1 41 3c 86 c7 d8 3d cf 70 c9 bd a6 cd e1 3d
       0.011825827 0.10584931 -0.0983597 0.110255525
000270 50 da 72 3d 76 df 43 3d bd 6f 98 3d 82 ec db bc
       0.05929023 0.04782053 0.074431874 -0.026846174
000280 e4 b8 65 bd 60 92 82 3b 3a 55 e9 3c 9a 75 30 bd
       -0.05608453 0.0039847344 0.028483022 -0.043080904
000290 6b de 96 be 3e 12 82 be a5 2a ec bd 66 dd 9a bb
       -0.29466566 -0.25404543 -0.11531571 -0.0047261
0002a0 8e 76 66 bd ab 54 c6 bd 86 17 86 3d 81 b2 89 bd
       -0.056265406 -0.09684118 0.065474555 -0.067235
0002b0 6d af 21 3e da 0a 1c 3c bd 47 0d 3d 2e 35 15 3d
       0.15789576 0.009524072 0.034492243 0.03642767
0002c0 1a 56 35 3d 90 6d a6 3a 63 64 8f be 86 34 17 3d
       0.044271566 0.0012697447 -0.28006276 0.036915325
0002d0 b1 1b ae 3b cf 05 9b bd 1a f0 ce bd 69 ea 05 bd
       0.0053133597 -0.07569467 -0.101043895 -0.032694254
0002e0 95 c0 d6 bd 60 20 18 3e 3e c8 0b 3d 71 80 4c 3d
       -0.10485951 0.148561 0.034126513 0.04992718
0002f0 36 e5 32 bc d8 00 a5 bd ba 0d ff bd b5 5a 0e bd
       -0.010918906 -0.080568016 -0.1245379 -0.034754474
000300 22 c8 71 3d 37 00 13 bd 7e e5 3e bd 2e d8 2d bd
       0.059028752 -0.035888877 -0.04660558 -0.042442493
000310 94 ae 56 bd c4 6e 1a 3d 4c cb b7 3d d8 ec 00 3e
       -0.052412584 0.03770329 0.08974323 0.12590349
000320 6b c3 4f be e7 91 3e 3e c2 5a 1a be 0c fd bd bd
       -0.2028939 0.18610345 -0.15073684 -0.092767805
000330 0b 1a 5e be b7 e2 8f bd 84 9f 1b 3d 5c 26 37 bc
       -0.21689622 -0.07025664 0.037993923 -0.011178579
000340 1a 35 a3 3b e8 a6 68 3d 33 d7 0c bd 14 78 ed bd
       0.0049806954 0.0567998 -0.034384917 -0.11595169
000350 8e e3 16 bd 92 bc 16 3e 5f 4c f6 bd 8e e4 b6 bd
       -0.036838107 0.14720371 -0.120262854 -0.08930312
000360 7b d9 91 3d b6 03 29 3e a7 ce 53 bd f3 4d 82 bd
       0.07121559 0.16505322 -0.05171075 -0.06362524
000370 82 a6 1c ba fb b1 87 bd ca f6 32 3d c6 d8 d9 bc
       -0.00059757393 -0.06625744 0.043692388 -0.026592623
000380 3b 81 5f 3d 9b 5d bc 3c 61 08 82 bd 90 3d 40 bc
       0.054566603 0.022993853 -0.063492544 -0.011733428
000390 52 70 5f 3d 40 74 fd 3a 91 dd 70 3d 23 03 0b 3e
       0.054550476 0.0019337013 0.058805052 0.13575415
0003a0 11 34 4e bd 65 7e 22 3d b6 08 24 3d 7c 27 9b b9
       -0.050342623 0.03967132 0.04004737 -0.00029593322
0003b0 d7 44 16 3d ff 14 53 3e 95 17 73 3d f0 46 81 3e
       0.036686745 0.20613478 0.05934866 0.25249434
0003c0 73 5f 0f 3e 9d 58 9f 3b 5d 89 81 bd aa 8f 8d 3d
       0.14001255 0.0048628584 -0.06325028 0.06912167
0003d0 af b8 46 be a7 cc 82 3c 17 e9 39 bd 99 07 4e 3d
       -0.19406389 0.015966726 -0.045388307 0.050300214
0003e0 55 72 af bd a4 25 1d bd d2 c8 ec 3c cc 57 6e 3d
       -0.08566729 -0.038365975 0.028904352 0.0581892
0003f0 98 f2 4b bd 83 c8 03 3e 56 73 d8 3d 86 c0 bc bc
       -0.049791902 0.12869458 0.105688736 -0.023041021

fc1.bias f4 [256]
000000 ff 01 0a 3e a1 99 29 be cd ad 51 bd 77 51 85 3d
       0.13477324 -0.16562511 -0.05119114 0.06509679
000010 8d 49 ee 3d 57 60 bc 3d 64 6d c8 bd 93 d4 4d 3d
       0.116351224 0.09198063 -0.097864896 0.050251555
000020 59 87 19 3e 82 41 66 bd f9 a1 3c bd be df b4 bc
       0.14993037 -0.056214817 -0.046052907 -0.022079345
000030 55 09 1d bd 45 f2 1a 3e e8 d2 82 bc f6 bb 21 be
       -0.038338978 0.15131481 -0.015969709 -0.15794358
000040 64 ec be 3c b2 6e c4 bc ba f1 ce 3d 47 aa 1f 3e
       0.02330608 -0.023978565 0.101046994 0.155923
000050 4a 34 dc bd 0c 17 8b bd 7c 85 93 bc d5 37 05 3e
       -0.10752161 -0.06791505 -0.018007986 0.1300958
000060 13 1e 30 be d3 27 eb 3d 42 42 20 3e ed 23 19 3d
       -0.17198972 0.11482205 0.15650275 0.037387777
000070 62 f9 bb bd ba 5e 2f 3d f7 f5 e2 bd cf 6c db 3b
       -0.09178425 0.042814948 -0.1108207 0.0066963206
000080 2d 5b 1a 3e 4b c2 0e be b9 e3 1d 3e ab 40 ad 3d
       0.15073843 -0.13941304 0.154189 0.084596
000090 7c 78 dd 3d 8b c6 02 be 83 de 45 bd 1e 31 05 3e
       0.10813996 -0.1277105 -0.048307907 0.13007018
0000a0 72 f7 04 be 0b 48 19 3e ef d6 54 bd 5a 99 27 be
       -0.12985018 0.14968888 -0.05196279 -0.16367093
0000b0 c6 23 06 3e 0f c8 15 3d 46 62 6d 3c 57 e3 95 39
       0.13099584 0.036567744 0.014488762 0.00028588876
0000c0 ff 64 b6 bd 08 6b 66 bd d7 89 0c 3d dd f2 da 3c
       -0.08905982 -0.056254417 0.03431114 0.026727134
0000d0 cc 37 49 3d 90 a8 5a 3d a6 01 d9 3d 17 f2 e4 3d
       0.049125478 0.05338341 0.105960175 0.111789875
0000e0 75 92 bf 3d 52 59 de 3c 19 ad cd bd 62 4c 15 3e
       0.09354106 0.0271422 -0.100427814 0.14579919
0000f0 f5 29 41 3d 01 c9 c1 bd 61 ad 14 be 54 c5 8a bd
       0.047159154 -0.094621666 -0.14519264 -0.067759186
000100 7b 59 31 3e 64 c5 f3 3d cd db b0 bc 35 e2 e9 bd
       0.1731929 0.11902884 -0.021589184 -0.11420099
000110 0c 4c f2 3b d3 5d 29 bd bd 94 86 3d 0f 68 20 be
       0.0073943194 -0.041349243 0.06571338 -0.15664695
000120 d3 cd 82 3d 33 3c b5 3d ce 06 1c 3e 22 7f 1b 3e
       0.06386914 0.08849373 0.15236971 0.15185216
000130 3a dc 85 bd 1e dd 50 bd 19 c0 2e 3e 44 73 d8 3d
       -0.065361455 -0.050992124 0.17065467 0.1056886
000140 1f a7 96 bc 45 91 1a bd 44 98 b5 bd d2 e2 93 bd
       -0.018390236 -0.037736196 -0.08866933 -0.07220997
000150 0a cb 9b 3d 20 bb 76 3c c5 11 3f 3d 5c af 68 3c
       0.07607086 0.0150592625 0.046647806 0.014201965
000160 f6 b3 2a 3e 3a 21 27 3d f0 95 2e be c4 0c 99 3d
       0.16670212 0.04080317 -0.17049384 0.07473138
000170 ff 29 ce 3d e2 d1 da bd 0d b3 98 3d b8 a5 5a 3d
       0.10066604 -0.10684563 0.07456026 0.053380698
000180 17 26 9e bc e4 61 25 be c1 75 76 bd ba 4f 94 3d
       -0.019305272 -0.16150624 -0.060170893 0.07241769
000190 ce 63 17 3e 2a f8 9e 3d 1d 77 aa bd 76 f5 d2 bd
       0.14784166 0.07762177 -0.083235 -0.10300724
0001a0 37 fc cb bd 4d 0a fa 3d 86 fd 94 bd e1 59 01 be
       -0.099602155 0.12208996 -0.07274918 -0.12631942
0001b0 db 9d da bd d6 e8 31 3d 54 98 a4 3c 44 0e 1e 3e
       -0.1067464 0.04343494 0.020092167 0.1543513
0001c0 14 f7 92 3b 2f 28 e6 bc ae f8 a7 bd f8 13 d6 bd
       0.0044850204 -0.028095333 -0.08201729 -0.104530275
0001d0 40 54 b5 bd 88 d8 fb 3d 3e 29 c4 bc ef 9c b5 bd
       -0.0885396 0.122971594 -0.023945447 -0.08867823
0001e0 9f a8 f7 bc b2 6f 03 be 6b 11 f1 bd b1 ce b4 bd
       -0.030231772 -0.12835577 -0.117709 -0.08828486
0001f0 98 d4 9f 3c ef bf ae bd 63 e6 03 be 69 70 b5 3c
       0.019510552 -0.08532702 -0.12880854 0.022148328
000200 21 ce e8 3c b2 f4 8d 3d 11 36 06 bc 86 2b 87 bd
       0.028418602 0.069314376 -0.008191601 -0.06600098
000210 08 de ce 3d f5 21 33 bc d9 93 fb 3d 81 69 c9 bd
       0.10100943 -0.010933389 0.12284059 -0.098345764
000220 94 29 c0 3c 63 df 1b 3e e2 cd b7 bc 31 f7 97 bd
       0.023457326 0.15221934 -0.02243704 -0.07420195
000230 07 06 d9 3c ce 97 d3 bd 11 ba 67 3d ab ba cb bd
       0.026492132 -0.10331689 0.05657393 -0.099477135
000240 75 b0 26 3e 79 ce 20 3e 75 b6 91 3c cc 6d ab 3d
       0.1627825 0.15703763 0.017787198 0.083705515
000250 b5 76 4c bd 1d 9e 1c 3d 4a e2 2b be 4b 1d 3b ba
       -0.049917895 0.038236726 -0.16785541 -0.0007137849
000260 41 49 18 3d ed 33 9f 3d 8a ea e6 3d a0 0f 7d bc
       0.037179235 0.07773576 0.112752035 -0.01544562
000270 3c 81 1c be 9d bc f2 bc 51 95 7d 3c fd 34 d1 3d
       -0.15283674 -0.029630953 0.015477494 0.10215185
000280 69 fb 1c be bc d6 0b 3e ef af 06 3e 36 e3 a7 3d
       -0.1533028 0.13656133 0.13153051 0.08197634
000290 9a e6 2b be f1 e2 35 bc 14 6d 75 3d d1 7d cd bd
       -0.16787186 -0.01110147 0.059918478 -0.10033763
0002a0 9f 39 96 3d b1 3f 81 bd 3c ac 00 be 8a 19 9f 3c
       0.07335209 -0.06310976 -0.12565702 0.019421358
0002b0 0f d4 af 3c ca f4 4c 3d ee 8f 97 bd 73 bd f0 3d
       0.021463422 0.050038137 -0.07400499 0.117548846
0002c0 da 0a 35 bd 27 58 29 3e f3 ec cf bd 1a b9 b0 bc
       -0.044199802 0.16537534 -0.10152616 -0.021572638
0002d0 0e 64 6a 3d 2b 37 e1 3d c9 74 15 3e 2f e9 43 3d
       0.057224326 0.109968506 0.14595331 0.047829803
0002e0 6f d3 d4 bd 7f f9 a0 3d 57 9a 7c bd 4a e1 23 3e
       -0.1039189 0.078600876 -0.061670627 0.1600391
0002f0 d0 f3 14 bd 74 7e 0c bd c6 80 e3 bc 06 b7 00 3e
       -0.03636533 -0.034300283 -0.027771365 0.12569818
000300 74 a0 93 bd d0 be 99 bd 66 9b 2a be 4b ee f9 bd
       -0.072083384 -0.07507098 -0.16660842 -0.12203654
000310 d6 26 06 3e 64 d5 1e be 1c d1 a4 bd 3a c3 f7 3b
       0.13100752 -0.1551109 -0.08047697 0.0075611146
000320 af aa b7 bd 8e 31 6e bc 84 fc 03 3e ce 3b db 3d
       -0.08968102 -0.014538182 0.12889296 0.10704766
000330 f9 84 0a 3d 02 31 30 bb 71 c6 f4 bd d2 a7 8b 3d
       0.03381822 -0.002688468 -0.11951912 0.068191186
000340 ab e0 9b 3d 0a 6d 7f bd f3 bf ba bd bc 8f b9 37
       0.076112114 -0.062359847 -0.09118643 2.212065e-05
000350 0f 22 0d 3e 7b b8 f3 bd 61 c5 aa 3d 07 7c e3 bd
       0.13782524 -0.11900421 0.08338428 -0.11107641
000360 94 97 21 bd 08 c9 2a be 84 47 22 3e 30 f3 bf 3d
       -0.039451197 -0.1667825 0.15847594 0.09372556
000370 cc e2 88 bc 5b 80 12 be 45 95 08 be f5 d6 4c bd
       -0.016709708 -0.14306776 -0.13338192 -0.050009686
000380 e0 48 14 3d c3 b0 04 3e 13 7c a5 3d 57 af 23 3e
       0.03620231 0.12958054 0.08080306 0.15984856
000390 68 fd a2 3b 6d 44 2b 3e e2 70 a0 3d d2 bc 1c 3e
       0.004974056 0.16725321 0.07834031 0.15306404
0003a0 af 06 2f be d6 7b 73 3c bf b5 8e 3d d3 8a aa 3c
       -0.17092393 0.014861068 0.06968259 0.02081815
0003b0 b7 16 27 3e 46 8e 60 3d a5 9e 30 3e 65 90 30 be
       0.16317259 0.054823183 0.17248018 -0.17242582
0003c0 27 8c 28 3d 3e 62 ef bd 26 1b 65 3d 94 fe 2e be
       0.041149285 -0.1168866 0.055934094 -0.17089301
0003d0 51 71 00 be 33 3d 29 3e e5 6c 7b 3c 5d f3 0e 3e
       -0.12543227 0.16527252 0.015345787 0.13960023
0003e0 c2 3c 2a be 06 c9 12 3d 16 72 46 bd 71 52 5a bd
       -0.1662474 0.035836242 -0.048448645 -0.05330128
0003f0 e3 25 af 3d 6c be c1 bd 92 98 f2 bd 77 b2 68 ba
       0.08552148 -0.09460148 -0.11845507 -0.0008876691

bn1.weight f4 [256]
000000 9c 91 3e 3f e9 98 ba 3e df 1d 82 3f d5 75 99 3f
       0.7444093 0.36444786 1.0165366 1.1989084
000010 34 44 9b 3f 45 37 91 3e 9a 33 83 3f 45 e1 f3 3e
       1.2130189 0.2836248 1.0250123 0.47632805
000020 59 f7 3f 3f cf 2d 68 3f 73 ab 74 3f 1b 3e 8a 3f
       0.749868 0.906949 0.9557411 1.0800203
000030 ed 4d a2 3f 71 d6 10 3e ce de 89 3f 02 ec 8f 3f
       1.2680031 0.14144303 1.077112 1.1243899
000040 ac 5e 15 3f fc 25 f4 3e 0f dd 67 3e a2 c1 75 3f
       0.5834758 0.4768523 0.22642921 0.95998585
000050 8f 28 21 3f 04 31 86 3f c6 c7 75 3f 1b a5 80 3f
       0.6295251 1.0483708 0.96007955 1.0050386
000060 d7 46 70 3f 46 c0 08 3f ef d4 16 3f 97 b4 6a 3e
       0.93858093 0.53418386 0.5891866 0.22920452
000070 72 cb a1 3e d2 fc 3d 3f 85 e7 97 3f 59 56 8d 3f
       0.3160053 0.742139 1.1867529 1.1041976
000080 16 2c 89 3f 18 45 a5 3f 6f eb 40 3f 3a 83 46 3f
       1.0716579 1.2911711 0.75359243 0.77543986
000090 fa 50 d5 3f 8d 8f 72 3f 42 2e 95 3f cb 5b a5 3f
       1.6665337 0.9475029 1.1654742 1.2918638
0000a0 4d 2f b9 3f f1 16 5b 3f a5 71 3f 3f 26 e0 8b 3f
       1.446756 0.8558188 0.7478278 1.092778
0000b0 c8 0b 7e 3f 2c 12 8c 3f 65 66 95 3e 88 43 1d 3f
       0.99236727 1.0943046 0.29179683 0.6143117
0000c0 c7 36 3d 3f 2b cd 9b 3f 47 49 91 3f 13 64 ee 3e
       0.7391171 1.2171987 1.1350487 0.46560726
0000d0 da f7 6c 3f ac f9 66 3f 4c 18 c1 3f 46 de 8e 3f
       0.9256569 0.9022472 1.508554 1.1161582
0000e0 da f9 11 3f 27 e5 b3 3f d2 f0 c2 3f b8 2d 61 3f
       0.5702187 1.4054307 1.5229743 0.87960386
0000f0 93 56 3c 3f 8d 62 3b 3f 5f 38 70 3e 48 78 16 3f
       0.735696 0.7319725 0.23459004 0.58777285
000100 a6 58 00 3f ae ea af 3f f4 5a 0c 3f 4f 29 81 3f
       0.50135267 1.3743494 0.54826283 1.0090731
000110 98 59 5e 3f 63 f0 b2 3f 5e d6 1f 3f e3 d8 c0 3f
       0.8685546 1.397961 0.62436473 1.5066189
000120 06 cc a7 3f ea 7b 49 3f d5 57 f9 3e 03 4c 67 3f
       1.3109138 0.787047 0.48699823 0.9035036
000130 2b ac 3b 3f d3 65 38 3e c2 26 a8 3f 1e 07 ab 3f
       0.7330958 0.18007593 1.3136828 1.3361547
000140 cc 67 c9 3f b2 79 27 3f d3 82 ac 3f 09 df a5 3f
       1.5734801 0.6542007 1.3477424 1.295869
000150 e1 30 c0 3f 59 42 46 3f 4e af 9c 3e 80 5f 42 3f
       1.5014917 0.7744499 0.30602497 0.7592697
000160 4d 7e ba 3f 27 89 97 3f 0c 45 96 3f 4d de ff 3e
       1.4569794 1.183873 1.1739821 0.4997429
000170 75 76 a1 3f 7a d5 96 ba 63 08 69 3f 2f 3c 0e 3f
       1.2614275 -0.0011507713 0.9102842 0.5556058
000180 5a 2f 87 3f b8 22 69 3e 48 64 5f 3f 1c 45 31 3f
       1.0561326 0.2276715 0.8726239 0.6924608
000190 4f 8d 0e 3f 39 80 15 3f 59 f5 3c 3f 5d d4 ab 3f
       0.5568437 0.5839878 0.7381187 1.3424183
0001a0 84 30 a7 3f cd 7c 0a 3f df 0f 4c 3f e1 f7 2e 3f
       1.3061681 0.5409668 0.7971172 0.68346983
0001b0 d1 dd d8 3e 05 ff 96 3f 90 a6 64 3f ac 2c 96 3f
       0.42356732 1.1796576 0.89316654 1.1732383
0001c0 a6 81 8a 3f c2 4d 8a 3f 90 25 71 3f 65 21 9c 3f
       1.0820816 1.080498 0.9419794 1.2197691
0001d0 36 d6 a1 3f 52 af 5b 3f 36 79 99 3f 83 bc cb 3f
       1.2643497 0.8581439 1.1990116 1.5916904
0001e0 22 64 29 bf 1c 7e 20 3f fd 13 9c 3f b1 68 23 3f
       -0.66168416 0.6269243 1.21936 0.6383162
0001f0 6e b5 26 3f 47 ec 00 3e 6f 6b e2 3f 03 43 7a 3f
       0.6512059 0.12590133 1.7689036 0.977585
000200 51 52 71 3f eb bd 21 3f 24 58 74 3f ce fa d9 3e
       0.9426623 0.63180417 0.9544699 0.4257416
000210 fa 06 8d 3f 45 b3 a5 3e b1 67 6b 3f 5d 40 b3 3f
       1.1017754 0.32363334 0.91955096 1.4004017
000220 dc dc dd 3e a8 ca a5 3e 11 91 56 3f b2 c7 c0 3f
       0.43332565 0.32381177 0.83815104 1.5060942
000230 81 51 23 3f 38 95 21 3f 3a 14 4c 3f f6 02 45 3f
       0.6379624 0.63118315 0.79718363 0.76957643
000240 36 4f 77 3f 54 33 91 3f cb b5 5e 3f 6d 25 2c 3f
       0.9660524 1.1343789 0.86996144 0.6724461
000250 99 89 1b 3f 6b dd 95 3f 66 e0 26 3f ac 98 7a 3f
       0.6075683 1.1708196 0.65186155 0.9788921
000260 e8 65 51 3f f5 8e 64 3f 41 9f 8d 3f 8e d5 21 3f
       0.8179612 0.89280635 1.1064225 0.63216484
000270 49 34 09 3f 3c 53 86 3f 89 f6 65 3f fb 86 79 3f
       0.53595406 1.0494151 0.8982931 0.9747159
000280 07 40 0c 3f a9 61 17 3f ad 36 b0 3f 3d d7 6c 3f
       0.547852 0.5913339 1.3766686 0.9251593
000290 bb 8f aa 3e 87 26 0f 3f 63 5b fa 3e 11 c4 5c 3f
       0.33312783 0.55918163 0.48897848 0.86236674
0002a0 b3 08 51 3f f5 40 72 3f 21 5d 34 3f 7f 9e a2 3f
       0.816539 0.94630367 0.70454603 1.2704619
0002b0 58 44 db 3f 32 14 af 3f a8 fd 02 3f 36 b4 27 3f
       1.7130232 1.3678038 0.511683 0.65509355
0002c0 f0 8b 97 3f fa 42 6d 3f 01 21 cd 3e 27 5f 8b 3f
       1.183958 0.92680323 0.40064242 1.0888413
0002d0 4e 59 4a 3f 71 82 98 3f 09 12 6d 3f f1 70 86 3e
       0.7904252 1.1914808 0.92605644 0.26258042
0002e0 b6 ab 0c 3f 8a bd 4e 3f f7 65 ba 3f 3b 29 52 3f
       0.5494951 0.80757964 1.4562367 0.8209416
0002f0 ff 43 88 3f a7 ce 10 3f f5 a6 76 3f 0a 66 62 3f
       1.0645751 0.56565326 0.96348506 0.8843695
000300 b8 e3 db 3e c8 7c 12 3f 51 de 64 3f 02 cf a1 3f
       0.42947173 0.5722165 0.8940173 1.2641299
000310 2d a5 5d 3f 86 f4 74 3f 32 1c 83 3f 44 2b 6f 3f
       0.86580163 0.95685613 1.024298 0.93425393
000320 48 4c 8a 3f 38 ed 88 3f 46 56 16 3f fd 0b 1a 3f
       1.0804529 1.0697393 0.5872539 0.6017454
000330 31 01 3c 3e d4 08 a4 3f 3d b3 13 3f d0 21 84 3f
       0.1835983 1.2815194 0.5769537 1.0322819
000340 a5 d5 62 3f 1a b9 a5 3f 76 f9 61 3f 41 8e 90 3f
       0.88607246 1.2947114 0.8827127 1.1293412
000350 d2 15 1c 3f 11 65 98 3f 03 63 82 3f a1 5f 3d 3f
       0.60970795 1.1905843 1.0186466 0.73974043
000360 b7 4b f3 3f 60 51 98 3f f4 fe 3f 3f 9f 7a d0 3e
       1.9007481 1.1899834 0.749984 0.40718552
000370 34 97 92 3f 24 73 a4 3f 0d 2c b4 3f 91 09 a2 3f
       1.1452394 1.2847638 1.4075943 1.265917
000380 73 7d 73 3f a8 ef 30 3f 1a dd 1a 3f e1 b5 47 3f
       0.95113295 0.69115686 0.60493624 0.780119
000390 34 81 4c 3f 2b ed b3 3f 6c 2c 36 3f 37 23 be 3e
       0.7988465 1.4056753 0.7116153 0.37136242
0003a0 59 6c b0 3e cb 64 c4 3f 52 dc 64 3f 3e a1 b4 3f
       0.34457663 1.534326 0.8939868 1.4111707
0003b0 bc 7d 94 3f b9 ca 86 3f 35 27 14 3f d4 98 a1 3f
       1.1600871 1.0530616 0.57872325 1.2624764
0003c0 0b 61 f2 3f 2a 90 80 3f e6 ac 39 3f 84 0b 67 3f
       1.8935865 1.0043995 0.7252945 0.90251946
0003d0 b4 c3 55 3f 11 b4 02 3f 42 6c af 3e 21 fb 07 3f
       0.83501744 0.5105601 0.34262282 0.5311757
0003e0 be 04 24 3f 07 c8 e5 3d e9 cc ae 3f ae c4 84 3f
       0.64069736 0.11219793 1.3656284 1.0372522
0003f0 44 c7 2c 3f 3d 01 ff 3e 26 da 2a 3f f8 8d 8a 3f
       0.67491555 0.49805632 0.6673912 1.0824575

bn1.bias f4 [256]
000000 a8 e0 c1 be 10 63 1e bc 61 9b fc be a7 9f fa bd
       -0.37866712 -0.009667173 -0.49337295 -0.122374825
000010 f9 52 c7 3d be c6 0c 3f 49 1a b5 bd f3 6c 08 3e
       0.09732623 0.54990757 -0.08842904 0.13322811
000020 01 b5 43 3f 1b 44 16 3f 41 b4 ad 3c 8e 64 53 3e
       0.76448065 0.5869767 0.021204116 0.20643827
000030 d1 47 c0 be a8 e2 09 3f 68 fb f1 3d d2 e1 06 3e
       -0.37554792 0.53861475 0.1181553 0.13172081
000040 1b d5 48 be 03 fe da be 92 14 d7 be 94 3b 11 be
       -0.19612543 -0.4277192 -0.4200788 -0.14182884
000050 b8 fb a5 3e 88 df 50 bd 95 dd 77 bd 06 bb 13 3e
       0.3241861 -0.050994426 -0.06051405 0.14426813
000060 63 34 ad 3e cb 17 46 be 54 bc 06 3f 85 e1 e8 be
       0.3382903 -0.19345014 0.52631116 -0.45484558
000070 4c c8 08 be 5b 7f da be 13 ae 79 bd c3 a2 01 be
       -0.13357657 -0.4267529 -0.060957026 -0.12659745
000080 b1 d8 07 3e 3c 87 3d 3c 0f 58 6f be 54 7c 40 bd
       0.13266255 0.011567887 -0.23373435 -0.04699357
000090 9f 29 2b 3e f8 2b df 3d 38 3c 8c 3e 44 9d c6 3d
       0.16715096 0.10897058 0.27389693 0.09697965
0000a0 0f 08 43 3e 6d 29 3a 3e f4 3e 2e 3f fc 30 9b bd
       0.19046043 0.18179865 0.6806481 -0.075777024
0000b0 b0 87 cd bc ae 81 80 be 11 fe eb be c0 c3 97 be
       -0.025089115 -0.25098938 -0.46092275 -0.29641533
0000c0 f9 18 9a be 7b d0 23 be a8 f7 a9 3e ab fc b3 3e
       -0.30097178 -0.15997498 0.3319676 0.35153708
0000d0 42 96 05 be 73 ed 3b be 07 91 89 bd 87 a8 5c 3c
       -0.130456 -0.18352298 -0.06717115 0.013467914
0000e0 b5 97 d4 3e 15 b0 34 be 40 aa 87 3d 66 1f 59 be
       0.41521993 -0.17645295 0.066242695 -0.21203384
0000f0 93 d1 fe 3e fb a6 7e be 89 b3 8a be 6d 3e 33 3e
       0.49769267 -0.24868385 -0.270901 0.17504282
000100 61 76 b2 be 6a 88 71 3d e9 11 d1 be 57 cb ec 3c
       -0.3485594 0.058967985 -0.40833977 0.028905554
000110 72 ad 9e 3c 15 b3 a2 bd 1e 9d 82 3e 81 52 c0 be
       0.019369815 -0.079443134 0.25510496 -0.37562945
000120 26 fe e0 bc 1b bd 0b bc c5 3a 81 3d eb 52 02 be
       -0.027464937 -0.008528973 0.063100375 -0.12726943
000130 7b 28 cd be aa 26 18 3f 98 12 1c 3e e2 5d 6b 3e
       -0.40069947 0.59433997 0.15241468 0.22985032
000140 1b eb ec bd fb 3d 60 3e 46 ae 9e bc 27 5b eb 3c
       -0.1156828 0.21898644 -0.01937021 0.028729988
000150 dd 4e 80 3d f1 88 b5 3e be 3d 03 3f bd 3b da 3c
       0.06265042 0.3545604 0.51266086 0.026639814
000160 cb b3 23 3e 39 1e 09 bd 27 bb b3 3d 86 6c 1a bf
       0.15986554 -0.03347609 0.08775931 -0.60321844
000170 71 7b 80 be d2 b3 04 3f 0b f7 14 be d5 f8 7b be
       -0.25094178 0.51836884 -0.14547364 -0.2460664
000180 71 02 dd bd e2 e8 37 3f a8 57 3f 3e c2 34 0c bf
       -0.10791481 0.71839726 0.18685782 -0.54768
000190 40 d7 e8 3e 2e 62 71 3e 45 87 ce 3c de bc 98 be
       0.45476723 0.23572609 0.025210986 -0.29831594
0001a0 45 3d cb 3d 47 49 7f 3e f5 e4 d3 bc 57 88 0a bf
       0.099237956 0.24930297 -0.025866011 -0.5411429
0001b0 68 78 15 bf 7f 56 17 bf 1e 46 c3 be 50 27 f5 bc
       -0.5838685 -0.5911636 -0.38139433 -0.029925972
0001c0 ce 00 09 3d 5f 5f a0 be e8 4c e1 3e 39 db 9a be
       0.033448033 -0.31322762 0.44003987 -0.3024538
0001d0 d0 96 07 3e 9b d5 af bd 93 9e 0b be 3d 2d 4b 3e
       0.13241124 -0.08585664 -0.1363471 0.19841476
0001e0 69 02 b5 3e 29 60 92 3e 3c 17 2a be 10 3f 67 be
       0.353534 0.2858899 -0.16610426 -0.2258265
0001f0 e1 50 18 3f fb 35 08 3f 98 7c 82 3e ec d0 94 3e
       0.5949841 0.5320737 0.25485682 0.29065645
000200 b6 3b 50 bd 47 b6 83 be af d2 1c 3e f9 80 b6 3e
       -0.050838195 -0.25725004 0.15314744 0.35645273
000210 4e 76 5e 3e 08 ba f4 3d ac 3e 88 3e 37 b3 6b bd
       0.21724817 0.11949545 0.26610315 -0.05754396
000220 2f b0 86 be 1f 98 0f bf 1f d8 4b 3e 92 95 77 3d
       -0.26306292 -0.56091493 0.19906662 0.060445376
000230 da 5b 18 bf 6b 17 87 be 6b 2d 02 bf 06 11 0f 3f
       -0.59515154 -0.26385054 -0.5085055 0.5588535
000240 82 c4 3f be 08 50 d1 be 9b 17 34 be 44 77 ac 3d
       -0.18727306 -0.40881371 -0.1758713 0.084211856
000250 61 01 ee 3d 22 2f f6 3d dc a4 f2 3e 00 5e 0e 3e
       0.11621357 0.120207086 0.47391403 0.13903046
000260 40 97 07 bf 4d 62 f6 bd bb d3 28 3e 19 a0 9e 3c
       -0.52965164 -0.12030468 0.16487019 0.01936345
000270 29 0d d8 be a5 5c fd 3e 4f dc 8e 3e 2e 76 a2 3e
       -0.4219754 0.49484745 0.27902457 0.3173079
000280 9d d0 7a 3e a8 a3 f9 be 7b 9d 04 3e 2c 17 f5 3e
       0.24493642 -0.48757672 0.12950699 0.4786924
000290 95 c5 29 3f 0d 08 8d 3c 84 fb 85 be 81 d4 66 3e
       0.6631711 0.017215753 -0.26168454 0.22542001
0002a0 66 11 e3 3e ca 10 97 3e d4 ab 63 be a9 c1 5b 3e
       0.4434921 0.29504997 -0.22233516 0.21460594
0002b0 93 a5 4e 3e 74 1b 0b 3e 88 2d d6 3e e8 19 8b 3d
       0.20180349 0.13584691 0.41831613 0.067920506
0002c0 34 90 cb bd e1 0d c9 3e 40 7c 79 3d 61 da d7 3d
       -0.09939614 0.392684 0.06090951 0.10539699
0002d0 c8 24 a9 bd b2 00 89 3e 33 2b 32 3e ff 0b eb be
       -0.082589686 0.26758343 0.17399292 -0.4590759
0002e0 bd 61 df bd 95 9e 56 bd 55 17 9b be c6 68 84 bd
       -0.10907314 -0.05239733 -0.30291238 -0.064652964
0002f0 d0 97 a9 3e 88 0a cb 3e b2 95 2e be 5c 7a 55 3d
       0.33123636 0.39656472 -0.17049292 0.052118644
000300 68 cf 12 3f 75 46 18 3f f0 dd d8 bd 96 7a 3c 3e
       0.57347727 0.5948251 -0.10589206 0.18406138
000310 88 c7 7b be b9 22 c5 3e 67 3e 8b 3e 0e 1c 1c be
       -0.24587834 0.38503054 0.27196047 -0.15245077
000320 ee 24 62 bb e6 8f 87 bd e3 7e e6 be 23 ea dc 3e
       -0.0034506875 -0.06619243 -0.45018682 0.43147382
000330 e5 2b 13 3f 0d 0e 39 3e 28 1d e7 3e 71 3d 85 3e
       0.5748885 0.18071766 0.45139432 0.2602344
000340 ca 6b 59 bd 3a 94 73 bc 22 96 a4 3e 95 6f b1 3e
       -0.05308131 -0.014866883 0.32145792 0.34655443
000350 e6 d6 6c bd ea 46 b8 3c 22 20 29 be d6 43 81 be
       -0.05782213 0.022494752 -0.16516164 -0.25247067
000360 ab af b6 3d 30 01 65 3e 31 c5 43 be 30 ec 2c 3f
       0.08920225 0.22363734 -0.19118191 0.67547894
000370 6b 2f f9 be ec e1 a0 be d5 65 5b 3e 70 c3 1b 3d
       -0.4866899 -0.31422365 0.21425565 0.03802818
000380 13 38 ee be 7a cc 27 3d e7 6a ef be 48 6a 56 3c
       -0.46527156 0.04096649 -0.46761248 0.013086863
000390 37 4e b4 3e 35 44 70 3d 7b c2 13 be d3 ce 01 3f
       0.35215923 0.058658797 -0.14429657 0.50706214
0003a0 61 a8 e0 3e 8f a7 25 be d0 f5 55 3e f2 6d b9 3d
       0.43878463 -0.161772 0.20894551 0.090541735
0003b0 c2 d4 d1 3d 63 e2 9d 3d b4 5e a7 be 97 0f aa 3d
       0.102456585 0.077091955 -0.3268944 0.08303755
0003c0 25 f3 ae 3d 21 e5 56 3e 0a 47 57 3e 49 1b 75 3e
       0.0854247 0.20985843 0.21023193 0.2393619
0003d0 31 1f c3 bd bd d9 cc 3e 62 84 05 bf 00 f4 81 3d
       -0.09527434 0.4000987 -0.52155125 0.063453674
0003e0 47 39 8f 3e a6 47 1d 3f fd c6 32 3e 14 a8 ca 3d
       0.27973387 0.6143745 0.1745872 0.098953396
0003f0 5d 87 bc be f9 d8 0c 3f ac 6a 90 be 05 74 62 be
       -0.36822024 0.55018574 -0.28206384 -0.2211457

bn1.running_mean f4 [256]
000000 b7 17 b1 be 9c 56 26 3d 58 97 cc 3e b0 ff 7c 3e
       -0.34588405 0.04060994 0.39959216 0.24706912
000010 de 3c ac be b5 bc b4 3d e5 d8 28 bd 8d 86 3b 3e
       -0.33640188 0.088250555 -0.04122247 0.18313046
000020 d8 94 9f 3d 32 16 7c 3e 8a e2 0b be 3e 0a cb be
       0.077920616 0.24617842 -0.13660637 -0.39656252
000030 05 d3 dd be ab 5f 0b 3e 25 85 cb 3e 77 c5 8a be
       -0.43325058 0.13610713 0.3975002 -0.2710378
000040 79 3f da be 69 0f 73 bf e3 fb cd 3d 81 b2 eb bc
       -0.4262655 -0.9494539 0.10057809 -0.02877164
000050 81 7d 5e 3e af 0f ae 3d 0c c9 64 bc 90 7a 34 be
       0.21727563 0.08499085 -0.013963949 -0.17624879
000060 a5 33 07 3e 48 dd 72 3e 95 06 00 3f cf 15 c1 bd
       0.13203295 0.23717225 0.50010043 -0.09427988
000070 5b 7c 7e be 32 94 16 3e 3f da 10 bf 52 29 ee bd
       -0.24852125 0.1470497 -0.5658302 -0.11628975
000080 32 2e a9 3e 03 3a 98 be a3 4f e5 bc f2 d8 29 3f
       0.33043057 -0.2973176 -0.027992075 0.6634666
000090 41 b6 92 3d e6 fb 9b 3e 3a 45 5d 3e 2e 36 f3 be
       0.071636684 0.3046562 0.21608439 -0.47502273
0000a0 81 e5 a7 be ab 33 c7 be 84 e0 0e 3f 54 5b cc 3e
       -0.32792285 -0.38906607 0.55811334 0.39913428
0000b0 c8 2c 08 bf 99 5e e3 3d 8b 76 41 be 45 e4 ca bd
       -0.5319333 0.111020274 -0.18892877 -0.0990682
0000c0 60 13 fa be 90 3d b8 bd a9 02 cb bd 5a 89 72 3e
       -0.48842907 -0.08996117 -0.09912617 0.23685208
0000d0 c5 eb 5b 3d ef 80 a6 be 86 b3 81 bd cb 38 51 be
       0.053691644 -0.32520244 -0.063330695 -0.20431821
0000e0 b4 c3 b1 be c1 7d b5 be 22 50 a4 3c 9e 84 1d 3f
       -0.34719622 -0.35447505 0.020057742 0.6153048
0000f0 5b 2c 8f 3e 50 51 b7 3d f5 49 af be 93 b9 dc 3e
       0.27963528 0.08951056 -0.34236112 0.43110332
000100 9d c6 ac be a9 5a 0e 3d 2c 6b d7 be c2 11 7b be
       -0.3374528 0.03475443 -0.42073953 -0.24518493
000110 06 cc 91 3e dc 24 86 3d cf fa 8c 3e 62 60 bd 3e
       0.2847597 0.06549999 0.27535102 0.36987597
000120 83 fb 22 3f c7 c2 47 3e e6 64 70 be 12 45 9d 3e
       0.63665026 0.19507895 -0.2347599 0.3071676
000130 57 81 07 be 9a e2 04 be 42 11 2a bd e9 dc 81 3d
       -0.13232933 -0.12977067 -0.041520365 0.063409634
000140 f1 b1 8c 3e 5d ba 28 3e 37 97 83 be d0 f5 01 bf
       0.2747951 0.16477342 -0.25701305 -0.50765705
000150 97 83 09 3e 95 3d 8f 3e ef ba 49 3e 66 20 8f 3e
       0.13429104 0.2797667 0.19700216 0.27954406
000160 c6 52 f1 3e 0a 55 a0 bd 78 2a 84 bf 7b 40 2b 3e
       0.47133464 -0.0782872 -1.032546 0.16723816
000170 1f 1c 67 3f ad cb 2e bc e2 11 9e be f9 99 a9 3e
       0.90277284 -0.010668677 -0.30873019 0.33125284
000180 c6 5a e8 3e 90 e6 61 3e f6 c7 ee be 48 6e 11 3d
       0.45381755 0.22060609 -0.46636933 0.035505563
000190 0e 9f 34 3e c9 85 58 be ca f7 82 bf 6b b7 8b 3e
       0.176388 -0.21144785 -1.0231869 0.27288374
0001a0 5a f0 1b 3d 40 d6 bb be b2 cb 23 bf ff 7b 32 bf
       0.038071014 -0.36686897 -0.6398269 -0.69720453
0001b0 08 65 2a bf fa f5 33 bf 4a 5e 67 3e 64 97 f6 bd
       -0.6656041 -0.70297205 0.22594562 -0.12040594
0001c0 68 7e e6 3e 5f 94 90 bd cd e3 73 be c2 f0 a8 3b
       0.45018315 -0.070595495 -0.23817368 0.0051556537
0001d0 f3 37 a5 be 72 e7 b5 bd f3 46 03 be a6 0f 0c be
       -0.32269248 -0.08882035 -0.12820034 -0.13677844
0001e0 4b 7c 2e 3e 31 5e de 3d 0d 0b a2 bd 46 22 1b bf
       0.17039602 0.10857809 -0.07912264 -0.6059917
0001f0 03 17 a8 3e 14 68 73 be 66 5f 2d bf 73 76 66 3f
       0.32830057 -0.23770171 -0.6772369 0.9002449
000200 88 76 14 3e 29 ca 42 3e 13 81 b2 be 4c a5 2a 3d
       0.14498341 0.1902243 -0.348641 0.041661546
000210 85 02 20 3e 85 55 14 3e ed 6a 6d 3e a2 65 b7 be
       0.15625961 0.14485748 0.2318532 -0.35819727
000220 b4 9d 27 be 02 7d 02 be a5 5b 19 3f 21 5f e0 3d
       -0.16368753 -0.12742999 0.59905463 0.109556444
000230 d8 de 65 be b6 df 0d bf d2 fc 18 bf cd de e0 3e
       -0.2244829 -0.5541948 -0.59760773 0.43919984
000240 3f 0e 88 3e 8d 85 b6 bd 31 e3 bb 3b de 23 87 bd
       0.2657337 -0.089121915 0.0057338704 -0.06598638
000250 0d 61 ec 3c 48 a5 e9 3d e7 15 00 bf a9 fa 10 3f
       0.028854871 0.11408478 -0.5003342 0.5663248
000260 98 36 5c be 0b 3e 43 be 79 c6 4a 3d 9b 4a 3c bf
       -0.21505201 -0.19066636 0.049505685 -0.7355134
000270 25 9b 58 be d9 31 49 be 5c a4 08 be 18 5d e3 3e
       -0.21152933 -0.19647922 -0.13343948 0.44406962
000280 10 b6 d8 be 13 35 0f 3f d2 2a 72 3f 5b 86 86 3f
       -0.42326403 0.5594036 0.9459659 1.0509752
000290 90 ec b8 be 1d fe 1a 3f 75 42 15 bd 18 a6 35 bf
       -0.36117983 0.60543996 -0.03644033 -0.70956564
0002a0 c1 66 42 3f 8d 61 be bc a5 da cf bd 4d 30 fc 3e
       0.7593804 -0.023239875 -0.10149125 0.492556
0002b0 2d ce 20 3f 85 a0 5d 3d dd 5c 33 bf 38 8d 66 3f
       0.628146 0.05410816 -0.70063573 0.9005923
0002c0 a0 03 4a bf a2 aa 3c 3f fa 9a 1c 3e 95 8b b8 be
       -0.7891178 0.73697865 0.15293494 -0.36043993
0002d0 fb 6e c3 bd f9 e2 3a bf 37 29 07 3f 87 41 38 bf
       -0.09542652 -0.7300258 0.52797264 -0.71974987
0002e0 c0 7e 57 bf 49 bd 75 3e 43 64 6b bd 64 ee fd 3d
       -0.8417778 0.23997988 -0.057468664 0.12398985
0002f0 3a c4 dd be d6 43 1a 3e cb 69 b1 be ae df 45 be
       -0.4331377 0.1506494 -0.34651026 -0.19323608
000300 42 ce 00 3e d8 5d ff bc 44 da 61 3e 32 69 09 be
       0.12578681 -0.031172678 0.22055918 -0.13419035
000310 52 99 a9 be 4c 31 5d be 0f 41 41 3f 6e 0c a7 3e
       -0.33124787 -0.21600837 0.75489897 0.3262667
000320 bc 44 21 be d6 71 58 be 43 29 54 be fa 49 8b 3d
       -0.15748876 -0.21137175 -0.20718865 0.06801219
000330 96 cb a6 3e 41 a1 32 3f af a7 ca 3d 67 b1 cc bc
       0.325772 0.69777304 0.09895264 -0.024986936
000340 19 d7 82 3e 86 ac b3 be 7e f1 f3 3c 84 6b 33 be
       0.2555473 -0.35092562 0.029778238 -0.17521483
000350 31 9e a6 3d 6a f3 32 bf 1a 25 92 3e 44 80 95 3d
       0.08135641 -0.6990267 0.2854393 0.07299855
000360 5b 3d f4 3e 44 28 0b 3f ec 89 38 be a0 87 62 3e
       0.4770306 0.54358315 -0.18021363 0.2212205
000370 c8 a0 04 3d ad a7 11 3e 14 36 79 3b e9 39 2b 3e
       0.032379895 0.1422412 0.0038026618 0.1672131
000380 e7 a7 e7 3e 35 13 4a 3f d9 90 f0 bd a7 0e 20 be
       0.45245287 0.7893556 -0.117463775 -0.1563059
000390 ba f4 04 bf d5 a0 bd 3d d0 1c d4 be c2 91 37 3f
       -0.51935923 0.09259192 -0.41428232 0.71706784
0003a0 d9 3e 2e 3f ed 51 77 be 4b 54 95 be 2b aa a3 be
       0.6806465 -0.24152346 -0.29165873 -0.31965765
0003b0 1d 99 d3 3e 04 22 08 3d 49 0c 98 3d d2 8e 51 3f
       0.41327754 0.033235565 0.07424218 0.8185855
0003c0 91 94 bb 3a 17 a0 07 be 0a 9e fd 3e 73 9a 6e 3e
       0.0014311244 -0.13244663 0.49534637 0.23301105
0003d0 74 e5 94 bf 37 d7 44 3e bb c0 dd 3d 9f ca c7 3e
       -1.1632524 0.19222723 0.10827776 0.39021775
0003e0 de 5f 83 3e e4 b0 03 3f bd 17 eb be fc 74 5d 3e
       0.25659078 0.5144179 -0.45916548 0.21626657
0003f0 38 e8 15 3f 3f 4f 32 3e ec 09 06 bf e0 51 ab 3d
       0.5855746 0.17413042 -0.5235889 0.08365226

bn1.running_var f4 [256]
000000 ba 4e 0c 3f 87 57 b9 40 db 8b 31 3f 93 6f 15 40
       0.5480763 5.7919345 0.6935403 2.334935
000010 ca bc 4c 3f 7c 9f 8c 40 99 fd 13 3e 2a ed 25 40
       0.7997557 4.3944683 0.14452209 2.5926003
000020 cc f0 1a 40 ca be 30 3e 6a c7 23 3e 0c 3e 8b 3e
       2.420947 0.1726028 0.15994039 0.27195776
000030 50 13 26 3f 4e a6 e3 3f 23 b0 bf 3e 2f b3 42 3e
       0.6487322 1.7785127 0.3743907 0.19013666
000040 44 4b 44 3e ef 3c 34 3f 9a 80 16 40 0b cf 7e 3f
       0.19169337 0.7040548 2.3515992 0.9953467
000050 70 0e 3b 40 e9 cd 98 3e 0b e4 05 3f 89 60 f3 3e
       2.9227562 0.29844597 0.5230109 0.47534588
000060 2c 1c 8b 3e af dc 1f 3f f1 af e2 3f 54 44 42 40
       0.2716993 0.6244611 1.7709943 3.0354204
000070 15 43 85 40 97 d1 20 40 b3 fd d9 3e 7b dd bb 3f
       4.1644387 2.5127923 0.4257637 1.4676965
000080 f3 76 84 3f 90 8c d2 3d 9d ff 31 3f 73 a6 33 3f
       1.03488 0.102807164 0.6953066 0.70175856
000090 e5 0e 98 3e 6d 8a b1 3e 8e 73 52 3f af ff 24 3f
       0.29698864 0.34675923 0.8220757 0.6445264
0000a0 8b a0 e4 3e e8 a3 f4 3e 68 2f 74 40 eb c9 47 3f
       0.44653735 0.477813 3.8153934 0.7804248
0000b0 ba 2e de 3f e6 4f 46 3f e2 37 50 40 67 b1 43 3f
       1.735801 0.77465665 3.2534108 0.7644257
0000c0 68 44 a9 3f 73 1c de 3f ed 9f 3a 3f b0 6f d0 3f
       1.3224001 1.7352432 0.7290028 1.6284084
0000d0 08 8d 1a 3f c4 54 49 3f 03 cf 13 3f 6b c8 0b 3e
       0.60371447 0.7864497 0.5773775 0.13650672
0000e0 0e 79 22 40 c9 78 20 3e 2d cf c3 3e 04 9e 33 3f
       2.5386386 0.15671076 0.38244 0.7016299
0000f0 5f d0 5f 3e d1 ea cb 3e a4 27 83 3f 52 68 12 3f
       0.21856831 0.39827588 1.0246472 0.5719043
000100 15 ec db 3f d5 af b5 3e 44 7c 9a 40 b0 60 d7 3f
       1.7181422 0.35485712 4.827669 1.6826382
000110 3b 6c cd 3e d9 8e 9a 3e d7 e0 06 40 f1 5f 0c 3e
       0.40121636 0.3018711 2.1074731 0.13708474
000120 78 93 d8 40 88 86 c1 3f de 0b 22 3f 38 3f a9 3f
       6.7680016 1.5119181 0.6329936 1.3222418
000130 ea 6c ab 3f 10 8f 97 40 7e 48 6b 3e e8 2d 5e 3f
       1.3392613 4.7362137 0.22976872 0.867888
000140 2c e5 89 3e 29 f5 a8 3e 2b 4c 5b 3f 91 6e ae 3f
       0.26932657 0.32999542 0.856631 1.3627492
000150 b3 38 9d 3e cf 23 ea 3e 57 3b ea 40 de 6c 90 3e
       0.3070732 0.45730445 7.3197436 0.2820806
000160 5b df 79 3f 6e 10 6a 3f bf 31 fa 3e d0 94 72 40
       0.9760644 0.9143132 0.48866078 3.7903328
000170 63 46 03 40 00 15 1f 40 20 86 f8 3e 34 7e f0 3e
       2.051171 2.4856567 0.4853983 0.46971285
000180 b2 4a 01 3f 71 a9 36 40 1e 8d 17 40 8a 4d eb 3f
       0.505046 2.854092 2.367988 1.8383038
000190 d1 fe 3c 3e 77 75 95 3e 3b 2b 00 3f e5 84 70 3f
       0.1845658 0.2919118 0.50065964 0.9395278
0001a0 07 38 0a 40 06 06 01 3f d3 8b 28 3f 87 96 91 40
       2.1596696 0.50399816 0.65838355 4.549625
0001b0 aa 11 b5 40 a3 99 13 40 7e 6a 02 40 0d f5 3d 40
       5.6584063 2.3062522 2.0377498 2.9680817
0001c0 e0 19 f6 3d 8f 7f 3a 3f 17 6b 44 3e ee b9 c7 3e
       0.12016654 0.7285089 0.19181477 0.3900904
0001d0 2f 82 d1 3f a0 48 a8 40 14 1a 35 40 aa 70 40 3f
       1.6367854 5.2588654 2.8297167 0.7517191
0001e0 7c 3b 6e 40 ff e2 a2 3f d3 4c 1f 3f b0 f4 a6 3e
       3.7223806 1.2725524 0.622266 0.32608557
0001f0 7c 06 79 3f a6 80 84 40 01 bc 98 3e b4 39 dd 3e
       0.9727552 4.140704 0.29830936 0.43208086
000200 41 04 79 3e 62 d0 e2 3e 10 d1 d7 3e 39 65 46 40
       0.24318029 0.44299608 0.4215169 3.0999281
000210 e6 c1 de 3f e8 fd c6 3e 82 f4 e2 3e ec 15 07 3f
       1.7402923 0.3886559 0.4432717 0.52767825
000220 47 bd a9 3f ae fd d4 3f 2f e2 aa 3e 0a a0 9c 3e
       1.3260888 1.6639917 0.3337569 0.3059085
000230 05 66 5c 3f 31 19 72 3f a0 14 28 40 0f 95 b0 3f
       0.8609317 0.9456969 2.6262589 1.3795489
000240 fa da 69 3e f0 48 7a 3e e1 2e af 3f 87 17 30 3f
       0.22837439 0.24441886 1.3686181 0.687859
000250 c8 1e 4b 40 39 19 8c 3e 7f 4d 60 3e 57 3c 93 40
       3.1737537 0.27362993 0.21904562 4.6011157
000260 ba 9f 2e 40 0c 71 82 3f ea 82 5b 3e 71 f5 86 3f
       2.728499 1.0190749 0.21436659 1.0543653
000270 cf 22 89 3f aa d3 ff 3f 51 27 b5 3e ce 65 e0 3e
       1.0713748 1.998647 0.3538156 0.4382767
000280 76 96 af 3f 97 a3 08 40 a1 8d 3d 3f d2 08 f7 3e
       1.3717792 2.1349847 0.74044234 0.48248917
000290 57 33 c4 3f a5 6c c8 3f 40 31 a1 3f f5 04 29 3f
       1.5328168 1.5658156 1.2593155 0.6602319
0002a0 22 a0 ca 3f 0c 22 86 3e 27 9d 8e 3f 87 5d b8 40
       1.5830119 0.2619785 1.1141709 5.761417
0002b0 96 33 e0 3e 32 61 05 3f a7 78 2d 3f c7 a6 a9 40
       0.43789357 0.52101433 0.67762226 5.3016086
0002c0 09 f3 e5 3e 40 09 87 40 80 57 64 40 5a 38 87 40
       0.44911984 4.219879 3.5678406 4.225629
0002d0 ec 4c 84 3f 5b 1d eb 3f fa 4e 3b 3f 34 ce f1 3f
       1.0335975 1.8368334 0.73167384 1.8891053
0002e0 f0 f0 f9 3e c4 4c 38 3f 63 8b 5c 3e 1a 16 99 40
       0.48816633 0.71992135 0.21537547 4.783948
0002f0 60 a5 ac 3e 2b 6b 14 3f 7c 6d 1a 40 2d fb 36 3f
       0.3371992 0.57976025 2.4129324 0.71477014
000300 f2 b5 de 3e f9 60 0e 3f 86 18 67 3f ef b9 1c 3f
       0.43498188 0.5561672 0.90271795 0.6122121
000310 88 50 c3 3e 32 a5 42 40 6b e3 5f 3f 1c db a9 3e
       0.38147378 3.0413327 0.8745639 0.3317498
000320 40 97 31 3e 3f e2 61 3e 4e f2 fb 40 ca 62 80 3f
       0.17342854 0.22058962 7.873328 1.0030148
000330 cd ad 96 40 9a f5 ab 3e ff 95 31 40 18 26 9d 3f
       4.708716 0.33585817 2.77478 1.227725
000340 26 16 40 3f 43 2f 66 3f c3 5c f5 3e fc e8 59 3e
       0.75033796 0.89915866 0.47922334 0.21280283
000350 3d 8f 0e 3f 7f 7b 94 3f 96 9f 39 3f d8 5d ea 3f
       0.55687314 1.1600188 0.72509134 1.8309889
000360 ff 3d 8b 3d e7 a1 09 3f 5f d5 ae 3f 27 3d b8 40
       0.06798934 0.5376267 1.3658866 5.757465
000370 9d 87 ea 3f a7 93 c4 3e 2c 6c 8f 3e af 96 b9 3e
       1.8322636 0.383939 0.28012216 0.36247775
000380 33 7a 5c 3e a8 8f a9 3f ef 58 c3 3e ac 55 ad 3e
       0.2153099 1.3246965 0.38153788 0.33854425
000390 a0 46 f5 3f ce a1 06 40 13 fd 9f 3e ad c1 03 40
       1.9162178 2.1036258 0.31247768 2.058696
0003a0 77 f0 97 3f fc 28 81 3f da 4d 0a 3e 74 0b 76 3e
       1.1870259 1.0090632 0.1350626 0.24027807
0003b0 d7 4a 0f 3e 9a 19 11 3f 18 ad 15 3f 6d 2e 17 3f
       0.13993393 0.5667969 0.58467245 0.59055215
0003c0 f5 2a 1e 3e dd ae b0 3f 39 12 03 40 d8 5c 3a 40
       0.15446074 1.3803364 2.0479872 2.9119167
0003d0 5a 35 c3 3e 2a 1a 04 41 ac 24 34 40 af 14 ed 3e
       0.38126642 8.256388 2.8147383 0.46304843
0003e0 f4 bd fa 3e e8 90 4e 40 db 78 fc 3f a9 a7 51 40
       0.48973048 3.2275944 1.9724382 3.2758582
0003f0 aa 3a f3 3f 9c 60 31 40 d8 7a 6e 40 e6 25 03 40
       1.9002278 2.7715216 3.7262478 2.0491881

fc2.weight f4 [128, 256]
000000 29 48 5b 3d 17 53 21 bd f2 0a 22 be fe 99 b7 bd
       0.053535614 -0.03938588 -0.15824488 -0.089649186
000010 5b 49 94 bd ef a9 8c 3e 9f bf d7 bb 07 90 96 be
       -0.07240554 0.274734 -0.0065841223 -0.2940676
000020 ef 11 5c 3e 50 d8 8b bd f3 9d 84 3e ea 44 8f be
       0.21491216 -0.06828368 0.25901756 -0.27982265
000030 e7 6a da bc 34 9d 3c 3e c5 8a 03 bd 5b cf 06 be
       -0.026662303 0.18419343 -0.032114763 -0.13165037
000040 e3 69 fc 3d f6 5c 27 3e c1 1a 65 be 1e 5f 97 be
       0.12324884 0.16344056 -0.22373487 -0.29564756
000050 2a 3c 60 3d 02 6a 6d 3a 00 cf 09 3e b4 95 89 3e
       0.054744877 0.0009056629 0.1345787 0.26872027
000060 34 8d 29 3d 8c 27 d5 3d 6e 27 30 be 8e d2 e0 bd
       0.041394427 0.104079336 -0.17202541 -0.1097766
000070 a4 df 46 bd fd e7 b4 be 90 93 d9 bd 78 ce 11 bc
       -0.048553124 -0.35333243 -0.106238484 -0.008899324
000080 62 9f 8c bd 16 b5 7f 3c 34 8a 28 39 2e 2c 3a bd
       -0.06866337 0.015607139 0.00016073213 -0.04545229
000090 de f1 a8 3e cb 53 48 be 07 ce fb bd f8 0c 7a 3e
       0.3299703 -0.19563214 -0.12295156 0.2441901
0000a0 31 0c 8a bd aa 52 ce bc e8 fd 64 3d e0 a2 43 3c
       -0.067406066 -0.025185902 0.055906206 0.011940688
0000b0 bc 1a 95 be dd fa a5 bd e2 84 c4 3d c8 38 e5 bd
       -0.2912196 -0.08104489 0.09595658 -0.11192471
0000c0 5e 9d 46 3e 77 e6 54 bd 18 e2 4b be 4c 17 1a be
       0.19395968 -0.0519776 -0.19910467 -0.1504795
0000d0 38 7e 03 3e 1b 6d 95 bd a7 11 03 3e bf 4e 12 3d
       0.12841117 -0.07296201 0.12799703 0.03571963
0000e0 b0 ff 68 be 75 d8 4b 3e 72 12 10 be 2a e7 e1 bd
       -0.22753787 0.1990679 -0.14069536 -0.11030419
0000f0 ea f2 8f 3d 54 0b 2e be 55 9b 29 be 50 d4 44 bd
       0.07028754 -0.16996509 -0.1656316 -0.04805404
000100 90 fa 17 3e f5 dc 6f bd 3c 22 0b 3e e3 e1 83 bd
       0.14841676 -0.05856033 0.13587278 -0.06439569
000110 5f 02 32 3e 1f ff 9d 3b a4 13 f9 bd 78 a6 e3 3b
       0.17383717 0.0048216726 -0.12161949 0.006947335
000120 3f 16 ad 3c 52 2e 2c bd eb be b3 3d 1a 29 7b 3e
       0.021128772 -0.042036362 0.08776649 0.24527398
000130 cc 4f 73 3d ee ed 85 3d b7 ec d7 3d 3c cc df be
       0.059402272 0.06539522 0.10543197 -0.43710506
000140 eb 80 21 be 12 2d 5b 3e 4c 35 d8 bd 9c e2 75 ba
       -0.15771835 0.21403912 -0.105570406 -0.0009379776
000150 fc a2 21 3b 78 d1 11 be 52 6a 2f 3e 6b 2a 12 3e
       0.0024663797 -0.14240062 0.17130402 0.14273994
000160 e6 7c cc 3d 7d 43 df bd 76 39 2d 3e 55 99 e8 bd
       0.0998476 -0.10901544 0.16916451 -0.11357371
000170 0e 0f 09 bd 6d 7b 70 3e c3 81 bb bd e4 fb 8a be
       -0.033461623 0.23484583 -0.091556095 -0.27145302
000180 aa 91 e5 3b 1d 4e 6f 3d 76 e2 a1 3e c4 c8 57 bd
       0.00700589 0.058424104 0.31618088 -0.0526817
000190 d0 b5 89 bd 2b 78 b4 bd 9b 5f 83 bd 1e 68 f3 3d
       -0.06724131 -0.08811983 -0.0641472 0.11885093
0001a0 b3 7d 1f bd 73 28 2e bd 5a f2 11 bc 9f af 27 be
       -0.038938235 -0.042519044 -0.008907879 -0.16375588
0001b0 46 8b 87 3d 69 6b 0a 3e f9 ff 02 be b3 d4 5f 3d
       0.06618361 0.13517536 -0.12792958 0.054646205
0001c0 d2 ba 94 bd 32 af 38 3e 64 2e 89 3e 03 9d 9b 3c
       -0.07262196 0.18035582 0.26793206 0.018995767
0001d0 07 61 b7 bc 9e 21 5a bc 90 cf 44 bb 9c 3c ab 3d
       -0.022385133 -0.013313679 -0.0030030943 0.0836117
0001e0 0e d1 83 be 56 a7 5c 3e c5 5e 16 3e e2 22 84 be
       -0.25745434 0.21548209 0.14684589 -0.25807863
0001f0 85 03 e0 3b d8 b7 4b 3e 59 23 b9 bd 0c 9b c6 bd
       0.006836357 0.1989435 -0.09039945 -0.096975416
000200 75 f1 f7 3c 1c 5f 08 3e 4d ad 53 3e 86 f6 fe bd
       0.030266503 0.13317531 0.20671578 -0.12449364
000210 ac 89 20 be 0a 44 65 3e 66 a5 53 bd 28 11 48 3e
       -0.15677518 0.22389236 -0.051671408 0.19537795
000220 30 c1 ad be 52 59 78 bd b1 51 01 be 05 a5 1e 3d
       -0.33936453 -0.060632057 -0.12628819 0.038731594
000230 71 33 c7 3d 25 a1 86 bc 7b f5 af bd 15 ec 5a be
       0.097266085 -0.016434262 -0.085917436 -0.2137912
000240 01 1f 70 3e 9a 30 b2 3d 93 b8 e8 3b 4e 87 9b 3e
       0.23449327 0.08700676 0.007102081 0.30376667
000250 fe 91 75 3d 95 a4 83 3e 8f 14 a3 bc 1b a1 49 3e
       0.059953682 0.25711504 -0.019907264 0.19690363
000260 20 07 94 be 4c 9d ee bd 1c ee 8c bd 64 12 63 be
       -0.28911686 -0.11651096 -0.06881353 -0.22174984
000270 4c 8a 4c 3e 50 cb de 3d ad 2e 95 bd 34 30 3f bd
       0.19974631 0.108786225 -0.07284293 -0.04667683
000280 15 3c 8c 3e a0 f5 32 3e 0c bc 13 bd 7e 82 84 3d
       0.2738959 0.17476511 -0.036068007 0.06470202
000290 b7 df 18 3e fb c4 56 be ab 0f 7d be be 29 8f 3d
       0.1492909 -0.2097358 -0.24713008 0.069903836
0002a0 bc 23 86 be 4d 95 98 3e 4f c4 76 3d 92 7d 80 3e
       -0.26199138 0.29801407 0.06024581 0.25095803
0002b0 86 ee 11 be 74 7d 77 be c8 03 d2 3d e6 15 6e 3c
       -0.14251146 -0.2416895 0.102546275 0.014531588
0002c0 cf 20 e0 bd 50 e9 6f 3d 7c 68 b2 3d c6 f7 39 be
       -0.10943758 0.058572114 0.08711335 -0.18160924
0002d0 a6 40 b4 3d 52 90 8c bd 64 76 b2 bd 42 58 14 be
       0.08801393 -0.068634644 -0.087139875 -0.14486793
0002e0 00 e3 3c bd b6 eb 0d 3e 2b 4c 83 3d ee d3 73 be
       -0.04611492 0.13859448 0.06411012 -0.23811314
0002f0 87 ed 7f 3e 9d ce bc 3b 85 7f 8d 3d ad 5c 63 3d
       0.24992953 0.005761935 0.06909088 0.055508304
000300 8f 22 67 3e 5a a5 5d bc eb 65 ba bd b4 6b f2 bd
       0.22571777 -0.013528192 -0.091014706 -0.11836949
000310 39 2f 55 be d6 dd b1 3d 65 7e 7f bd a6 b9 48 bd
       -0.20818795 0.0868489 -0.0623764 -0.049005173
000320 96 25 0a bf fb 5b 0a 3d a4 94 04 3c 34 f6 b7 be
       -0.539636 0.033779126 0.008092079 -0.35930026
000330 74 33 0a be fd 9c 94 be 97 05 3b 3e f8 30 24 be
       -0.1349619 -0.29026023 0.18263851 -0.16034305
000340 1c 0e 50 be 32 11 d6 bd 65 0f 66 be 15 cc 30 be
       -0.20317882 -0.104524985 -0.2246681 -0.17265351
000350 9a 73 82 3e 69 2d 80 bd 6f ad 03 bd 87 01 99 3e
       0.25478822 -0.06258661 -0.03214782 0.29883978
000360 6a 05 9a 3e 5a bf b7 3d c5 e3 0a bc 8a ad 2a 3d
       0.30082256 0.08972044 -0.008477156 0.041669406
000370 5b 7e dd bb ea 92 f0 bd 85 e6 7e 3e 7b 00 68 3d
       -0.0067594475 -0.11746772 0.24892624 0.056641083
000380 b1 44 18 3e f9 c8 d9 bd 38 f5 86 be 70 8e 1a 3e
       0.14869954 -0.106340356 -0.26358962 0.15093398
000390 1b d1 a2 be 36 f1 8d 3d 44 94 fb 3d c6 c2 f8 3d
       -0.3180016 0.06930773 0.12284139 0.12146525
0003a0 ac 22 62 3e 2a b8 3f be 31 a4 bb bd 84 91 9b 3e
       0.22083539 -0.18722597 -0.091621764 0.30384457
0003b0 d2 6e 5b 3d c7 b0 07 bf 3c 9c e5 3d 2a 4e 8c 3d
       0.053572483 -0.53004116 0.1121144 0.06850846
0003c0 00 3a 6d bd 57 db 4c 3e 2d 61 9f bd 97 81 5e be
       -0.05791664 0.20005547 -0.07782207 -0.21729122
0003d0 3c 61 57 3d b8 0d 78 bd 93 29 31 bd 27 3d 1c be
       0.052582964 -0.06055996 -0.04325254 -0.15257703
0003e0 35 f6 48 3d 77 ce e3 3c 61 0c 89 bd 2b 74 6b 3e
       0.049062926 0.027808411 -0.06691814 0.22993533
0003f0 5e a6 4f bd 20 dc 2f 3e f2 bb 34 3c 38 20 26 3d
       -0.05069577 0.17173815 0.011031138 0.04055807
